_________________________________________________________________
Layer (type)                 Output Shape              Param #   
=================================================================
input_1 (InputLayer)         (None, 224, 224, 12)      0         
_________________________________________________________________
block1_conv1 (Conv2D)        (None, 222, 222, 96)      10464     
_________________________________________________________________
block1_conv2 (Conv2D)        (None, 220, 220, 128)     110720    
_________________________________________________________________
block1_conv3 (Conv2D)        (None, 218, 218, 128)     147584    
_________________________________________________________________
block1_pool (MaxPooling2D)   (None, 109, 109, 128)     0         
_________________________________________________________________
block2_conv1 (Conv2D)        (None, 107, 107, 256)     295168    
_________________________________________________________________
block2_conv2 (Conv2D)        (None, 105, 105, 256)     590080    
_________________________________________________________________
block2_pool (MaxPooling2D)   (None, 52, 52, 256)       0         
_________________________________________________________________
block3_conv1 (Conv2D)        (None, 50, 50, 512)       1180160   
_________________________________________________________________
flatten_1 (Flatten)          (None, 1280000)           0         
_________________________________________________________________
dense_1 (Dense)              (None, 512)               655360512 
_________________________________________________________________
dense_2 (Dense)              (None, 256)               131328    
_________________________________________________________________
dense_3 (Dense)              (None, 1)                 257       
=================================================================
Total params: 657,826,273
Trainable params: 657,826,273
Non-trainable params: 0
_________________________________________________________________
_________________________________________________________________
Layer (type)                 Output Shape              Param #   
=================================================================
input_1 (InputLayer)         (None, 224, 224, 12)      0         
_________________________________________________________________
block1_conv1 (Conv2D)        (None, 222, 222, 96)      10464     
_________________________________________________________________
block1_conv2 (Conv2D)        (None, 220, 220, 128)     110720    
_________________________________________________________________
block1_conv3 (Conv2D)        (None, 218, 218, 128)     147584    
_________________________________________________________________
block1_pool (MaxPooling2D)   (None, 109, 109, 128)     0         
_________________________________________________________________
block2_conv1 (Conv2D)        (None, 107, 107, 256)     295168    
_________________________________________________________________
block2_conv2 (Conv2D)        (None, 105, 105, 256)     590080    
_________________________________________________________________
block2_pool (MaxPooling2D)   (None, 52, 52, 256)       0         
_________________________________________________________________
block3_conv1 (Conv2D)        (None, 50, 50, 512)       1180160   
_________________________________________________________________
block3_conv2 (Conv2D)        (None, 48, 48, 2)         9218      
_________________________________________________________________
flatten_1 (Flatten)          (None, 4608)              0         
_________________________________________________________________
dense_1 (Dense)              (None, 512)               2359808   
_________________________________________________________________
dense_2 (Dense)              (None, 256)               131328    
_________________________________________________________________
dense_3 (Dense)              (None, 1)                 257       
=================================================================
Total params: 4,834,787
Trainable params: 4,834,787
Non-trainable params: 0
_________________________________________________________________
0 [D loss: 0.692665, acc.: 51.56%] [G loss: 0.686900]
class 00: #TP=421055, #FP= 51791, #FN=30651, IoU=0.836
class 01: #TP=637474, #FP=100564, #FN=65774, IoU=0.793
class 02: #TP=   428, #FP=  4052, #FN=36631, IoU=0.010
…
class 08: #TP=  4151, #FP= 62104, #FN=152700, IoU=0.019
class 09: #TP=   863, #FP=105187, #FN=19154, IoU=0.007
class 10: #TP=   594, #FP=140100, #FN= 9444, IoU=0.004
class 11: #TP= 23934, #FP=627358, #FN=54140, IoU=0.034
_________________
Mean IoU: 0.044
21 [D loss: 7.971192, acc.: 50.00%] [G loss: 0.000000]
22 [D loss: 7.971192, acc.: 50.00%] [G loss: 0.000000]
23 [D loss: 7.971192, acc.: 50.00%] [G loss: 0.000000]
_________________________________________________________________
Layer (type)                 Output Shape              Param #   
=================================================================
input_1 (InputLayer)         (None, 224, 224, 12)      0         
_________________________________________________________________
block1_conv1 (Conv2D)        (None, 222, 222, 96)      10464     
_________________________________________________________________
block1_conv2 (Conv2D)        (None, 220, 220, 128)     110720    
_________________________________________________________________
block1_conv3 (Conv2D)        (None, 218, 218, 128)     147584    
_________________________________________________________________
block1_pool (MaxPooling2D)   (None, 109, 109, 128)     0         
_________________________________________________________________
block2_conv1 (Conv2D)        (None, 107, 107, 256)     295168    
_________________________________________________________________
block2_conv2 (Conv2D)        (None, 105, 105, 256)     590080    
_________________________________________________________________
block2_pool (MaxPooling2D)   (None, 52, 52, 256)       0         
_________________________________________________________________
block3_conv1 (Conv2D)        (None, 50, 50, 512)       1180160   
_________________________________________________________________
block3_conv2 (Conv2D)        (None, 48, 48, 2)         9218      
_________________________________________________________________
flatten_1 (Flatten)          (None, 4608)              0         
_________________________________________________________________
dense_1 (Dense)              (None, 512)               2359808   
_________________________________________________________________
dense_2 (Dense)              (None, 256)               131328    
_________________________________________________________________
dense_3 (Dense)              (None, 1)                 257       
=================================================================
Total params: 4,834,787
Trainable params: 4,834,787
Non-trainable params: 0
_________________________________________________________________
0 [D loss: 0.689846, acc.: 50.00%] [G loss: 0.842588]
class 00: #TP=426891, #FP= 36545, #FN=20664, IoU=0.882
class 01: #TP=609316, #FP= 71656, #FN=31501, IoU=0.855
class 02: #TP=   516, #FP=  2140, #FN=34773, IoU=0.014
…
class 09: #TP=   564, #FP=  9570, #FN=20859, IoU=0.018
class 10: #TP=   206, #FP=  9203, #FN=12610, IoU=0.009
class 11: #TP=  6334, #FP= 24453, #FN=86304, IoU=0.054
_________________
Mean IoU: 0.184
441 [D loss: 0.000431, acc.: 100.00%] [G loss: 7.264892]
442 [D loss: 0.000514, acc.: 100.00%] [G loss: 7.082954]
443 [D loss: 0.000629, acc.: 100.00%] [G loss: 6.848155]
444 [D loss: 0.000676, acc.: 100.00%] [G loss: 6.797818]
_________________________________________________________________
Layer (type)                 Output Shape              Param #   
=================================================================
input_1 (InputLayer)         (None, 224, 224, 12)      0         
_________________________________________________________________
block1_conv1 (Conv2D)        (None, 222, 222, 96)      10464     
_________________________________________________________________
block1_conv2 (Conv2D)        (None, 220, 220, 128)     110720    
_________________________________________________________________
block1_conv3 (Conv2D)        (None, 218, 218, 128)     147584    
_________________________________________________________________
block1_pool (MaxPooling2D)   (None, 109, 109, 128)     0         
_________________________________________________________________
block2_conv1 (Conv2D)        (None, 107, 107, 256)     295168    
_________________________________________________________________
block2_conv2 (Conv2D)        (None, 105, 105, 256)     590080    
_________________________________________________________________
block2_pool (MaxPooling2D)   (None, 52, 52, 256)       0         
_________________________________________________________________
block3_conv1 (Conv2D)        (None, 50, 50, 512)       1180160   
_________________________________________________________________
block3_conv2 (Conv2D)        (None, 48, 48, 2)         9218      
_________________________________________________________________
flatten_1 (Flatten)          (None, 4608)              0         
_________________________________________________________________
dense_1 (Dense)              (None, 512)               2359808   
_________________________________________________________________
leaky_re_lu_1 (LeakyReLU)    (None, 512)               0         
_________________________________________________________________
dense_2 (Dense)              (None, 256)               131328    
_________________________________________________________________
leaky_re_lu_2 (LeakyReLU)    (None, 256)               0         
_________________________________________________________________
dense_3 (Dense)              (None, 1)                 257       
=================================================================
Total params: 4,834,787
Trainable params: 4,834,787
Non-trainable params: 0
_________________________________________________________________
0 [D loss: 0.707283, acc.: 3.12%] [G loss: 0.851818]
class 00: #TP=453349, #FP= 35182, #FN=20243, IoU=0.891
class 01: #TP=594470, #FP= 72868, #FN=33819, IoU=0.848
class 02: #TP=   360, #FP=  2078, #FN=32688, IoU=0.010
…
247 [D loss: 0.000007, acc.: 100.00%] [G loss: 11.214013]
248 [D loss: 0.000007, acc.: 100.00%] [G loss: 11.176529]
249 [D loss: 0.000007, acc.: 100.00%] [G loss: 11.146754]
250 [D loss: 0.000086, acc.: 100.00%] [G loss: 11.063520]
251 [D loss: 0.000008, acc.: 100.00%] [G loss: 11.009218]
252 [D loss: 0.000009, acc.: 100.00%] [G loss: 10.968332]
253 [D loss: 0.000009, acc.: 100.00%] [G loss: 10.968099]
_________________________________________________________________
Layer (type)                 Output Shape              Param #   
=================================================================
input_1 (InputLayer)         (None, 224, 224, 12)      0         
_________________________________________________________________
block1_conv1 (Conv2D)        (None, 222, 222, 96)      10464     
_________________________________________________________________
block1_conv2 (Conv2D)        (None, 220, 220, 128)     110720    
_________________________________________________________________
block1_conv3 (Conv2D)        (None, 218, 218, 128)     147584    
_________________________________________________________________
block1_pool (MaxPooling2D)   (None, 109, 109, 128)     0         
_________________________________________________________________
block2_conv1 (Conv2D)        (None, 107, 107, 256)     295168    
_________________________________________________________________
block2_conv2 (Conv2D)        (None, 105, 105, 256)     590080    
_________________________________________________________________
block2_pool (MaxPooling2D)   (None, 52, 52, 256)       0         
_________________________________________________________________
block3_conv1 (Conv2D)        (None, 50, 50, 256)       590080    
_________________________________________________________________
block3_conv2 (Conv2D)        (None, 48, 48, 256)       590080    
_________________________________________________________________
block3_pool (MaxPooling2D)   (None, 12, 12, 256)       0         
_________________________________________________________________
block4_conv1 (Conv2D)        (None, 10, 10, 256)       590080    
_________________________________________________________________
flatten_1 (Flatten)          (None, 25600)             0         
_________________________________________________________________
dense_1 (Dense)              (None, 512)               13107712  
_________________________________________________________________
leaky_re_lu_1 (LeakyReLU)    (None, 512)               0         
_________________________________________________________________
dense_2 (Dense)              (None, 256)               131328    
_________________________________________________________________
leaky_re_lu_2 (LeakyReLU)    (None, 256)               0         
_________________________________________________________________
dense_3 (Dense)              (None, 1)                 257       
=================================================================
Total params: 16,163,553
Trainable params: 16,163,553
Non-trainable params: 0
_________________________________________________________________
0 [D loss: 0.734280, acc.: 0.00%] [G loss: 0.664660]
class 00: #TP=425286, #FP= 38237, #FN=20673, IoU=0.878
class 01: #TP=639577, #FP= 60946, #FN=28890, IoU=0.877
class 02: #TP=   600, #FP=  2253, #FN=34111, IoU=0.016
…
323 [D loss: 0.000447, acc.: 100.00%] [G loss: 7.383627]
324 [D loss: 0.000813, acc.: 100.00%] [G loss: 7.389752]
325 [D loss: 0.000476, acc.: 100.00%] [G loss: 7.398651]
326 [D loss: 0.000355, acc.: 100.00%] [G loss: 7.416057]
327 [D loss: 0.000328, acc.: 100.00%] [G loss: 7.432939]
328 [D loss: 0.000726, acc.: 100.00%] [G loss: 7.448362]
329 [D loss: 0.000787, acc.: 100.00%] [G loss: 7.456828]
_________________________________________________________________
Layer (type)                 Output Shape              Param #   
=================================================================
input_1 (InputLayer)         (None, 224, 224, 12)      0         
_________________________________________________________________
conv2d_1 (Conv2D)            (None, 222, 222, 64)      6976      
_________________________________________________________________
leaky_re_lu_1 (LeakyReLU)    (None, 222, 222, 64)      0         
_________________________________________________________________
conv2d_2 (Conv2D)            (None, 110, 110, 64)      36928     
_________________________________________________________________
leaky_re_lu_2 (LeakyReLU)    (None, 110, 110, 64)      0         
_________________________________________________________________
batch_normalization_1 (Batch (None, 110, 110, 64)      256       
_________________________________________________________________
conv2d_3 (Conv2D)            (None, 108, 108, 128)     73856     
_________________________________________________________________
leaky_re_lu_3 (LeakyReLU)    (None, 108, 108, 128)     0         
_________________________________________________________________
batch_normalization_2 (Batch (None, 108, 108, 128)     512       
_________________________________________________________________
conv2d_4 (Conv2D)            (None, 53, 53, 128)       147584    
_________________________________________________________________
leaky_re_lu_4 (LeakyReLU)    (None, 53, 53, 128)       0         
_________________________________________________________________
batch_normalization_3 (Batch (None, 53, 53, 128)       512       
_________________________________________________________________
conv2d_5 (Conv2D)            (None, 51, 51, 256)       295168    
_________________________________________________________________
leaky_re_lu_5 (LeakyReLU)    (None, 51, 51, 256)       0         
_________________________________________________________________
batch_normalization_4 (Batch (None, 51, 51, 256)       1024      
_________________________________________________________________
conv2d_6 (Conv2D)            (None, 25, 25, 256)       590080    
_________________________________________________________________
leaky_re_lu_6 (LeakyReLU)    (None, 25, 25, 256)       0         
_________________________________________________________________
batch_normalization_5 (Batch (None, 25, 25, 256)       1024      
_________________________________________________________________
conv2d_7 (Conv2D)            (None, 23, 23, 512)       1180160   
_________________________________________________________________
leaky_re_lu_7 (LeakyReLU)    (None, 23, 23, 512)       0         
_________________________________________________________________
batch_normalization_6 (Batch (None, 23, 23, 512)       2048      
_________________________________________________________________
conv2d_8 (Conv2D)            (None, 11, 11, 512)       2359808   
_________________________________________________________________
leaky_re_lu_8 (LeakyReLU)    (None, 11, 11, 512)       0         
_________________________________________________________________
batch_normalization_7 (Batch (None, 11, 11, 512)       2048      
_________________________________________________________________
dense_1 (Dense)              (None, 11, 11, 1024)      525312    
_________________________________________________________________
leaky_re_lu_9 (LeakyReLU)    (None, 11, 11, 1024)      0         
_________________________________________________________________
dense_4 (Dense)              (None, 11, 11, 1)         1025      
=================================================================
Total params: 5,224,321
Trainable params: 5,220,609
Non-trainable params: 3,712
_________________________________________________________________
_________________________________________________________________
Layer (type)                 Output Shape              Param #   
=================================================================
input_1 (InputLayer)         (None, 224, 224, 12)      0         
_________________________________________________________________
conv2d_1 (Conv2D)            (None, 222, 222, 64)      6976      
_________________________________________________________________
leaky_re_lu_1 (LeakyReLU)    (None, 222, 222, 64)      0         
_________________________________________________________________
conv2d_2 (Conv2D)            (None, 110, 110, 64)      36928     
_________________________________________________________________
leaky_re_lu_2 (LeakyReLU)    (None, 110, 110, 64)      0         
_________________________________________________________________
batch_normalization_1 (Batch (None, 110, 110, 64)      256       
_________________________________________________________________
conv2d_3 (Conv2D)            (None, 108, 108, 128)     73856     
_________________________________________________________________
leaky_re_lu_3 (LeakyReLU)    (None, 108, 108, 128)     0         
_________________________________________________________________
batch_normalization_2 (Batch (None, 108, 108, 128)     512       
_________________________________________________________________
conv2d_4 (Conv2D)            (None, 53, 53, 128)       147584    
_________________________________________________________________
leaky_re_lu_4 (LeakyReLU)    (None, 53, 53, 128)       0         
_________________________________________________________________
batch_normalization_3 (Batch (None, 53, 53, 128)       512       
_________________________________________________________________
conv2d_5 (Conv2D)            (None, 51, 51, 256)       295168    
_________________________________________________________________
leaky_re_lu_5 (LeakyReLU)    (None, 51, 51, 256)       0         
_________________________________________________________________
batch_normalization_4 (Batch (None, 51, 51, 256)       1024      
_________________________________________________________________
conv2d_6 (Conv2D)            (None, 25, 25, 256)       590080    
_________________________________________________________________
leaky_re_lu_6 (LeakyReLU)    (None, 25, 25, 256)       0         
_________________________________________________________________
batch_normalization_5 (Batch (None, 25, 25, 256)       1024      
_________________________________________________________________
conv2d_7 (Conv2D)            (None, 23, 23, 512)       1180160   
_________________________________________________________________
leaky_re_lu_7 (LeakyReLU)    (None, 23, 23, 512)       0         
_________________________________________________________________
batch_normalization_6 (Batch (None, 23, 23, 512)       2048      
_________________________________________________________________
conv2d_8 (Conv2D)            (None, 11, 11, 512)       2359808   
_________________________________________________________________
leaky_re_lu_8 (LeakyReLU)    (None, 11, 11, 512)       0         
_________________________________________________________________
batch_normalization_7 (Batch (None, 11, 11, 512)       2048      
_________________________________________________________________
dense_1 (Dense)              (None, 11, 11, 1024)      525312    
_________________________________________________________________
leaky_re_lu_9 (LeakyReLU)    (None, 11, 11, 1024)      0         
_________________________________________________________________
dense_4 (Dense)              (None, 11, 11, 1)         1025      
=================================================================
Total params: 5,224,321
Trainable params: 5,220,609
Non-trainable params: 3,712
_________________________________________________________________
_________________________________________________________________
Layer (type)                 Output Shape              Param #   
=================================================================
input_1 (InputLayer)         (None, 224, 224, 12)      0         
_________________________________________________________________
conv2d_1 (Conv2D)            (None, 222, 222, 64)      6976      
_________________________________________________________________
leaky_re_lu_1 (LeakyReLU)    (None, 222, 222, 64)      0         
_________________________________________________________________
conv2d_2 (Conv2D)            (None, 110, 110, 64)      36928     
_________________________________________________________________
leaky_re_lu_2 (LeakyReLU)    (None, 110, 110, 64)      0         
_________________________________________________________________
batch_normalization_1 (Batch (None, 110, 110, 64)      256       
_________________________________________________________________
conv2d_3 (Conv2D)            (None, 108, 108, 128)     73856     
_________________________________________________________________
leaky_re_lu_3 (LeakyReLU)    (None, 108, 108, 128)     0         
_________________________________________________________________
batch_normalization_2 (Batch (None, 108, 108, 128)     512       
_________________________________________________________________
conv2d_4 (Conv2D)            (None, 53, 53, 128)       147584    
_________________________________________________________________
leaky_re_lu_4 (LeakyReLU)    (None, 53, 53, 128)       0         
_________________________________________________________________
batch_normalization_3 (Batch (None, 53, 53, 128)       512       
_________________________________________________________________
conv2d_5 (Conv2D)            (None, 51, 51, 256)       295168    
_________________________________________________________________
leaky_re_lu_5 (LeakyReLU)    (None, 51, 51, 256)       0         
_________________________________________________________________
batch_normalization_4 (Batch (None, 51, 51, 256)       1024      
_________________________________________________________________
conv2d_6 (Conv2D)            (None, 25, 25, 256)       590080    
_________________________________________________________________
leaky_re_lu_6 (LeakyReLU)    (None, 25, 25, 256)       0         
_________________________________________________________________
batch_normalization_5 (Batch (None, 25, 25, 256)       1024      
_________________________________________________________________
conv2d_7 (Conv2D)            (None, 23, 23, 512)       1180160   
_________________________________________________________________
leaky_re_lu_7 (LeakyReLU)    (None, 23, 23, 512)       0         
_________________________________________________________________
batch_normalization_6 (Batch (None, 23, 23, 512)       2048      
_________________________________________________________________
conv2d_8 (Conv2D)            (None, 11, 11, 512)       2359808   
_________________________________________________________________
leaky_re_lu_8 (LeakyReLU)    (None, 11, 11, 512)       0         
_________________________________________________________________
batch_normalization_7 (Batch (None, 11, 11, 512)       2048      
_________________________________________________________________
dense_1 (Dense)              (None, 11, 11, 1024)      525312    
_________________________________________________________________
leaky_re_lu_9 (LeakyReLU)    (None, 11, 11, 1024)      0         
_________________________________________________________________
dense_4 (Dense)              (None, 11, 11, 1)         1025      
=================================================================
Total params: 5,224,321
Trainable params: 5,220,609
Non-trainable params: 3,712
_________________________________________________________________
0 [D loss: 0.774631, acc.: 43.22%] [G loss: 0.816056]
class 00: #TP=469631, #FP= 39416, #FN=20343, IoU=0.887
class 01: #TP=542992, #FP= 67127, #FN=33235, IoU=0.844
class 02: #TP=   719, #FP=  2122, #FN=35939, IoU=0.019
…
130 [D loss: 0.191820, acc.: 99.07%] [G loss: 1.423248]
131 [D loss: 0.187518, acc.: 99.37%] [G loss: 1.440983]
132 [D loss: 0.184370, acc.: 99.43%] [G loss: 1.447645]
133 [D loss: 0.183666, acc.: 99.55%] [G loss: 1.483427]
134 [D loss: 0.172376, acc.: 99.63%] [G loss: 1.502725]
135 [D loss: 0.173464, acc.: 99.57%] [G loss: 1.525943]
136 [D loss: 0.162857, acc.: 99.82%] [G loss: 1.547484]
_________________________________________________________________
Layer (type)                 Output Shape              Param #   
=================================================================
input_1 (InputLayer)         (None, 224, 224, 12)      0         
_________________________________________________________________
conv2d_1 (Conv2D)            (None, 222, 222, 64)      6976      
_________________________________________________________________
leaky_re_lu_1 (LeakyReLU)    (None, 222, 222, 64)      0         
_________________________________________________________________
conv2d_2 (Conv2D)            (None, 110, 110, 64)      36928     
_________________________________________________________________
leaky_re_lu_2 (LeakyReLU)    (None, 110, 110, 64)      0         
_________________________________________________________________
batch_normalization_1 (Batch (None, 110, 110, 64)      256       
_________________________________________________________________
conv2d_3 (Conv2D)            (None, 108, 108, 128)     73856     
_________________________________________________________________
leaky_re_lu_3 (LeakyReLU)    (None, 108, 108, 128)     0         
_________________________________________________________________
batch_normalization_2 (Batch (None, 108, 108, 128)     512       
_________________________________________________________________
conv2d_4 (Conv2D)            (None, 53, 53, 128)       147584    
_________________________________________________________________
leaky_re_lu_4 (LeakyReLU)    (None, 53, 53, 128)       0         
_________________________________________________________________
batch_normalization_3 (Batch (None, 53, 53, 128)       512       
_________________________________________________________________
conv2d_5 (Conv2D)            (None, 51, 51, 256)       295168    
_________________________________________________________________
leaky_re_lu_5 (LeakyReLU)    (None, 51, 51, 256)       0         
_________________________________________________________________
batch_normalization_4 (Batch (None, 51, 51, 256)       1024      
_________________________________________________________________
conv2d_6 (Conv2D)            (None, 25, 25, 256)       590080    
_________________________________________________________________
leaky_re_lu_6 (LeakyReLU)    (None, 25, 25, 256)       0         
_________________________________________________________________
batch_normalization_5 (Batch (None, 25, 25, 256)       1024      
_________________________________________________________________
conv2d_7 (Conv2D)            (None, 23, 23, 512)       1180160   
_________________________________________________________________
leaky_re_lu_7 (LeakyReLU)    (None, 23, 23, 512)       0         
_________________________________________________________________
batch_normalization_6 (Batch (None, 23, 23, 512)       2048      
_________________________________________________________________
conv2d_8 (Conv2D)            (None, 11, 11, 512)       2359808   
_________________________________________________________________
leaky_re_lu_8 (LeakyReLU)    (None, 11, 11, 512)       0         
_________________________________________________________________
batch_normalization_7 (Batch (None, 11, 11, 512)       2048      
_________________________________________________________________
dense_1 (Dense)              (None, 11, 11, 1024)      525312    
_________________________________________________________________
leaky_re_lu_9 (LeakyReLU)    (None, 11, 11, 1024)      0         
_________________________________________________________________
dense_4 (Dense)              (None, 11, 11, 1)         1025      
=================================================================
Total params: 5,224,321
Trainable params: 5,220,609
Non-trainable params: 3,712
_________________________________________________________________
0 [D loss: 0.416420, acc.: 38.08%] [G loss: 0.461707]
class 00: #TP= 54024, #FP=  8211, #FN=416939, IoU=0.113
class 01: #TP=290321, #FP=412369, #FN=340423, IoU=0.278
class 02: #TP=   167, #FP= 12312, #FN=32369, IoU=0.004
…
class 06: #TP=  4993, #FP= 41888, #FN=34840, IoU=0.061
class 07: #TP=  7840, #FP= 22201, #FN=18964, IoU=0.160
class 08: #TP= 88956, #FP= 69713, #FN=69843, IoU=0.389
class 09: #TP=  1920, #FP= 39611, #FN=18524, IoU=0.032
class 10: #TP=   126, #FP=  7467, #FN= 9452, IoU=0.007
class 11: #TP= 26225, #FP= 46043, #FN=73877, IoU=0.179
_________________
Mean IoU: 0.335
641 [D loss: 0.034163, acc.: 98.40%] [G loss: 1.039656]
_________________________________________________________________
Layer (type)                 Output Shape              Param #   
=================================================================
input_1 (InputLayer)         (None, 224, 224, 12)      0         
_________________________________________________________________
block1_conv1 (Conv2D)        (None, 222, 222, 96)      10464     
_________________________________________________________________
block1_conv2 (Conv2D)        (None, 220, 220, 128)     110720    
_________________________________________________________________
block1_conv3 (Conv2D)        (None, 218, 218, 128)     147584    
_________________________________________________________________
block1_pool (MaxPooling2D)   (None, 109, 109, 128)     0         
_________________________________________________________________
block2_conv1 (Conv2D)        (None, 107, 107, 256)     295168    
_________________________________________________________________
block2_conv2 (Conv2D)        (None, 105, 105, 256)     590080    
_________________________________________________________________
block2_pool (MaxPooling2D)   (None, 52, 52, 256)       0         
_________________________________________________________________
block3_conv1 (Conv2D)        (None, 50, 50, 256)       590080    
_________________________________________________________________
block3_conv2 (Conv2D)        (None, 48, 48, 256)       590080    
_________________________________________________________________
dense_2 (Dense)              (None, 48, 48, 512)       131584    
_________________________________________________________________
leaky_re_lu_10 (LeakyReLU)   (None, 48, 48, 512)       0         
_________________________________________________________________
dense_3 (Dense)              (None, 48, 48, 256)       131328    
_________________________________________________________________
leaky_re_lu_11 (LeakyReLU)   (None, 48, 48, 256)       0         
_________________________________________________________________
dense_4 (Dense)              (None, 48, 48, 1)         257       
=================================================================
Total params: 2,597,345
Trainable params: 2,597,345
Non-trainable params: 0
_________________________________________________________________
_________________________________________________________________
Layer (type)                 Output Shape              Param #   
=================================================================
input_1 (InputLayer)         (None, 224, 224, 12)      0         
_________________________________________________________________
block1_conv1 (Conv2D)        (None, 222, 222, 96)      10464     
_________________________________________________________________
block1_conv2 (Conv2D)        (None, 220, 220, 128)     110720    
_________________________________________________________________
block1_conv3 (Conv2D)        (None, 218, 218, 128)     147584    
_________________________________________________________________
block1_pool (MaxPooling2D)   (None, 109, 109, 128)     0         
_________________________________________________________________
block2_conv1 (Conv2D)        (None, 107, 107, 256)     295168    
_________________________________________________________________
block2_conv2 (Conv2D)        (None, 105, 105, 256)     590080    
_________________________________________________________________
block2_pool (MaxPooling2D)   (None, 52, 52, 256)       0         
_________________________________________________________________
block3_conv1 (Conv2D)        (None, 50, 50, 256)       590080    
_________________________________________________________________
block3_conv2 (Conv2D)        (None, 48, 48, 256)       590080    
_________________________________________________________________
dense_2 (Dense)              (None, 48, 48, 512)       131584    
_________________________________________________________________
leaky_re_lu_10 (LeakyReLU)   (None, 48, 48, 512)       0         
_________________________________________________________________
dense_3 (Dense)              (None, 48, 48, 256)       131328    
_________________________________________________________________
leaky_re_lu_11 (LeakyReLU)   (None, 48, 48, 256)       0         
_________________________________________________________________
dense_4 (Dense)              (None, 48, 48, 1)         257       
=================================================================
Total params: 2,597,345
Trainable params: 2,597,345
Non-trainable params: 0
_________________________________________________________________
0 [D loss: 0.501592, acc.: 50.00%] [G loss: 0.994092]
class 00: #TP=421192, #FP= 37363, #FN=19919, IoU=0.880
class 01: #TP=544675, #FP= 62568, #FN=34079, IoU=0.849
class 02: #TP=   474, #FP=  2048, #FN=33151, IoU=0.013
…
231 [D loss: 0.139924, acc.: 79.67%] [G loss: 0.583666]
232 [D loss: 0.144691, acc.: 78.90%] [G loss: 0.584165]
233 [D loss: 0.146807, acc.: 79.67%] [G loss: 0.585770]
234 [D loss: 0.138058, acc.: 81.50%] [G loss: 0.602670]
235 [D loss: 0.141008, acc.: 82.81%] [G loss: 0.593855]
236 [D loss: 0.140098, acc.: 84.52%] [G loss: 0.593920]
237 [D loss: 0.141720, acc.: 85.49%] [G loss: 0.592460]
_________________________________________________________________
Layer (type)                 Output Shape              Param #   
=================================================================
input_1 (InputLayer)         (None, 224, 224, 12)      0         
_________________________________________________________________
block1_conv1 (Conv2D)        (None, 222, 222, 96)      10464     
_________________________________________________________________
block1_conv2 (Conv2D)        (None, 220, 220, 128)     110720    
_________________________________________________________________
block1_conv3 (Conv2D)        (None, 218, 218, 128)     147584    
_________________________________________________________________
block1_pool (MaxPooling2D)   (None, 109, 109, 128)     0         
_________________________________________________________________
block2_conv1 (Conv2D)        (None, 107, 107, 256)     295168    
_________________________________________________________________
block2_conv2 (Conv2D)        (None, 105, 105, 256)     590080    
_________________________________________________________________
block2_pool (MaxPooling2D)   (None, 52, 52, 256)       0         
_________________________________________________________________
block3_conv1 (Conv2D)        (None, 50, 50, 256)       590080    
_________________________________________________________________
block3_conv2 (Conv2D)        (None, 48, 48, 256)       590080    
_________________________________________________________________
dense_2 (Dense)              (None, 48, 48, 512)       131584    
_________________________________________________________________
leaky_re_lu_10 (LeakyReLU)   (None, 48, 48, 512)       0         
_________________________________________________________________
dense_3 (Dense)              (None, 48, 48, 256)       131328    
_________________________________________________________________
leaky_re_lu_11 (LeakyReLU)   (None, 48, 48, 256)       0         
_________________________________________________________________
dense_4 (Dense)              (None, 48, 48, 1)         257       
=================================================================
Total params: 2,597,345
Trainable params: 2,597,345
Non-trainable params: 0
_________________________________________________________________
(32, 224, 224, 12)
(32, 224, 224, 12)
0 [D loss: 0.507491, acc.: 50.00%] [G loss: 1.002035]
class 00: #TP=467904, #FP= 44389, #FN=19609, IoU=0.880
class 01: #TP=605694, #FP= 73956, #FN=33140, IoU=0.850
…
class 05: #TP=241263, #FP= 46533, #FN=28841, IoU=0.762
class 06: #TP= 13207, #FP=  6118, #FN=26555, IoU=0.288
class 07: #TP= 26193, #FP=  9810, #FN=13733, IoU=0.527
class 08: #TP=135474, #FP= 21774, #FN=20086, IoU=0.764
class 09: #TP=   721, #FP=  1396, #FN=18173, IoU=0.036
class 10: #TP=   297, #FP=  1680, #FN= 8432, IoU=0.029
class 11: #TP= 62498, #FP= 21060, #FN=22723, IoU=0.588
_________________
Mean IoU: 0.530
_________________________________________________________________
Layer (type)                 Output Shape              Param #   
=================================================================
input_1 (InputLayer)         (None, 224, 224, 12)      0         
_________________________________________________________________
block1_conv1 (Conv2D)        (None, 222, 222, 96)      10464     
_________________________________________________________________
block1_conv2 (Conv2D)        (None, 220, 220, 128)     110720    
_________________________________________________________________
block1_conv3 (Conv2D)        (None, 218, 218, 128)     147584    
_________________________________________________________________
block1_pool (MaxPooling2D)   (None, 109, 109, 128)     0         
_________________________________________________________________
block2_conv1 (Conv2D)        (None, 107, 107, 256)     295168    
_________________________________________________________________
block2_conv2 (Conv2D)        (None, 105, 105, 256)     590080    
_________________________________________________________________
block2_pool (MaxPooling2D)   (None, 52, 52, 256)       0         
_________________________________________________________________
block3_conv1 (Conv2D)        (None, 50, 50, 256)       590080    
_________________________________________________________________
block3_conv2 (Conv2D)        (None, 48, 48, 256)       590080    
_________________________________________________________________
dense_2 (Dense)              (None, 48, 48, 512)       131584    
_________________________________________________________________
leaky_re_lu_10 (LeakyReLU)   (None, 48, 48, 512)       0         
_________________________________________________________________
dense_3 (Dense)              (None, 48, 48, 256)       131328    
_________________________________________________________________
leaky_re_lu_11 (LeakyReLU)   (None, 48, 48, 256)       0         
_________________________________________________________________
dense_4 (Dense)              (None, 48, 48, 1)         257       
=================================================================
Total params: 2,597,345
Trainable params: 2,597,345
Non-trainable params: 0
_________________________________________________________________
(32, 224, 224, 12)
[9.9079585e-01 8.1873630e-05 1.0360784e-03 7.5511425e-06 1.2399022e-04
 3.5757199e-03 2.5473043e-04 5.9174457e-05 3.6193636e-05 1.2132822e-03
 1.4677552e-03 1.3477616e-03]
(32, 224, 224, 12)
[1. 0. 0. 0. 0. 0. 0. 0. 0. 0. 0. 0.]
_________________________________________________________________
Layer (type)                 Output Shape              Param #   
=================================================================
input_1 (InputLayer)         (None, 224, 224, 12)      0         
_________________________________________________________________
block1_conv1 (Conv2D)        (None, 222, 222, 96)      10464     
_________________________________________________________________
block1_conv2 (Conv2D)        (None, 220, 220, 128)     110720    
_________________________________________________________________
block1_conv3 (Conv2D)        (None, 218, 218, 128)     147584    
_________________________________________________________________
block1_pool (MaxPooling2D)   (None, 109, 109, 128)     0         
_________________________________________________________________
block2_conv1 (Conv2D)        (None, 107, 107, 256)     295168    
_________________________________________________________________
block2_conv2 (Conv2D)        (None, 105, 105, 256)     590080    
_________________________________________________________________
block2_pool (MaxPooling2D)   (None, 52, 52, 256)       0         
_________________________________________________________________
block3_conv1 (Conv2D)        (None, 50, 50, 256)       590080    
_________________________________________________________________
block3_conv2 (Conv2D)        (None, 48, 48, 256)       590080    
_________________________________________________________________
dense_2 (Dense)              (None, 48, 48, 512)       131584    
_________________________________________________________________
leaky_re_lu_10 (LeakyReLU)   (None, 48, 48, 512)       0         
_________________________________________________________________
dense_3 (Dense)              (None, 48, 48, 256)       131328    
_________________________________________________________________
leaky_re_lu_11 (LeakyReLU)   (None, 48, 48, 256)       0         
_________________________________________________________________
dense_4 (Dense)              (None, 48, 48, 1)         257       
=================================================================
Total params: 2,597,345
Trainable params: 2,597,345
Non-trainable params: 0
_________________________________________________________________
(32, 224, 224)
0
(32, 224, 224)
0
_________________________________________________________________
Layer (type)                 Output Shape              Param #   
=================================================================
input_1 (InputLayer)         (None, 224, 224, 12)      0         
_________________________________________________________________
block1_conv1 (Conv2D)        (None, 222, 222, 96)      10464     
_________________________________________________________________
block1_conv2 (Conv2D)        (None, 220, 220, 128)     110720    
_________________________________________________________________
block1_conv3 (Conv2D)        (None, 218, 218, 128)     147584    
_________________________________________________________________
block1_pool (MaxPooling2D)   (None, 109, 109, 128)     0         
_________________________________________________________________
block2_conv1 (Conv2D)        (None, 107, 107, 256)     295168    
_________________________________________________________________
block2_conv2 (Conv2D)        (None, 105, 105, 256)     590080    
_________________________________________________________________
block2_pool (MaxPooling2D)   (None, 52, 52, 256)       0         
_________________________________________________________________
block3_conv1 (Conv2D)        (None, 50, 50, 256)       590080    
_________________________________________________________________
block3_conv2 (Conv2D)        (None, 48, 48, 256)       590080    
_________________________________________________________________
dense_2 (Dense)              (None, 48, 48, 512)       131584    
_________________________________________________________________
leaky_re_lu_10 (LeakyReLU)   (None, 48, 48, 512)       0         
_________________________________________________________________
dense_3 (Dense)              (None, 48, 48, 256)       131328    
_________________________________________________________________
leaky_re_lu_11 (LeakyReLU)   (None, 48, 48, 256)       0         
_________________________________________________________________
dense_4 (Dense)              (None, 48, 48, 1)         257       
=================================================================
Total params: 2,597,345
Trainable params: 2,597,345
Non-trainable params: 0
_________________________________________________________________
_________________________________________________________________
Layer (type)                 Output Shape              Param #   
=================================================================
input_1 (InputLayer)         (None, 224, 224, 12)      0         
_________________________________________________________________
block1_conv1 (Conv2D)        (None, 222, 222, 96)      10464     
_________________________________________________________________
block1_conv2 (Conv2D)        (None, 220, 220, 128)     110720    
_________________________________________________________________
block1_conv3 (Conv2D)        (None, 218, 218, 128)     147584    
_________________________________________________________________
block1_pool (MaxPooling2D)   (None, 109, 109, 128)     0         
_________________________________________________________________
block2_conv1 (Conv2D)        (None, 107, 107, 256)     295168    
_________________________________________________________________
block2_conv2 (Conv2D)        (None, 105, 105, 256)     590080    
_________________________________________________________________
block2_pool (MaxPooling2D)   (None, 52, 52, 256)       0         
_________________________________________________________________
block3_conv1 (Conv2D)        (None, 50, 50, 256)       590080    
_________________________________________________________________
block3_conv2 (Conv2D)        (None, 48, 48, 256)       590080    
_________________________________________________________________
dense_2 (Dense)              (None, 48, 48, 512)       131584    
_________________________________________________________________
leaky_re_lu_10 (LeakyReLU)   (None, 48, 48, 512)       0         
_________________________________________________________________
dense_3 (Dense)              (None, 48, 48, 256)       131328    
_________________________________________________________________
leaky_re_lu_11 (LeakyReLU)   (None, 48, 48, 256)       0         
_________________________________________________________________
dense_4 (Dense)              (None, 48, 48, 1)         257       
=================================================================
Total params: 2,597,345
Trainable params: 2,597,345
Non-trainable params: 0
_________________________________________________________________
_________________________________________________________________
Layer (type)                 Output Shape              Param #   
=================================================================
input_1 (InputLayer)         (None, 224, 224, 12)      0         
_________________________________________________________________
block1_conv1 (Conv2D)        (None, 222, 222, 96)      10464     
_________________________________________________________________
block1_conv2 (Conv2D)        (None, 220, 220, 128)     110720    
_________________________________________________________________
block1_conv3 (Conv2D)        (None, 218, 218, 128)     147584    
_________________________________________________________________
block1_pool (MaxPooling2D)   (None, 109, 109, 128)     0         
_________________________________________________________________
block2_conv1 (Conv2D)        (None, 107, 107, 256)     295168    
_________________________________________________________________
block2_conv2 (Conv2D)        (None, 105, 105, 256)     590080    
_________________________________________________________________
block2_pool (MaxPooling2D)   (None, 52, 52, 256)       0         
_________________________________________________________________
block3_conv1 (Conv2D)        (None, 50, 50, 256)       590080    
_________________________________________________________________
block3_conv2 (Conv2D)        (None, 48, 48, 256)       590080    
_________________________________________________________________
dense_2 (Dense)              (None, 48, 48, 512)       131584    
_________________________________________________________________
leaky_re_lu_10 (LeakyReLU)   (None, 48, 48, 512)       0         
_________________________________________________________________
dense_3 (Dense)              (None, 48, 48, 256)       131328    
_________________________________________________________________
leaky_re_lu_11 (LeakyReLU)   (None, 48, 48, 256)       0         
_________________________________________________________________
dense_4 (Dense)              (None, 48, 48, 1)         257       
=================================================================
Total params: 2,597,345
Trainable params: 2,597,345
Non-trainable params: 0
_________________________________________________________________
_________________________________________________________________
Layer (type)                 Output Shape              Param #   
=================================================================
input_1 (InputLayer)         (None, 224, 224, 12)      0         
_________________________________________________________________
block1_conv1 (Conv2D)        (None, 222, 222, 96)      10464     
_________________________________________________________________
block1_conv2 (Conv2D)        (None, 220, 220, 128)     110720    
_________________________________________________________________
block1_conv3 (Conv2D)        (None, 218, 218, 128)     147584    
_________________________________________________________________
block1_pool (MaxPooling2D)   (None, 109, 109, 128)     0         
_________________________________________________________________
block2_conv1 (Conv2D)        (None, 107, 107, 256)     295168    
_________________________________________________________________
block2_conv2 (Conv2D)        (None, 105, 105, 256)     590080    
_________________________________________________________________
block2_pool (MaxPooling2D)   (None, 52, 52, 256)       0         
_________________________________________________________________
block3_conv1 (Conv2D)        (None, 50, 50, 256)       590080    
_________________________________________________________________
block3_conv2 (Conv2D)        (None, 48, 48, 256)       590080    
_________________________________________________________________
dense_2 (Dense)              (None, 48, 48, 512)       131584    
_________________________________________________________________
leaky_re_lu_10 (LeakyReLU)   (None, 48, 48, 512)       0         
_________________________________________________________________
dense_3 (Dense)              (None, 48, 48, 256)       131328    
_________________________________________________________________
leaky_re_lu_11 (LeakyReLU)   (None, 48, 48, 256)       0         
_________________________________________________________________
dense_4 (Dense)              (None, 48, 48, 1)         257       
=================================================================
Total params: 2,597,345
Trainable params: 2,597,345
Non-trainable params: 0
_________________________________________________________________
(32, 224, 224, 12)
[0. 1. 0. 0. 0. 0. 0. 0. 0. 0. 0. 0.]
(32, 224, 224, 12)
[0. 1. 0. 0. 0. 0. 0. 0. 0. 0. 0. 0.]
0 [D loss: 0.493806, acc.: 50.00%] [G loss: 0.978831]
class 00: #TP=431182, #FP= 33665, #FN=23295, IoU=0.883
…
class 10: #TP=    29, #FP=  4664, #FN=14755, IoU=0.001
class 11: #TP= 12310, #FP=211991, #FN=110093, IoU=0.037
_________________
Mean IoU: 0.051
41 [D loss: 0.248877, acc.: 64.16%] [G loss: 0.355594]
42 [D loss: 0.242714, acc.: 69.44%] [G loss: 0.358203]
43 [D loss: 0.237675, acc.: 69.37%] [G loss: 0.359689]
44 [D loss: 0.236622, acc.: 68.19%] [G loss: 0.360591]
45 [D loss: 0.228860, acc.: 72.16%] [G loss: 0.362332]
_________________________________________________________________
Layer (type)                 Output Shape              Param #   
=================================================================
input_1 (InputLayer)         (None, 224, 224, 12)      0         
_________________________________________________________________
conv2d_1 (Conv2D)            (None, 222, 222, 64)      6976      
_________________________________________________________________
leaky_re_lu_1 (LeakyReLU)    (None, 222, 222, 64)      0         
_________________________________________________________________
conv2d_2 (Conv2D)            (None, 110, 110, 64)      36928     
_________________________________________________________________
leaky_re_lu_2 (LeakyReLU)    (None, 110, 110, 64)      0         
_________________________________________________________________
batch_normalization_1 (Batch (None, 110, 110, 64)      256       
_________________________________________________________________
conv2d_3 (Conv2D)            (None, 108, 108, 128)     73856     
_________________________________________________________________
leaky_re_lu_3 (LeakyReLU)    (None, 108, 108, 128)     0         
_________________________________________________________________
batch_normalization_2 (Batch (None, 108, 108, 128)     512       
_________________________________________________________________
conv2d_4 (Conv2D)            (None, 53, 53, 128)       147584    
_________________________________________________________________
leaky_re_lu_4 (LeakyReLU)    (None, 53, 53, 128)       0         
_________________________________________________________________
batch_normalization_3 (Batch (None, 53, 53, 128)       512       
_________________________________________________________________
conv2d_5 (Conv2D)            (None, 51, 51, 256)       295168    
_________________________________________________________________
leaky_re_lu_5 (LeakyReLU)    (None, 51, 51, 256)       0         
_________________________________________________________________
batch_normalization_4 (Batch (None, 51, 51, 256)       1024      
_________________________________________________________________
conv2d_6 (Conv2D)            (None, 25, 25, 256)       590080    
_________________________________________________________________
leaky_re_lu_6 (LeakyReLU)    (None, 25, 25, 256)       0         
_________________________________________________________________
batch_normalization_5 (Batch (None, 25, 25, 256)       1024      
_________________________________________________________________
conv2d_7 (Conv2D)            (None, 23, 23, 512)       1180160   
_________________________________________________________________
leaky_re_lu_7 (LeakyReLU)    (None, 23, 23, 512)       0         
_________________________________________________________________
batch_normalization_6 (Batch (None, 23, 23, 512)       2048      
_________________________________________________________________
conv2d_8 (Conv2D)            (None, 11, 11, 512)       2359808   
_________________________________________________________________
leaky_re_lu_8 (LeakyReLU)    (None, 11, 11, 512)       0         
_________________________________________________________________
batch_normalization_7 (Batch (None, 11, 11, 512)       2048      
_________________________________________________________________
dense_1 (Dense)              (None, 11, 11, 1024)      525312    
_________________________________________________________________
leaky_re_lu_9 (LeakyReLU)    (None, 11, 11, 1024)      0         
_________________________________________________________________
dense_4 (Dense)              (None, 11, 11, 1)         1025      
=================================================================
Total params: 5,224,321
Trainable params: 5,220,609
Non-trainable params: 3,712
_________________________________________________________________
_________________________________________________________________
Layer (type)                 Output Shape              Param #   
=================================================================
input_1 (InputLayer)         (None, 224, 224, 12)      0         
_________________________________________________________________
conv2d_1 (Conv2D)            (None, 222, 222, 64)      6976      
_________________________________________________________________
leaky_re_lu_1 (LeakyReLU)    (None, 222, 222, 64)      0         
_________________________________________________________________
conv2d_2 (Conv2D)            (None, 110, 110, 64)      36928     
_________________________________________________________________
leaky_re_lu_2 (LeakyReLU)    (None, 110, 110, 64)      0         
_________________________________________________________________
batch_normalization_1 (Batch (None, 110, 110, 64)      256       
_________________________________________________________________
conv2d_3 (Conv2D)            (None, 108, 108, 128)     73856     
_________________________________________________________________
leaky_re_lu_3 (LeakyReLU)    (None, 108, 108, 128)     0         
_________________________________________________________________
batch_normalization_2 (Batch (None, 108, 108, 128)     512       
_________________________________________________________________
conv2d_4 (Conv2D)            (None, 53, 53, 128)       147584    
_________________________________________________________________
leaky_re_lu_4 (LeakyReLU)    (None, 53, 53, 128)       0         
_________________________________________________________________
batch_normalization_3 (Batch (None, 53, 53, 128)       512       
_________________________________________________________________
conv2d_5 (Conv2D)            (None, 51, 51, 256)       295168    
_________________________________________________________________
leaky_re_lu_5 (LeakyReLU)    (None, 51, 51, 256)       0         
_________________________________________________________________
batch_normalization_4 (Batch (None, 51, 51, 256)       1024      
_________________________________________________________________
conv2d_6 (Conv2D)            (None, 25, 25, 256)       590080    
_________________________________________________________________
leaky_re_lu_6 (LeakyReLU)    (None, 25, 25, 256)       0         
_________________________________________________________________
batch_normalization_5 (Batch (None, 25, 25, 256)       1024      
_________________________________________________________________
conv2d_7 (Conv2D)            (None, 23, 23, 512)       1180160   
_________________________________________________________________
leaky_re_lu_7 (LeakyReLU)    (None, 23, 23, 512)       0         
_________________________________________________________________
batch_normalization_6 (Batch (None, 23, 23, 512)       2048      
_________________________________________________________________
conv2d_8 (Conv2D)            (None, 11, 11, 512)       2359808   
_________________________________________________________________
leaky_re_lu_8 (LeakyReLU)    (None, 11, 11, 512)       0         
_________________________________________________________________
batch_normalization_7 (Batch (None, 11, 11, 512)       2048      
_________________________________________________________________
dense_1 (Dense)              (None, 11, 11, 1024)      525312    
_________________________________________________________________
leaky_re_lu_9 (LeakyReLU)    (None, 11, 11, 1024)      0         
_________________________________________________________________
dense_4 (Dense)              (None, 11, 11, 1)         1025      
=================================================================
Total params: 5,224,321
Trainable params: 5,220,609
Non-trainable params: 3,712
_________________________________________________________________
0 [D loss: 1.949455, acc.: 28.23%] [G loss: 2.522486]
class 00: #TP=398439, #FP= 39265, #FN=20582, IoU=0.869
class 01: #TP=634274, #FP= 71519, #FN=29254, IoU=0.863
class 02: #TP=   355, #FP=  2088, #FN=31979, IoU=0.010
…
