…
ETA: 0s8937472/8986568 [============================>.] - ETA: 0s8986624/8986568 [==============================] - 58s 6us/step
Model: "deeplabv3plus"
__________________________________________________________________________________________________
Layer (type)                    Output Shape         Param #     Connected to                     
==================================================================================================
input_1 (InputLayer)            [(None, 224, 224, 3) 0                                            
__________________________________________________________________________________________________
Conv (Conv2D)                   (None, 112, 112, 32) 864         input_1[0][0]                    
__________________________________________________________________________________________________
Conv_BN (BatchNormalization)    (None, 112, 112, 32) 128         Conv[0][0]                       
__________________________________________________________________________________________________
Conv_Relu6 (Activation)         (None, 112, 112, 32) 0           Conv_BN[0][0]                    
__________________________________________________________________________________________________
expanded_conv_depthwise (Depthw (None, 112, 112, 32) 288         Conv_Relu6[0][0]                 
__________________________________________________________________________________________________
expanded_conv_depthwise_BN (Bat (None, 112, 112, 32) 128         expanded_conv_depthwise[0][0]    
__________________________________________________________________________________________________
expanded_conv_depthwise_relu (A (None, 112, 112, 32) 0           expanded_conv_depthwise_BN[0][0] 
__________________________________________________________________________________________________
expanded_conv_project (Conv2D)  (None, 112, 112, 16) 512         expanded_conv_depthwise_relu[0][0
__________________________________________________________________________________________________
expanded_conv_project_BN (Batch (None, 112, 112, 16) 64          expanded_conv_project[0][0]      
__________________________________________________________________________________________________
expanded_conv_1_expand (Conv2D) (None, 112, 112, 96) 1536        expanded_conv_project_BN[0][0]   
__________________________________________________________________________________________________
expanded_conv_1_expand_BN (Batc (None, 112, 112, 96) 384         expanded_conv_1_expand[0][0]     
__________________________________________________________________________________________________
expanded_conv_1_expand_relu (Ac (None, 112, 112, 96) 0           expanded_conv_1_expand_BN[0][0]  
__________________________________________________________________________________________________
expanded_conv_1_depthwise (Dept (None, 56, 56, 96)   864         expanded_conv_1_expand_relu[0][0]
__________________________________________________________________________________________________
expanded_conv_1_depthwise_BN (B (None, 56, 56, 96)   384         expanded_conv_1_depthwise[0][0]  
__________________________________________________________________________________________________
expanded_conv_1_depthwise_relu  (None, 56, 56, 96)   0           expanded_conv_1_depthwise_BN[0][0
__________________________________________________________________________________________________
expanded_conv_1_project (Conv2D (None, 56, 56, 24)   2304        expanded_conv_1_depthwise_relu[0]
__________________________________________________________________________________________________
expanded_conv_1_project_BN (Bat (None, 56, 56, 24)   96          expanded_conv_1_project[0][0]    
__________________________________________________________________________________________________
expanded_conv_2_expand (Conv2D) (None, 56, 56, 144)  3456        expanded_conv_1_project_BN[0][0] 
__________________________________________________________________________________________________
expanded_conv_2_expand_BN (Batc (None, 56, 56, 144)  576         expanded_conv_2_expand[0][0]     
__________________________________________________________________________________________________
expanded_conv_2_expand_relu (Ac (None, 56, 56, 144)  0           expanded_conv_2_expand_BN[0][0]  
__________________________________________________________________________________________________
expanded_conv_2_depthwise (Dept (None, 56, 56, 144)  1296        expanded_conv_2_expand_relu[0][0]
__________________________________________________________________________________________________
expanded_conv_2_depthwise_BN (B (None, 56, 56, 144)  576         expanded_conv_2_depthwise[0][0]  
__________________________________________________________________________________________________
expanded_conv_2_depthwise_relu  (None, 56, 56, 144)  0           expanded_conv_2_depthwise_BN[0][0
__________________________________________________________________________________________________
expanded_conv_2_project (Conv2D (None, 56, 56, 24)   3456        expanded_conv_2_depthwise_relu[0]
__________________________________________________________________________________________________
expanded_conv_2_project_BN (Bat (None, 56, 56, 24)   96          expanded_conv_2_project[0][0]    
__________________________________________________________________________________________________
expanded_conv_2_add (Add)       (None, 56, 56, 24)   0           expanded_conv_1_project_BN[0][0] 
                                                                 expanded_conv_2_project_BN[0][0] 
__________________________________________________________________________________________________
expanded_conv_3_expand (Conv2D) (None, 56, 56, 144)  3456        expanded_conv_2_add[0][0]        
__________________________________________________________________________________________________
expanded_conv_3_expand_BN (Batc (None, 56, 56, 144)  576         expanded_conv_3_expand[0][0]     
__________________________________________________________________________________________________
expanded_conv_3_expand_relu (Ac (None, 56, 56, 144)  0           expanded_conv_3_expand_BN[0][0]  
__________________________________________________________________________________________________
expanded_conv_3_depthwise (Dept (None, 28, 28, 144)  1296        expanded_conv_3_expand_relu[0][0]
__________________________________________________________________________________________________
expanded_conv_3_depthwise_BN (B (None, 28, 28, 144)  576         expanded_conv_3_depthwise[0][0]  
__________________________________________________________________________________________________
expanded_conv_3_depthwise_relu  (None, 28, 28, 144)  0           expanded_conv_3_depthwise_BN[0][0
__________________________________________________________________________________________________
expanded_conv_3_project (Conv2D (None, 28, 28, 32)   4608        expanded_conv_3_depthwise_relu[0]
__________________________________________________________________________________________________
expanded_conv_3_project_BN (Bat (None, 28, 28, 32)   128         expanded_conv_3_project[0][0]    
__________________________________________________________________________________________________
expanded_conv_4_expand (Conv2D) (None, 28, 28, 192)  6144        expanded_conv_3_project_BN[0][0] 
__________________________________________________________________________________________________
expanded_conv_4_expand_BN (Batc (None, 28, 28, 192)  768         expanded_conv_4_expand[0][0]     
__________________________________________________________________________________________________
expanded_conv_4_expand_relu (Ac (None, 28, 28, 192)  0           expanded_conv_4_expand_BN[0][0]  
__________________________________________________________________________________________________
expanded_conv_4_depthwise (Dept (None, 28, 28, 192)  1728        expanded_conv_4_expand_relu[0][0]
__________________________________________________________________________________________________
expanded_conv_4_depthwise_BN (B (None, 28, 28, 192)  768         expanded_conv_4_depthwise[0][0]  
__________________________________________________________________________________________________
expanded_conv_4_depthwise_relu  (None, 28, 28, 192)  0           expanded_conv_4_depthwise_BN[0][0
__________________________________________________________________________________________________
expanded_conv_4_project (Conv2D (None, 28, 28, 32)   6144        expanded_conv_4_depthwise_relu[0]
__________________________________________________________________________________________________
expanded_conv_4_project_BN (Bat (None, 28, 28, 32)   128         expanded_conv_4_project[0][0]    
__________________________________________________________________________________________________
expanded_conv_4_add (Add)       (None, 28, 28, 32)   0           expanded_conv_3_project_BN[0][0] 
                                                                 expanded_conv_4_project_BN[0][0] 
__________________________________________________________________________________________________
expanded_conv_5_expand (Conv2D) (None, 28, 28, 192)  6144        expanded_conv_4_add[0][0]        
__________________________________________________________________________________________________
expanded_conv_5_expand_BN (Batc (None, 28, 28, 192)  768         expanded_conv_5_expand[0][0]     
__________________________________________________________________________________________________
expanded_conv_5_expand_relu (Ac (None, 28, 28, 192)  0           expanded_conv_5_expand_BN[0][0]  
__________________________________________________________________________________________________
expanded_conv_5_depthwise (Dept (None, 28, 28, 192)  1728        expanded_conv_5_expand_relu[0][0]
__________________________________________________________________________________________________
expanded_conv_5_depthwise_BN (B (None, 28, 28, 192)  768         expanded_conv_5_depthwise[0][0]  
__________________________________________________________________________________________________
expanded_conv_5_depthwise_relu  (None, 28, 28, 192)  0           expanded_conv_5_depthwise_BN[0][0
__________________________________________________________________________________________________
expanded_conv_5_project (Conv2D (None, 28, 28, 32)   6144        expanded_conv_5_depthwise_relu[0]
__________________________________________________________________________________________________
expanded_conv_5_project_BN (Bat (None, 28, 28, 32)   128         expanded_conv_5_project[0][0]    
__________________________________________________________________________________________________
expanded_conv_5_add (Add)       (None, 28, 28, 32)   0           expanded_conv_4_add[0][0]        
                                                                 expanded_conv_5_project_BN[0][0] 
__________________________________________________________________________________________________
expanded_conv_6_expand (Conv2D) (None, 28, 28, 192)  6144        expanded_conv_5_add[0][0]        
__________________________________________________________________________________________________
expanded_conv_6_expand_BN (Batc (None, 28, 28, 192)  768         expanded_conv_6_expand[0][0]     
__________________________________________________________________________________________________
expanded_conv_6_expand_relu (Ac (None, 28, 28, 192)  0           expanded_conv_6_expand_BN[0][0]  
__________________________________________________________________________________________________
expanded_conv_6_depthwise (Dept (None, 28, 28, 192)  1728        expanded_conv_6_expand_relu[0][0]
__________________________________________________________________________________________________
expanded_conv_6_depthwise_BN (B (None, 28, 28, 192)  768         expanded_conv_6_depthwise[0][0]  
__________________________________________________________________________________________________
expanded_conv_6_depthwise_relu  (None, 28, 28, 192)  0           expanded_conv_6_depthwise_BN[0][0
__________________________________________________________________________________________________
expanded_conv_6_project (Conv2D (None, 28, 28, 64)   12288       expanded_conv_6_depthwise_relu[0]
__________________________________________________________________________________________________
expanded_conv_6_project_BN (Bat (None, 28, 28, 64)   256         expanded_conv_6_project[0][0]    
__________________________________________________________________________________________________
expanded_conv_7_expand (Conv2D) (None, 28, 28, 384)  24576       expanded_conv_6_project_BN[0][0] 
__________________________________________________________________________________________________
expanded_conv_7_expand_BN (Batc (None, 28, 28, 384)  1536        expanded_conv_7_expand[0][0]     
__________________________________________________________________________________________________
expanded_conv_7_expand_relu (Ac (None, 28, 28, 384)  0           expanded_conv_7_expand_BN[0][0]  
__________________________________________________________________________________________________
expanded_conv_7_depthwise (Dept (None, 28, 28, 384)  3456        expanded_conv_7_expand_relu[0][0]
__________________________________________________________________________________________________
expanded_conv_7_depthwise_BN (B (None, 28, 28, 384)  1536        expanded_conv_7_depthwise[0][0]  
__________________________________________________________________________________________________
expanded_conv_7_depthwise_relu  (None, 28, 28, 384)  0           expanded_conv_7_depthwise_BN[0][0
__________________________________________________________________________________________________
expanded_conv_7_project (Conv2D (None, 28, 28, 64)   24576       expanded_conv_7_depthwise_relu[0]
__________________________________________________________________________________________________
expanded_conv_7_project_BN (Bat (None, 28, 28, 64)   256         expanded_conv_7_project[0][0]    
__________________________________________________________________________________________________
expanded_conv_7_add (Add)       (None, 28, 28, 64)   0           expanded_conv_6_project_BN[0][0] 
                                                                 expanded_conv_7_project_BN[0][0] 
__________________________________________________________________________________________________
expanded_conv_8_expand (Conv2D) (None, 28, 28, 384)  24576       expanded_conv_7_add[0][0]        
__________________________________________________________________________________________________
expanded_conv_8_expand_BN (Batc (None, 28, 28, 384)  1536        expanded_conv_8_expand[0][0]     
__________________________________________________________________________________________________
expanded_conv_8_expand_relu (Ac (None, 28, 28, 384)  0           expanded_conv_8_expand_BN[0][0]  
__________________________________________________________________________________________________
expanded_conv_8_depthwise (Dept (None, 28, 28, 384)  3456        expanded_conv_8_expand_relu[0][0]
__________________________________________________________________________________________________
expanded_conv_8_depthwise_BN (B (None, 28, 28, 384)  1536        expanded_conv_8_depthwise[0][0]  
__________________________________________________________________________________________________
expanded_conv_8_depthwise_relu  (None, 28, 28, 384)  0           expanded_conv_8_depthwise_BN[0][0
__________________________________________________________________________________________________
expanded_conv_8_project (Conv2D (None, 28, 28, 64)   24576       expanded_conv_8_depthwise_relu[0]
__________________________________________________________________________________________________
expanded_conv_8_project_BN (Bat (None, 28, 28, 64)   256         expanded_conv_8_project[0][0]    
__________________________________________________________________________________________________
expanded_conv_8_add (Add)       (None, 28, 28, 64)   0           expanded_conv_7_add[0][0]        
                                                                 expanded_conv_8_project_BN[0][0] 
__________________________________________________________________________________________________
expanded_conv_9_expand (Conv2D) (None, 28, 28, 384)  24576       expanded_conv_8_add[0][0]        
__________________________________________________________________________________________________
expanded_conv_9_expand_BN (Batc (None, 28, 28, 384)  1536        expanded_conv_9_expand[0][0]     
__________________________________________________________________________________________________
expanded_conv_9_expand_relu (Ac (None, 28, 28, 384)  0           expanded_conv_9_expand_BN[0][0]  
__________________________________________________________________________________________________
expanded_conv_9_depthwise (Dept (None, 28, 28, 384)  3456        expanded_conv_9_expand_relu[0][0]
__________________________________________________________________________________________________
expanded_conv_9_depthwise_BN (B (None, 28, 28, 384)  1536        expanded_conv_9_depthwise[0][0]  
__________________________________________________________________________________________________
expanded_conv_9_depthwise_relu  (None, 28, 28, 384)  0           expanded_conv_9_depthwise_BN[0][0
__________________________________________________________________________________________________
expanded_conv_9_project (Conv2D (None, 28, 28, 64)   24576       expanded_conv_9_depthwise_relu[0]
__________________________________________________________________________________________________
expanded_conv_9_project_BN (Bat (None, 28, 28, 64)   256         expanded_conv_9_project[0][0]    
__________________________________________________________________________________________________
expanded_conv_9_add (Add)       (None, 28, 28, 64)   0           expanded_conv_8_add[0][0]        
                                                                 expanded_conv_9_project_BN[0][0] 
__________________________________________________________________________________________________
expanded_conv_10_expand (Conv2D (None, 28, 28, 384)  24576       expanded_conv_9_add[0][0]        
__________________________________________________________________________________________________
expanded_conv_10_expand_BN (Bat (None, 28, 28, 384)  1536        expanded_conv_10_expand[0][0]    
__________________________________________________________________________________________________
expanded_conv_10_expand_relu (A (None, 28, 28, 384)  0           expanded_conv_10_expand_BN[0][0] 
__________________________________________________________________________________________________
expanded_conv_10_depthwise (Dep (None, 28, 28, 384)  3456        expanded_conv_10_expand_relu[0][0
__________________________________________________________________________________________________
expanded_conv_10_depthwise_BN ( (None, 28, 28, 384)  1536        expanded_conv_10_depthwise[0][0] 
__________________________________________________________________________________________________
expanded_conv_10_depthwise_relu (None, 28, 28, 384)  0           expanded_conv_10_depthwise_BN[0][
__________________________________________________________________________________________________
expanded_conv_10_project (Conv2 (None, 28, 28, 96)   36864       expanded_conv_10_depthwise_relu[0
__________________________________________________________________________________________________
expanded_conv_10_project_BN (Ba (None, 28, 28, 96)   384         expanded_conv_10_project[0][0]   
__________________________________________________________________________________________________
expanded_conv_11_expand (Conv2D (None, 28, 28, 576)  55296       expanded_conv_10_project_BN[0][0]
__________________________________________________________________________________________________
expanded_conv_11_expand_BN (Bat (None, 28, 28, 576)  2304        expanded_conv_11_expand[0][0]    
__________________________________________________________________________________________________
expanded_conv_11_expand_relu (A (None, 28, 28, 576)  0           expanded_conv_11_expand_BN[0][0] 
__________________________________________________________________________________________________
expanded_conv_11_depthwise (Dep (None, 28, 28, 576)  5184        expanded_conv_11_expand_relu[0][0
__________________________________________________________________________________________________
expanded_conv_11_depthwise_BN ( (None, 28, 28, 576)  2304        expanded_conv_11_depthwise[0][0] 
__________________________________________________________________________________________________
expanded_conv_11_depthwise_relu (None, 28, 28, 576)  0           expanded_conv_11_depthwise_BN[0][
__________________________________________________________________________________________________
expanded_conv_11_project (Conv2 (None, 28, 28, 96)   55296       expanded_conv_11_depthwise_relu[0
__________________________________________________________________________________________________
expanded_conv_11_project_BN (Ba (None, 28, 28, 96)   384         expanded_conv_11_project[0][0]   
__________________________________________________________________________________________________
expanded_conv_11_add (Add)      (None, 28, 28, 96)   0           expanded_conv_10_project_BN[0][0]
                                                                 expanded_conv_11_project_BN[0][0]
__________________________________________________________________________________________________
expanded_conv_12_expand (Conv2D (None, 28, 28, 576)  55296       expanded_conv_11_add[0][0]       
__________________________________________________________________________________________________
expanded_conv_12_expand_BN (Bat (None, 28, 28, 576)  2304        expanded_conv_12_expand[0][0]    
__________________________________________________________________________________________________
expanded_conv_12_expand_relu (A (None, 28, 28, 576)  0           expanded_conv_12_expand_BN[0][0] 
__________________________________________________________________________________________________
expanded_conv_12_depthwise (Dep (None, 28, 28, 576)  5184        expanded_conv_12_expand_relu[0][0
__________________________________________________________________________________________________
expanded_conv_12_depthwise_BN ( (None, 28, 28, 576)  2304        expanded_conv_12_depthwise[0][0] 
__________________________________________________________________________________________________
expanded_conv_12_depthwise_relu (None, 28, 28, 576)  0           expanded_conv_12_depthwise_BN[0][
__________________________________________________________________________________________________
expanded_conv_12_project (Conv2 (None, 28, 28, 96)   55296       expanded_conv_12_depthwise_relu[0
__________________________________________________________________________________________________
expanded_conv_12_project_BN (Ba (None, 28, 28, 96)   384         expanded_conv_12_project[0][0]   
__________________________________________________________________________________________________
expanded_conv_12_add (Add)      (None, 28, 28, 96)   0           expanded_conv_11_add[0][0]       
                                                                 expanded_conv_12_project_BN[0][0]
__________________________________________________________________________________________________
expanded_conv_13_expand (Conv2D (None, 28, 28, 576)  55296       expanded_conv_12_add[0][0]       
__________________________________________________________________________________________________
expanded_conv_13_expand_BN (Bat (None, 28, 28, 576)  2304        expanded_conv_13_expand[0][0]    
__________________________________________________________________________________________________
expanded_conv_13_expand_relu (A (None, 28, 28, 576)  0           expanded_conv_13_expand_BN[0][0] 
__________________________________________________________________________________________________
expanded_conv_13_depthwise (Dep (None, 28, 28, 576)  5184        expanded_conv_13_expand_relu[0][0
__________________________________________________________________________________________________
expanded_conv_13_depthwise_BN ( (None, 28, 28, 576)  2304        expanded_conv_13_depthwise[0][0] 
__________________________________________________________________________________________________
expanded_conv_13_depthwise_relu (None, 28, 28, 576)  0           expanded_conv_13_depthwise_BN[0][
__________________________________________________________________________________________________
expanded_conv_13_project (Conv2 (None, 28, 28, 160)  92160       expanded_conv_13_depthwise_relu[0
__________________________________________________________________________________________________
expanded_conv_13_project_BN (Ba (None, 28, 28, 160)  640         expanded_conv_13_project[0][0]   
__________________________________________________________________________________________________
expanded_conv_14_expand (Conv2D (None, 28, 28, 960)  153600      expanded_conv_13_project_BN[0][0]
__________________________________________________________________________________________________
expanded_conv_14_expand_BN (Bat (None, 28, 28, 960)  3840        expanded_conv_14_expand[0][0]    
__________________________________________________________________________________________________
expanded_conv_14_expand_relu (A (None, 28, 28, 960)  0           expanded_conv_14_expand_BN[0][0] 
__________________________________________________________________________________________________
expanded_conv_14_depthwise (Dep (None, 28, 28, 960)  8640        expanded_conv_14_expand_relu[0][0
__________________________________________________________________________________________________
expanded_conv_14_depthwise_BN ( (None, 28, 28, 960)  3840        expanded_conv_14_depthwise[0][0] 
__________________________________________________________________________________________________
expanded_conv_14_depthwise_relu (None, 28, 28, 960)  0           expanded_conv_14_depthwise_BN[0][
__________________________________________________________________________________________________
expanded_conv_14_project (Conv2 (None, 28, 28, 160)  153600      expanded_conv_14_depthwise_relu[0
__________________________________________________________________________________________________
expanded_conv_14_project_BN (Ba (None, 28, 28, 160)  640         expanded_conv_14_project[0][0]   
__________________________________________________________________________________________________
expanded_conv_14_add (Add)      (None, 28, 28, 160)  0           expanded_conv_13_project_BN[0][0]
                                                                 expanded_conv_14_project_BN[0][0]
__________________________________________________________________________________________________
expanded_conv_15_expand (Conv2D (None, 28, 28, 960)  153600      expanded_conv_14_add[0][0]       
__________________________________________________________________________________________________
expanded_conv_15_expand_BN (Bat (None, 28, 28, 960)  3840        expanded_conv_15_expand[0][0]    
__________________________________________________________________________________________________
expanded_conv_15_expand_relu (A (None, 28, 28, 960)  0           expanded_conv_15_expand_BN[0][0] 
__________________________________________________________________________________________________
expanded_conv_15_depthwise (Dep (None, 28, 28, 960)  8640        expanded_conv_15_expand_relu[0][0
__________________________________________________________________________________________________
expanded_conv_15_depthwise_BN ( (None, 28, 28, 960)  3840        expanded_conv_15_depthwise[0][0] 
__________________________________________________________________________________________________
expanded_conv_15_depthwise_relu (None, 28, 28, 960)  0           expanded_conv_15_depthwise_BN[0][
__________________________________________________________________________________________________
expanded_conv_15_project (Conv2 (None, 28, 28, 160)  153600      expanded_conv_15_depthwise_relu[0
__________________________________________________________________________________________________
expanded_conv_15_project_BN (Ba (None, 28, 28, 160)  640         expanded_conv_15_project[0][0]   
__________________________________________________________________________________________________
expanded_conv_15_add (Add)      (None, 28, 28, 160)  0           expanded_conv_14_add[0][0]       
                                                                 expanded_conv_15_project_BN[0][0]
__________________________________________________________________________________________________
expanded_conv_16_expand (Conv2D (None, 28, 28, 960)  153600      expanded_conv_15_add[0][0]       
__________________________________________________________________________________________________
expanded_conv_16_expand_BN (Bat (None, 28, 28, 960)  3840        expanded_conv_16_expand[0][0]    
__________________________________________________________________________________________________
expanded_conv_16_expand_relu (A (None, 28, 28, 960)  0           expanded_conv_16_expand_BN[0][0] 
__________________________________________________________________________________________________
expanded_conv_16_depthwise (Dep (None, 28, 28, 960)  8640        expanded_conv_16_expand_relu[0][0
__________________________________________________________________________________________________
expanded_conv_16_depthwise_BN ( (None, 28, 28, 960)  3840        expanded_conv_16_depthwise[0][0] 
__________________________________________________________________________________________________
expanded_conv_16_depthwise_relu (None, 28, 28, 960)  0           expanded_conv_16_depthwise_BN[0][
__________________________________________________________________________________________________
expanded_conv_16_project (Conv2 (None, 28, 28, 320)  307200      expanded_conv_16_depthwise_relu[0
__________________________________________________________________________________________________
expanded_conv_16_project_BN (Ba (None, 28, 28, 320)  1280        expanded_conv_16_project[0][0]   
__________________________________________________________________________________________________
global_average_pooling2d (Globa (None, 320)          0           expanded_conv_16_project_BN[0][0]
__________________________________________________________________________________________________
lambda (Lambda)                 (None, 1, 320)       0           global_average_pooling2d[0][0]   
__________________________________________________________________________________________________
lambda_1 (Lambda)               (None, 1, 1, 320)    0           lambda[0][0]                     
__________________________________________________________________________________________________
image_pooling (Conv2D)          (None, 1, 1, 256)    81920       lambda_1[0][0]                   
__________________________________________________________________________________________________
image_pooling_BN (BatchNormaliz (None, 1, 1, 256)    1024        image_pooling[0][0]              
__________________________________________________________________________________________________
aspp0 (Conv2D)                  (None, 28, 28, 256)  81920       expanded_conv_16_project_BN[0][0]
__________________________________________________________________________________________________
activation (Activation)         (None, 1, 1, 256)    0           image_pooling_BN[0][0]           
__________________________________________________________________________________________________
aspp0_BN (BatchNormalization)   (None, 28, 28, 256)  1024        aspp0[0][0]                      
__________________________________________________________________________________________________
lambda_2 (Lambda)               (None, 28, 28, 256)  0           activation[0][0]                 
__________________________________________________________________________________________________
aspp0_activation (Activation)   (None, 28, 28, 256)  0           aspp0_BN[0][0]                   
__________________________________________________________________________________________________
concatenate (Concatenate)       (None, 28, 28, 512)  0           lambda_2[0][0]                   
                                                                 aspp0_activation[0][0]           
__________________________________________________________________________________________________
concat_projection (Conv2D)      (None, 28, 28, 256)  131072      concatenate[0][0]                
__________________________________________________________________________________________________
concat_projection_BN (BatchNorm (None, 28, 28, 256)  1024        concat_projection[0][0]          
__________________________________________________________________________________________________
activation_1 (Activation)       (None, 28, 28, 256)  0           concat_projection_BN[0][0]       
__________________________________________________________________________________________________
dropout (Dropout)               (None, 28, 28, 256)  0           activation_1[0][0]               
__________________________________________________________________________________________________
logits_semantic (Conv2D)        (None, 28, 28, 21)   5397        dropout[0][0]                    
__________________________________________________________________________________________________
lambda_3 (Lambda)               (None, 224, 224, 21) 0           logits_semantic[0][0]            
==================================================================================================
Total params: 2,146,645
Trainable params: 2,113,557
Non-trainable params: 33,088
__________________________________________________________________________________________________
10582
10582 10582
1449
(1449, 224, 224, 3) (1449, 224, 224, 21)
Model: "deeplabv3plus"
__________________________________________________________________________________________________
Layer (type)                    Output Shape         Param #     Connected to                     
==================================================================================================
input_1 (InputLayer)            [(None, 224, 224, 3) 0                                            
__________________________________________________________________________________________________
Conv (Conv2D)                   (None, 112, 112, 32) 864         input_1[0][0]                    
__________________________________________________________________________________________________
Conv_BN (BatchNormalization)    (None, 112, 112, 32) 128         Conv[0][0]                       
__________________________________________________________________________________________________
Conv_Relu6 (Activation)         (None, 112, 112, 32) 0           Conv_BN[0][0]                    
__________________________________________________________________________________________________
expanded_conv_depthwise (Depthw (None, 112, 112, 32) 288         Conv_Relu6[0][0]                 
__________________________________________________________________________________________________
expanded_conv_depthwise_BN (Bat (None, 112, 112, 32) 128         expanded_conv_depthwise[0][0]    
__________________________________________________________________________________________________
expanded_conv_depthwise_relu (A (None, 112, 112, 32) 0           expanded_conv_depthwise_BN[0][0] 
__________________________________________________________________________________________________
expanded_conv_project (Conv2D)  (None, 112, 112, 16) 512         expanded_conv_depthwise_relu[0][0
__________________________________________________________________________________________________
expanded_conv_project_BN (Batch (None, 112, 112, 16) 64          expanded_conv_project[0][0]      
__________________________________________________________________________________________________
expanded_conv_1_expand (Conv2D) (None, 112, 112, 96) 1536        expanded_conv_project_BN[0][0]   
__________________________________________________________________________________________________
expanded_conv_1_expand_BN (Batc (None, 112, 112, 96) 384         expanded_conv_1_expand[0][0]     
__________________________________________________________________________________________________
expanded_conv_1_expand_relu (Ac (None, 112, 112, 96) 0           expanded_conv_1_expand_BN[0][0]  
__________________________________________________________________________________________________
expanded_conv_1_depthwise (Dept (None, 56, 56, 96)   864         expanded_conv_1_expand_relu[0][0]
__________________________________________________________________________________________________
expanded_conv_1_depthwise_BN (B (None, 56, 56, 96)   384         expanded_conv_1_depthwise[0][0]  
__________________________________________________________________________________________________
expanded_conv_1_depthwise_relu  (None, 56, 56, 96)   0           expanded_conv_1_depthwise_BN[0][0
__________________________________________________________________________________________________
expanded_conv_1_project (Conv2D (None, 56, 56, 24)   2304        expanded_conv_1_depthwise_relu[0]
__________________________________________________________________________________________________
expanded_conv_1_project_BN (Bat (None, 56, 56, 24)   96          expanded_conv_1_project[0][0]    
__________________________________________________________________________________________________
expanded_conv_2_expand (Conv2D) (None, 56, 56, 144)  3456        expanded_conv_1_project_BN[0][0] 
__________________________________________________________________________________________________
expanded_conv_2_expand_BN (Batc (None, 56, 56, 144)  576         expanded_conv_2_expand[0][0]     
__________________________________________________________________________________________________
expanded_conv_2_expand_relu (Ac (None, 56, 56, 144)  0           expanded_conv_2_expand_BN[0][0]  
__________________________________________________________________________________________________
expanded_conv_2_depthwise (Dept (None, 56, 56, 144)  1296        expanded_conv_2_expand_relu[0][0]
__________________________________________________________________________________________________
expanded_conv_2_depthwise_BN (B (None, 56, 56, 144)  576         expanded_conv_2_depthwise[0][0]  
__________________________________________________________________________________________________
expanded_conv_2_depthwise_relu  (None, 56, 56, 144)  0           expanded_conv_2_depthwise_BN[0][0
__________________________________________________________________________________________________
expanded_conv_2_project (Conv2D (None, 56, 56, 24)   3456        expanded_conv_2_depthwise_relu[0]
__________________________________________________________________________________________________
expanded_conv_2_project_BN (Bat (None, 56, 56, 24)   96          expanded_conv_2_project[0][0]    
__________________________________________________________________________________________________
expanded_conv_2_add (Add)       (None, 56, 56, 24)   0           expanded_conv_1_project_BN[0][0] 
                                                                 expanded_conv_2_project_BN[0][0] 
__________________________________________________________________________________________________
expanded_conv_3_expand (Conv2D) (None, 56, 56, 144)  3456        expanded_conv_2_add[0][0]        
__________________________________________________________________________________________________
expanded_conv_3_expand_BN (Batc (None, 56, 56, 144)  576         expanded_conv_3_expand[0][0]     
__________________________________________________________________________________________________
expanded_conv_3_expand_relu (Ac (None, 56, 56, 144)  0           expanded_conv_3_expand_BN[0][0]  
__________________________________________________________________________________________________
expanded_conv_3_depthwise (Dept (None, 28, 28, 144)  1296        expanded_conv_3_expand_relu[0][0]
__________________________________________________________________________________________________
expanded_conv_3_depthwise_BN (B (None, 28, 28, 144)  576         expanded_conv_3_depthwise[0][0]  
__________________________________________________________________________________________________
expanded_conv_3_depthwise_relu  (None, 28, 28, 144)  0           expanded_conv_3_depthwise_BN[0][0
__________________________________________________________________________________________________
expanded_conv_3_project (Conv2D (None, 28, 28, 32)   4608        expanded_conv_3_depthwise_relu[0]
__________________________________________________________________________________________________
expanded_conv_3_project_BN (Bat (None, 28, 28, 32)   128         expanded_conv_3_project[0][0]    
__________________________________________________________________________________________________
expanded_conv_4_expand (Conv2D) (None, 28, 28, 192)  6144        expanded_conv_3_project_BN[0][0] 
__________________________________________________________________________________________________
expanded_conv_4_expand_BN (Batc (None, 28, 28, 192)  768         expanded_conv_4_expand[0][0]     
__________________________________________________________________________________________________
expanded_conv_4_expand_relu (Ac (None, 28, 28, 192)  0           expanded_conv_4_expand_BN[0][0]  
__________________________________________________________________________________________________
expanded_conv_4_depthwise (Dept (None, 28, 28, 192)  1728        expanded_conv_4_expand_relu[0][0]
__________________________________________________________________________________________________
expanded_conv_4_depthwise_BN (B (None, 28, 28, 192)  768         expanded_conv_4_depthwise[0][0]  
__________________________________________________________________________________________________
expanded_conv_4_depthwise_relu  (None, 28, 28, 192)  0           expanded_conv_4_depthwise_BN[0][0
__________________________________________________________________________________________________
expanded_conv_4_project (Conv2D (None, 28, 28, 32)   6144        expanded_conv_4_depthwise_relu[0]
__________________________________________________________________________________________________
expanded_conv_4_project_BN (Bat (None, 28, 28, 32)   128         expanded_conv_4_project[0][0]    
__________________________________________________________________________________________________
expanded_conv_4_add (Add)       (None, 28, 28, 32)   0           expanded_conv_3_project_BN[0][0] 
                                                                 expanded_conv_4_project_BN[0][0] 
__________________________________________________________________________________________________
expanded_conv_5_expand (Conv2D) (None, 28, 28, 192)  6144        expanded_conv_4_add[0][0]        
__________________________________________________________________________________________________
expanded_conv_5_expand_BN (Batc (None, 28, 28, 192)  768         expanded_conv_5_expand[0][0]     
__________________________________________________________________________________________________
expanded_conv_5_expand_relu (Ac (None, 28, 28, 192)  0           expanded_conv_5_expand_BN[0][0]  
__________________________________________________________________________________________________
expanded_conv_5_depthwise (Dept (None, 28, 28, 192)  1728        expanded_conv_5_expand_relu[0][0]
__________________________________________________________________________________________________
expanded_conv_5_depthwise_BN (B (None, 28, 28, 192)  768         expanded_conv_5_depthwise[0][0]  
__________________________________________________________________________________________________
expanded_conv_5_depthwise_relu  (None, 28, 28, 192)  0           expanded_conv_5_depthwise_BN[0][0
__________________________________________________________________________________________________
expanded_conv_5_project (Conv2D (None, 28, 28, 32)   6144        expanded_conv_5_depthwise_relu[0]
__________________________________________________________________________________________________
expanded_conv_5_project_BN (Bat (None, 28, 28, 32)   128         expanded_conv_5_project[0][0]    
__________________________________________________________________________________________________
expanded_conv_5_add (Add)       (None, 28, 28, 32)   0           expanded_conv_4_add[0][0]        
                                                                 expanded_conv_5_project_BN[0][0] 
__________________________________________________________________________________________________
expanded_conv_6_expand (Conv2D) (None, 28, 28, 192)  6144        expanded_conv_5_add[0][0]        
__________________________________________________________________________________________________
expanded_conv_6_expand_BN (Batc (None, 28, 28, 192)  768         expanded_conv_6_expand[0][0]     
__________________________________________________________________________________________________
expanded_conv_6_expand_relu (Ac (None, 28, 28, 192)  0           expanded_conv_6_expand_BN[0][0]  
__________________________________________________________________________________________________
expanded_conv_6_depthwise (Dept (None, 28, 28, 192)  1728        expanded_conv_6_expand_relu[0][0]
__________________________________________________________________________________________________
expanded_conv_6_depthwise_BN (B (None, 28, 28, 192)  768         expanded_conv_6_depthwise[0][0]  
__________________________________________________________________________________________________
expanded_conv_6_depthwise_relu  (None, 28, 28, 192)  0           expanded_conv_6_depthwise_BN[0][0
__________________________________________________________________________________________________
expanded_conv_6_project (Conv2D (None, 28, 28, 64)   12288       expanded_conv_6_depthwise_relu[0]
__________________________________________________________________________________________________
expanded_conv_6_project_BN (Bat (None, 28, 28, 64)   256         expanded_conv_6_project[0][0]    
__________________________________________________________________________________________________
expanded_conv_7_expand (Conv2D) (None, 28, 28, 384)  24576       expanded_conv_6_project_BN[0][0] 
__________________________________________________________________________________________________
expanded_conv_7_expand_BN (Batc (None, 28, 28, 384)  1536        expanded_conv_7_expand[0][0]     
__________________________________________________________________________________________________
expanded_conv_7_expand_relu (Ac (None, 28, 28, 384)  0           expanded_conv_7_expand_BN[0][0]  
__________________________________________________________________________________________________
expanded_conv_7_depthwise (Dept (None, 28, 28, 384)  3456        expanded_conv_7_expand_relu[0][0]
__________________________________________________________________________________________________
expanded_conv_7_depthwise_BN (B (None, 28, 28, 384)  1536        expanded_conv_7_depthwise[0][0]  
__________________________________________________________________________________________________
expanded_conv_7_depthwise_relu  (None, 28, 28, 384)  0           expanded_conv_7_depthwise_BN[0][0
__________________________________________________________________________________________________
expanded_conv_7_project (Conv2D (None, 28, 28, 64)   24576       expanded_conv_7_depthwise_relu[0]
__________________________________________________________________________________________________
expanded_conv_7_project_BN (Bat (None, 28, 28, 64)   256         expanded_conv_7_project[0][0]    
__________________________________________________________________________________________________
expanded_conv_7_add (Add)       (None, 28, 28, 64)   0           expanded_conv_6_project_BN[0][0] 
                                                                 expanded_conv_7_project_BN[0][0] 
__________________________________________________________________________________________________
expanded_conv_8_expand (Conv2D) (None, 28, 28, 384)  24576       expanded_conv_7_add[0][0]        
__________________________________________________________________________________________________
expanded_conv_8_expand_BN (Batc (None, 28, 28, 384)  1536        expanded_conv_8_expand[0][0]     
__________________________________________________________________________________________________
expanded_conv_8_expand_relu (Ac (None, 28, 28, 384)  0           expanded_conv_8_expand_BN[0][0]  
__________________________________________________________________________________________________
expanded_conv_8_depthwise (Dept (None, 28, 28, 384)  3456        expanded_conv_8_expand_relu[0][0]
__________________________________________________________________________________________________
expanded_conv_8_depthwise_BN (B (None, 28, 28, 384)  1536        expanded_conv_8_depthwise[0][0]  
__________________________________________________________________________________________________
expanded_conv_8_depthwise_relu  (None, 28, 28, 384)  0           expanded_conv_8_depthwise_BN[0][0
__________________________________________________________________________________________________
expanded_conv_8_project (Conv2D (None, 28, 28, 64)   24576       expanded_conv_8_depthwise_relu[0]
__________________________________________________________________________________________________
expanded_conv_8_project_BN (Bat (None, 28, 28, 64)   256         expanded_conv_8_project[0][0]    
__________________________________________________________________________________________________
expanded_conv_8_add (Add)       (None, 28, 28, 64)   0           expanded_conv_7_add[0][0]        
                                                                 expanded_conv_8_project_BN[0][0] 
__________________________________________________________________________________________________
expanded_conv_9_expand (Conv2D) (None, 28, 28, 384)  24576       expanded_conv_8_add[0][0]        
__________________________________________________________________________________________________
expanded_conv_9_expand_BN (Batc (None, 28, 28, 384)  1536        expanded_conv_9_expand[0][0]     
__________________________________________________________________________________________________
expanded_conv_9_expand_relu (Ac (None, 28, 28, 384)  0           expanded_conv_9_expand_BN[0][0]  
__________________________________________________________________________________________________
expanded_conv_9_depthwise (Dept (None, 28, 28, 384)  3456        expanded_conv_9_expand_relu[0][0]
__________________________________________________________________________________________________
expanded_conv_9_depthwise_BN (B (None, 28, 28, 384)  1536        expanded_conv_9_depthwise[0][0]  
__________________________________________________________________________________________________
expanded_conv_9_depthwise_relu  (None, 28, 28, 384)  0           expanded_conv_9_depthwise_BN[0][0
__________________________________________________________________________________________________
expanded_conv_9_project (Conv2D (None, 28, 28, 64)   24576       expanded_conv_9_depthwise_relu[0]
__________________________________________________________________________________________________
expanded_conv_9_project_BN (Bat (None, 28, 28, 64)   256         expanded_conv_9_project[0][0]    
__________________________________________________________________________________________________
expanded_conv_9_add (Add)       (None, 28, 28, 64)   0           expanded_conv_8_add[0][0]        
                                                                 expanded_conv_9_project_BN[0][0] 
__________________________________________________________________________________________________
expanded_conv_10_expand (Conv2D (None, 28, 28, 384)  24576       expanded_conv_9_add[0][0]        
__________________________________________________________________________________________________
expanded_conv_10_expand_BN (Bat (None, 28, 28, 384)  1536        expanded_conv_10_expand[0][0]    
__________________________________________________________________________________________________
expanded_conv_10_expand_relu (A (None, 28, 28, 384)  0           expanded_conv_10_expand_BN[0][0] 
__________________________________________________________________________________________________
expanded_conv_10_depthwise (Dep (None, 28, 28, 384)  3456        expanded_conv_10_expand_relu[0][0
__________________________________________________________________________________________________
expanded_conv_10_depthwise_BN ( (None, 28, 28, 384)  1536        expanded_conv_10_depthwise[0][0] 
__________________________________________________________________________________________________
expanded_conv_10_depthwise_relu (None, 28, 28, 384)  0           expanded_conv_10_depthwise_BN[0][
__________________________________________________________________________________________________
expanded_conv_10_project (Conv2 (None, 28, 28, 96)   36864       expanded_conv_10_depthwise_relu[0
__________________________________________________________________________________________________
expanded_conv_10_project_BN (Ba (None, 28, 28, 96)   384         expanded_conv_10_project[0][0]   
__________________________________________________________________________________________________
expanded_conv_11_expand (Conv2D (None, 28, 28, 576)  55296       expanded_conv_10_project_BN[0][0]
__________________________________________________________________________________________________
expanded_conv_11_expand_BN (Bat (None, 28, 28, 576)  2304        expanded_conv_11_expand[0][0]    
__________________________________________________________________________________________________
expanded_conv_11_expand_relu (A (None, 28, 28, 576)  0           expanded_conv_11_expand_BN[0][0] 
__________________________________________________________________________________________________
expanded_conv_11_depthwise (Dep (None, 28, 28, 576)  5184        expanded_conv_11_expand_relu[0][0
__________________________________________________________________________________________________
expanded_conv_11_depthwise_BN ( (None, 28, 28, 576)  2304        expanded_conv_11_depthwise[0][0] 
__________________________________________________________________________________________________
expanded_conv_11_depthwise_relu (None, 28, 28, 576)  0           expanded_conv_11_depthwise_BN[0][
__________________________________________________________________________________________________
expanded_conv_11_project (Conv2 (None, 28, 28, 96)   55296       expanded_conv_11_depthwise_relu[0
__________________________________________________________________________________________________
expanded_conv_11_project_BN (Ba (None, 28, 28, 96)   384         expanded_conv_11_project[0][0]   
__________________________________________________________________________________________________
expanded_conv_11_add (Add)      (None, 28, 28, 96)   0           expanded_conv_10_project_BN[0][0]
                                                                 expanded_conv_11_project_BN[0][0]
__________________________________________________________________________________________________
expanded_conv_12_expand (Conv2D (None, 28, 28, 576)  55296       expanded_conv_11_add[0][0]       
__________________________________________________________________________________________________
expanded_conv_12_expand_BN (Bat (None, 28, 28, 576)  2304        expanded_conv_12_expand[0][0]    
__________________________________________________________________________________________________
expanded_conv_12_expand_relu (A (None, 28, 28, 576)  0           expanded_conv_12_expand_BN[0][0] 
__________________________________________________________________________________________________
expanded_conv_12_depthwise (Dep (None, 28, 28, 576)  5184        expanded_conv_12_expand_relu[0][0
__________________________________________________________________________________________________
expanded_conv_12_depthwise_BN ( (None, 28, 28, 576)  2304        expanded_conv_12_depthwise[0][0] 
__________________________________________________________________________________________________
expanded_conv_12_depthwise_relu (None, 28, 28, 576)  0           expanded_conv_12_depthwise_BN[0][
__________________________________________________________________________________________________
expanded_conv_12_project (Conv2 (None, 28, 28, 96)   55296       expanded_conv_12_depthwise_relu[0
__________________________________________________________________________________________________
expanded_conv_12_project_BN (Ba (None, 28, 28, 96)   384         expanded_conv_12_project[0][0]   
__________________________________________________________________________________________________
expanded_conv_12_add (Add)      (None, 28, 28, 96)   0           expanded_conv_11_add[0][0]       
                                                                 expanded_conv_12_project_BN[0][0]
__________________________________________________________________________________________________
expanded_conv_13_expand (Conv2D (None, 28, 28, 576)  55296       expanded_conv_12_add[0][0]       
__________________________________________________________________________________________________
expanded_conv_13_expand_BN (Bat (None, 28, 28, 576)  2304        expanded_conv_13_expand[0][0]    
__________________________________________________________________________________________________
expanded_conv_13_expand_relu (A (None, 28, 28, 576)  0           expanded_conv_13_expand_BN[0][0] 
__________________________________________________________________________________________________
expanded_conv_13_depthwise (Dep (None, 28, 28, 576)  5184        expanded_conv_13_expand_relu[0][0
__________________________________________________________________________________________________
expanded_conv_13_depthwise_BN ( (None, 28, 28, 576)  2304        expanded_conv_13_depthwise[0][0] 
__________________________________________________________________________________________________
expanded_conv_13_depthwise_relu (None, 28, 28, 576)  0           expanded_conv_13_depthwise_BN[0][
__________________________________________________________________________________________________
expanded_conv_13_project (Conv2 (None, 28, 28, 160)  92160       expanded_conv_13_depthwise_relu[0
__________________________________________________________________________________________________
expanded_conv_13_project_BN (Ba (None, 28, 28, 160)  640         expanded_conv_13_project[0][0]   
__________________________________________________________________________________________________
expanded_conv_14_expand (Conv2D (None, 28, 28, 960)  153600      expanded_conv_13_project_BN[0][0]
__________________________________________________________________________________________________
expanded_conv_14_expand_BN (Bat (None, 28, 28, 960)  3840        expanded_conv_14_expand[0][0]    
__________________________________________________________________________________________________
expanded_conv_14_expand_relu (A (None, 28, 28, 960)  0           expanded_conv_14_expand_BN[0][0] 
__________________________________________________________________________________________________
expanded_conv_14_depthwise (Dep (None, 28, 28, 960)  8640        expanded_conv_14_expand_relu[0][0
__________________________________________________________________________________________________
expanded_conv_14_depthwise_BN ( (None, 28, 28, 960)  3840        expanded_conv_14_depthwise[0][0] 
__________________________________________________________________________________________________
expanded_conv_14_depthwise_relu (None, 28, 28, 960)  0           expanded_conv_14_depthwise_BN[0][
__________________________________________________________________________________________________
expanded_conv_14_project (Conv2 (None, 28, 28, 160)  153600      expanded_conv_14_depthwise_relu[0
__________________________________________________________________________________________________
expanded_conv_14_project_BN (Ba (None, 28, 28, 160)  640         expanded_conv_14_project[0][0]   
__________________________________________________________________________________________________
expanded_conv_14_add (Add)      (None, 28, 28, 160)  0           expanded_conv_13_project_BN[0][0]
                                                                 expanded_conv_14_project_BN[0][0]
__________________________________________________________________________________________________
expanded_conv_15_expand (Conv2D (None, 28, 28, 960)  153600      expanded_conv_14_add[0][0]       
__________________________________________________________________________________________________
expanded_conv_15_expand_BN (Bat (None, 28, 28, 960)  3840        expanded_conv_15_expand[0][0]    
__________________________________________________________________________________________________
expanded_conv_15_expand_relu (A (None, 28, 28, 960)  0           expanded_conv_15_expand_BN[0][0] 
__________________________________________________________________________________________________
expanded_conv_15_depthwise (Dep (None, 28, 28, 960)  8640        expanded_conv_15_expand_relu[0][0
__________________________________________________________________________________________________
expanded_conv_15_depthwise_BN ( (None, 28, 28, 960)  3840        expanded_conv_15_depthwise[0][0] 
__________________________________________________________________________________________________
expanded_conv_15_depthwise_relu (None, 28, 28, 960)  0           expanded_conv_15_depthwise_BN[0][
__________________________________________________________________________________________________
expanded_conv_15_project (Conv2 (None, 28, 28, 160)  153600      expanded_conv_15_depthwise_relu[0
__________________________________________________________________________________________________
expanded_conv_15_project_BN (Ba (None, 28, 28, 160)  640         expanded_conv_15_project[0][0]   
__________________________________________________________________________________________________
expanded_conv_15_add (Add)      (None, 28, 28, 160)  0           expanded_conv_14_add[0][0]       
                                                                 expanded_conv_15_project_BN[0][0]
__________________________________________________________________________________________________
expanded_conv_16_expand (Conv2D (None, 28, 28, 960)  153600      expanded_conv_15_add[0][0]       
__________________________________________________________________________________________________
expanded_conv_16_expand_BN (Bat (None, 28, 28, 960)  3840        expanded_conv_16_expand[0][0]    
__________________________________________________________________________________________________
expanded_conv_16_expand_relu (A (None, 28, 28, 960)  0           expanded_conv_16_expand_BN[0][0] 
__________________________________________________________________________________________________
expanded_conv_16_depthwise (Dep (None, 28, 28, 960)  8640        expanded_conv_16_expand_relu[0][0
__________________________________________________________________________________________________
expanded_conv_16_depthwise_BN ( (None, 28, 28, 960)  3840        expanded_conv_16_depthwise[0][0] 
__________________________________________________________________________________________________
expanded_conv_16_depthwise_relu (None, 28, 28, 960)  0           expanded_conv_16_depthwise_BN[0][
__________________________________________________________________________________________________
expanded_conv_16_project (Conv2 (None, 28, 28, 320)  307200      expanded_conv_16_depthwise_relu[0
__________________________________________________________________________________________________
expanded_conv_16_project_BN (Ba (None, 28, 28, 320)  1280        expanded_conv_16_project[0][0]   
__________________________________________________________________________________________________
global_average_pooling2d (Globa (None, 320)          0           expanded_conv_16_project_BN[0][0]
__________________________________________________________________________________________________
lambda (Lambda)                 (None, 1, 320)       0           global_average_pooling2d[0][0]   
__________________________________________________________________________________________________
lambda_1 (Lambda)               (None, 1, 1, 320)    0           lambda[0][0]                     
__________________________________________________________________________________________________
image_pooling (Conv2D)          (None, 1, 1, 256)    81920       lambda_1[0][0]                   
__________________________________________________________________________________________________
image_pooling_BN (BatchNormaliz (None, 1, 1, 256)    1024        image_pooling[0][0]              
__________________________________________________________________________________________________
aspp0 (Conv2D)                  (None, 28, 28, 256)  81920       expanded_conv_16_project_BN[0][0]
__________________________________________________________________________________________________
activation (Activation)         (None, 1, 1, 256)    0           image_pooling_BN[0][0]           
__________________________________________________________________________________________________
aspp0_BN (BatchNormalization)   (None, 28, 28, 256)  1024        aspp0[0][0]                      
__________________________________________________________________________________________________
lambda_2 (Lambda)               (None, 28, 28, 256)  0           activation[0][0]                 
__________________________________________________________________________________________________
aspp0_activation (Activation)   (None, 28, 28, 256)  0           aspp0_BN[0][0]                   
__________________________________________________________________________________________________
concatenate (Concatenate)       (None, 28, 28, 512)  0           lambda_2[0][0]                   
                                                                 aspp0_activation[0][0]           
__________________________________________________________________________________________________
concat_projection (Conv2D)      (None, 28, 28, 256)  131072      concatenate[0][0]                
__________________________________________________________________________________________________
concat_projection_BN (BatchNorm (None, 28, 28, 256)  1024        concat_projection[0][0]          
__________________________________________________________________________________________________
activation_1 (Activation)       (None, 28, 28, 256)  0           concat_projection_BN[0][0]       
__________________________________________________________________________________________________
dropout (Dropout)               (None, 28, 28, 256)  0           activation_1[0][0]               
__________________________________________________________________________________________________
logits_semantic (Conv2D)        (None, 28, 28, 21)   5397        dropout[0][0]                    
__________________________________________________________________________________________________
lambda_3 (Lambda)               (None, 224, 224, 21) 0           logits_semantic[0][0]            
==================================================================================================
Total params: 2,146,645
Trainable params: 2,113,557
Non-trainable params: 33,088
__________________________________________________________________________________________________
10582
10582 10582
1449
(1449, 224, 224, 3) (1449, 224, 224, 21)
Model: "deeplabv3plus"
__________________________________________________________________________________________________
Layer (type)                    Output Shape         Param #     Connected to                     
==================================================================================================
input_1 (InputLayer)            [(None, 224, 224, 3) 0                                            
__________________________________________________________________________________________________
Conv (Conv2D)                   (None, 112, 112, 32) 864         input_1[0][0]                    
__________________________________________________________________________________________________
Conv_BN (BatchNormalization)    (None, 112, 112, 32) 128         Conv[0][0]                       
__________________________________________________________________________________________________
Conv_Relu6 (Activation)         (None, 112, 112, 32) 0           Conv_BN[0][0]                    
__________________________________________________________________________________________________
expanded_conv_depthwise (Depthw (None, 112, 112, 32) 288         Conv_Relu6[0][0]                 
__________________________________________________________________________________________________
expanded_conv_depthwise_BN (Bat (None, 112, 112, 32) 128         expanded_conv_depthwise[0][0]    
__________________________________________________________________________________________________
expanded_conv_depthwise_relu (A (None, 112, 112, 32) 0           expanded_conv_depthwise_BN[0][0] 
__________________________________________________________________________________________________
expanded_conv_project (Conv2D)  (None, 112, 112, 16) 512         expanded_conv_depthwise_relu[0][0
__________________________________________________________________________________________________
expanded_conv_project_BN (Batch (None, 112, 112, 16) 64          expanded_conv_project[0][0]      
__________________________________________________________________________________________________
expanded_conv_1_expand (Conv2D) (None, 112, 112, 96) 1536        expanded_conv_project_BN[0][0]   
__________________________________________________________________________________________________
expanded_conv_1_expand_BN (Batc (None, 112, 112, 96) 384         expanded_conv_1_expand[0][0]     
__________________________________________________________________________________________________
expanded_conv_1_expand_relu (Ac (None, 112, 112, 96) 0           expanded_conv_1_expand_BN[0][0]  
__________________________________________________________________________________________________
expanded_conv_1_depthwise (Dept (None, 56, 56, 96)   864         expanded_conv_1_expand_relu[0][0]
__________________________________________________________________________________________________
expanded_conv_1_depthwise_BN (B (None, 56, 56, 96)   384         expanded_conv_1_depthwise[0][0]  
__________________________________________________________________________________________________
expanded_conv_1_depthwise_relu  (None, 56, 56, 96)   0           expanded_conv_1_depthwise_BN[0][0
__________________________________________________________________________________________________
expanded_conv_1_project (Conv2D (None, 56, 56, 24)   2304        expanded_conv_1_depthwise_relu[0]
__________________________________________________________________________________________________
expanded_conv_1_project_BN (Bat (None, 56, 56, 24)   96          expanded_conv_1_project[0][0]    
__________________________________________________________________________________________________
expanded_conv_2_expand (Conv2D) (None, 56, 56, 144)  3456        expanded_conv_1_project_BN[0][0] 
__________________________________________________________________________________________________
expanded_conv_2_expand_BN (Batc (None, 56, 56, 144)  576         expanded_conv_2_expand[0][0]     
__________________________________________________________________________________________________
expanded_conv_2_expand_relu (Ac (None, 56, 56, 144)  0           expanded_conv_2_expand_BN[0][0]  
__________________________________________________________________________________________________
expanded_conv_2_depthwise (Dept (None, 56, 56, 144)  1296        expanded_conv_2_expand_relu[0][0]
__________________________________________________________________________________________________
expanded_conv_2_depthwise_BN (B (None, 56, 56, 144)  576         expanded_conv_2_depthwise[0][0]  
__________________________________________________________________________________________________
expanded_conv_2_depthwise_relu  (None, 56, 56, 144)  0           expanded_conv_2_depthwise_BN[0][0
__________________________________________________________________________________________________
expanded_conv_2_project (Conv2D (None, 56, 56, 24)   3456        expanded_conv_2_depthwise_relu[0]
__________________________________________________________________________________________________
expanded_conv_2_project_BN (Bat (None, 56, 56, 24)   96          expanded_conv_2_project[0][0]    
__________________________________________________________________________________________________
expanded_conv_2_add (Add)       (None, 56, 56, 24)   0           expanded_conv_1_project_BN[0][0] 
                                                                 expanded_conv_2_project_BN[0][0] 
__________________________________________________________________________________________________
expanded_conv_3_expand (Conv2D) (None, 56, 56, 144)  3456        expanded_conv_2_add[0][0]        
__________________________________________________________________________________________________
expanded_conv_3_expand_BN (Batc (None, 56, 56, 144)  576         expanded_conv_3_expand[0][0]     
__________________________________________________________________________________________________
expanded_conv_3_expand_relu (Ac (None, 56, 56, 144)  0           expanded_conv_3_expand_BN[0][0]  
__________________________________________________________________________________________________
expanded_conv_3_depthwise (Dept (None, 28, 28, 144)  1296        expanded_conv_3_expand_relu[0][0]
__________________________________________________________________________________________________
expanded_conv_3_depthwise_BN (B (None, 28, 28, 144)  576         expanded_conv_3_depthwise[0][0]  
__________________________________________________________________________________________________
expanded_conv_3_depthwise_relu  (None, 28, 28, 144)  0           expanded_conv_3_depthwise_BN[0][0
__________________________________________________________________________________________________
expanded_conv_3_project (Conv2D (None, 28, 28, 32)   4608        expanded_conv_3_depthwise_relu[0]
__________________________________________________________________________________________________
expanded_conv_3_project_BN (Bat (None, 28, 28, 32)   128         expanded_conv_3_project[0][0]    
__________________________________________________________________________________________________
expanded_conv_4_expand (Conv2D) (None, 28, 28, 192)  6144        expanded_conv_3_project_BN[0][0] 
__________________________________________________________________________________________________
expanded_conv_4_expand_BN (Batc (None, 28, 28, 192)  768         expanded_conv_4_expand[0][0]     
__________________________________________________________________________________________________
expanded_conv_4_expand_relu (Ac (None, 28, 28, 192)  0           expanded_conv_4_expand_BN[0][0]  
__________________________________________________________________________________________________
expanded_conv_4_depthwise (Dept (None, 28, 28, 192)  1728        expanded_conv_4_expand_relu[0][0]
__________________________________________________________________________________________________
expanded_conv_4_depthwise_BN (B (None, 28, 28, 192)  768         expanded_conv_4_depthwise[0][0]  
__________________________________________________________________________________________________
expanded_conv_4_depthwise_relu  (None, 28, 28, 192)  0           expanded_conv_4_depthwise_BN[0][0
__________________________________________________________________________________________________
expanded_conv_4_project (Conv2D (None, 28, 28, 32)   6144        expanded_conv_4_depthwise_relu[0]
__________________________________________________________________________________________________
expanded_conv_4_project_BN (Bat (None, 28, 28, 32)   128         expanded_conv_4_project[0][0]    
__________________________________________________________________________________________________
expanded_conv_4_add (Add)       (None, 28, 28, 32)   0           expanded_conv_3_project_BN[0][0] 
                                                                 expanded_conv_4_project_BN[0][0] 
__________________________________________________________________________________________________
expanded_conv_5_expand (Conv2D) (None, 28, 28, 192)  6144        expanded_conv_4_add[0][0]        
__________________________________________________________________________________________________
expanded_conv_5_expand_BN (Batc (None, 28, 28, 192)  768         expanded_conv_5_expand[0][0]     
__________________________________________________________________________________________________
expanded_conv_5_expand_relu (Ac (None, 28, 28, 192)  0           expanded_conv_5_expand_BN[0][0]  
__________________________________________________________________________________________________
expanded_conv_5_depthwise (Dept (None, 28, 28, 192)  1728        expanded_conv_5_expand_relu[0][0]
__________________________________________________________________________________________________
expanded_conv_5_depthwise_BN (B (None, 28, 28, 192)  768         expanded_conv_5_depthwise[0][0]  
__________________________________________________________________________________________________
expanded_conv_5_depthwise_relu  (None, 28, 28, 192)  0           expanded_conv_5_depthwise_BN[0][0
__________________________________________________________________________________________________
expanded_conv_5_project (Conv2D (None, 28, 28, 32)   6144        expanded_conv_5_depthwise_relu[0]
__________________________________________________________________________________________________
expanded_conv_5_project_BN (Bat (None, 28, 28, 32)   128         expanded_conv_5_project[0][0]    
__________________________________________________________________________________________________
expanded_conv_5_add (Add)       (None, 28, 28, 32)   0           expanded_conv_4_add[0][0]        
                                                                 expanded_conv_5_project_BN[0][0] 
__________________________________________________________________________________________________
expanded_conv_6_expand (Conv2D) (None, 28, 28, 192)  6144        expanded_conv_5_add[0][0]        
__________________________________________________________________________________________________
expanded_conv_6_expand_BN (Batc (None, 28, 28, 192)  768         expanded_conv_6_expand[0][0]     
__________________________________________________________________________________________________
expanded_conv_6_expand_relu (Ac (None, 28, 28, 192)  0           expanded_conv_6_expand_BN[0][0]  
__________________________________________________________________________________________________
expanded_conv_6_depthwise (Dept (None, 28, 28, 192)  1728        expanded_conv_6_expand_relu[0][0]
__________________________________________________________________________________________________
expanded_conv_6_depthwise_BN (B (None, 28, 28, 192)  768         expanded_conv_6_depthwise[0][0]  
__________________________________________________________________________________________________
expanded_conv_6_depthwise_relu  (None, 28, 28, 192)  0           expanded_conv_6_depthwise_BN[0][0
__________________________________________________________________________________________________
expanded_conv_6_project (Conv2D (None, 28, 28, 64)   12288       expanded_conv_6_depthwise_relu[0]
__________________________________________________________________________________________________
expanded_conv_6_project_BN (Bat (None, 28, 28, 64)   256         expanded_conv_6_project[0][0]    
__________________________________________________________________________________________________
expanded_conv_7_expand (Conv2D) (None, 28, 28, 384)  24576       expanded_conv_6_project_BN[0][0] 
__________________________________________________________________________________________________
expanded_conv_7_expand_BN (Batc (None, 28, 28, 384)  1536        expanded_conv_7_expand[0][0]     
__________________________________________________________________________________________________
expanded_conv_7_expand_relu (Ac (None, 28, 28, 384)  0           expanded_conv_7_expand_BN[0][0]  
__________________________________________________________________________________________________
expanded_conv_7_depthwise (Dept (None, 28, 28, 384)  3456        expanded_conv_7_expand_relu[0][0]
__________________________________________________________________________________________________
expanded_conv_7_depthwise_BN (B (None, 28, 28, 384)  1536        expanded_conv_7_depthwise[0][0]  
__________________________________________________________________________________________________
expanded_conv_7_depthwise_relu  (None, 28, 28, 384)  0           expanded_conv_7_depthwise_BN[0][0
__________________________________________________________________________________________________
expanded_conv_7_project (Conv2D (None, 28, 28, 64)   24576       expanded_conv_7_depthwise_relu[0]
__________________________________________________________________________________________________
expanded_conv_7_project_BN (Bat (None, 28, 28, 64)   256         expanded_conv_7_project[0][0]    
__________________________________________________________________________________________________
expanded_conv_7_add (Add)       (None, 28, 28, 64)   0           expanded_conv_6_project_BN[0][0] 
                                                                 expanded_conv_7_project_BN[0][0] 
__________________________________________________________________________________________________
expanded_conv_8_expand (Conv2D) (None, 28, 28, 384)  24576       expanded_conv_7_add[0][0]        
__________________________________________________________________________________________________
expanded_conv_8_expand_BN (Batc (None, 28, 28, 384)  1536        expanded_conv_8_expand[0][0]     
__________________________________________________________________________________________________
expanded_conv_8_expand_relu (Ac (None, 28, 28, 384)  0           expanded_conv_8_expand_BN[0][0]  
__________________________________________________________________________________________________
expanded_conv_8_depthwise (Dept (None, 28, 28, 384)  3456        expanded_conv_8_expand_relu[0][0]
__________________________________________________________________________________________________
expanded_conv_8_depthwise_BN (B (None, 28, 28, 384)  1536        expanded_conv_8_depthwise[0][0]  
__________________________________________________________________________________________________
expanded_conv_8_depthwise_relu  (None, 28, 28, 384)  0           expanded_conv_8_depthwise_BN[0][0
__________________________________________________________________________________________________
expanded_conv_8_project (Conv2D (None, 28, 28, 64)   24576       expanded_conv_8_depthwise_relu[0]
__________________________________________________________________________________________________
expanded_conv_8_project_BN (Bat (None, 28, 28, 64)   256         expanded_conv_8_project[0][0]    
__________________________________________________________________________________________________
expanded_conv_8_add (Add)       (None, 28, 28, 64)   0           expanded_conv_7_add[0][0]        
                                                                 expanded_conv_8_project_BN[0][0] 
__________________________________________________________________________________________________
expanded_conv_9_expand (Conv2D) (None, 28, 28, 384)  24576       expanded_conv_8_add[0][0]        
__________________________________________________________________________________________________
expanded_conv_9_expand_BN (Batc (None, 28, 28, 384)  1536        expanded_conv_9_expand[0][0]     
__________________________________________________________________________________________________
expanded_conv_9_expand_relu (Ac (None, 28, 28, 384)  0           expanded_conv_9_expand_BN[0][0]  
__________________________________________________________________________________________________
expanded_conv_9_depthwise (Dept (None, 28, 28, 384)  3456        expanded_conv_9_expand_relu[0][0]
__________________________________________________________________________________________________
expanded_conv_9_depthwise_BN (B (None, 28, 28, 384)  1536        expanded_conv_9_depthwise[0][0]  
__________________________________________________________________________________________________
expanded_conv_9_depthwise_relu  (None, 28, 28, 384)  0           expanded_conv_9_depthwise_BN[0][0
__________________________________________________________________________________________________
expanded_conv_9_project (Conv2D (None, 28, 28, 64)   24576       expanded_conv_9_depthwise_relu[0]
__________________________________________________________________________________________________
expanded_conv_9_project_BN (Bat (None, 28, 28, 64)   256         expanded_conv_9_project[0][0]    
__________________________________________________________________________________________________
expanded_conv_9_add (Add)       (None, 28, 28, 64)   0           expanded_conv_8_add[0][0]        
                                                                 expanded_conv_9_project_BN[0][0] 
__________________________________________________________________________________________________
expanded_conv_10_expand (Conv2D (None, 28, 28, 384)  24576       expanded_conv_9_add[0][0]        
__________________________________________________________________________________________________
expanded_conv_10_expand_BN (Bat (None, 28, 28, 384)  1536        expanded_conv_10_expand[0][0]    
__________________________________________________________________________________________________
expanded_conv_10_expand_relu (A (None, 28, 28, 384)  0           expanded_conv_10_expand_BN[0][0] 
__________________________________________________________________________________________________
expanded_conv_10_depthwise (Dep (None, 28, 28, 384)  3456        expanded_conv_10_expand_relu[0][0
__________________________________________________________________________________________________
expanded_conv_10_depthwise_BN ( (None, 28, 28, 384)  1536        expanded_conv_10_depthwise[0][0] 
__________________________________________________________________________________________________
expanded_conv_10_depthwise_relu (None, 28, 28, 384)  0           expanded_conv_10_depthwise_BN[0][
__________________________________________________________________________________________________
expanded_conv_10_project (Conv2 (None, 28, 28, 96)   36864       expanded_conv_10_depthwise_relu[0
__________________________________________________________________________________________________
expanded_conv_10_project_BN (Ba (None, 28, 28, 96)   384         expanded_conv_10_project[0][0]   
__________________________________________________________________________________________________
expanded_conv_11_expand (Conv2D (None, 28, 28, 576)  55296       expanded_conv_10_project_BN[0][0]
__________________________________________________________________________________________________
expanded_conv_11_expand_BN (Bat (None, 28, 28, 576)  2304        expanded_conv_11_expand[0][0]    
__________________________________________________________________________________________________
expanded_conv_11_expand_relu (A (None, 28, 28, 576)  0           expanded_conv_11_expand_BN[0][0] 
__________________________________________________________________________________________________
expanded_conv_11_depthwise (Dep (None, 28, 28, 576)  5184        expanded_conv_11_expand_relu[0][0
__________________________________________________________________________________________________
expanded_conv_11_depthwise_BN ( (None, 28, 28, 576)  2304        expanded_conv_11_depthwise[0][0] 
__________________________________________________________________________________________________
expanded_conv_11_depthwise_relu (None, 28, 28, 576)  0           expanded_conv_11_depthwise_BN[0][
__________________________________________________________________________________________________
expanded_conv_11_project (Conv2 (None, 28, 28, 96)   55296       expanded_conv_11_depthwise_relu[0
__________________________________________________________________________________________________
expanded_conv_11_project_BN (Ba (None, 28, 28, 96)   384         expanded_conv_11_project[0][0]   
__________________________________________________________________________________________________
expanded_conv_11_add (Add)      (None, 28, 28, 96)   0           expanded_conv_10_project_BN[0][0]
                                                                 expanded_conv_11_project_BN[0][0]
__________________________________________________________________________________________________
expanded_conv_12_expand (Conv2D (None, 28, 28, 576)  55296       expanded_conv_11_add[0][0]       
__________________________________________________________________________________________________
expanded_conv_12_expand_BN (Bat (None, 28, 28, 576)  2304        expanded_conv_12_expand[0][0]    
__________________________________________________________________________________________________
expanded_conv_12_expand_relu (A (None, 28, 28, 576)  0           expanded_conv_12_expand_BN[0][0] 
__________________________________________________________________________________________________
expanded_conv_12_depthwise (Dep (None, 28, 28, 576)  5184        expanded_conv_12_expand_relu[0][0
__________________________________________________________________________________________________
expanded_conv_12_depthwise_BN ( (None, 28, 28, 576)  2304        expanded_conv_12_depthwise[0][0] 
__________________________________________________________________________________________________
expanded_conv_12_depthwise_relu (None, 28, 28, 576)  0           expanded_conv_12_depthwise_BN[0][
__________________________________________________________________________________________________
expanded_conv_12_project (Conv2 (None, 28, 28, 96)   55296       expanded_conv_12_depthwise_relu[0
__________________________________________________________________________________________________
expanded_conv_12_project_BN (Ba (None, 28, 28, 96)   384         expanded_conv_12_project[0][0]   
__________________________________________________________________________________________________
expanded_conv_12_add (Add)      (None, 28, 28, 96)   0           expanded_conv_11_add[0][0]       
                                                                 expanded_conv_12_project_BN[0][0]
__________________________________________________________________________________________________
expanded_conv_13_expand (Conv2D (None, 28, 28, 576)  55296       expanded_conv_12_add[0][0]       
__________________________________________________________________________________________________
expanded_conv_13_expand_BN (Bat (None, 28, 28, 576)  2304        expanded_conv_13_expand[0][0]    
__________________________________________________________________________________________________
expanded_conv_13_expand_relu (A (None, 28, 28, 576)  0           expanded_conv_13_expand_BN[0][0] 
__________________________________________________________________________________________________
expanded_conv_13_depthwise (Dep (None, 28, 28, 576)  5184        expanded_conv_13_expand_relu[0][0
__________________________________________________________________________________________________
expanded_conv_13_depthwise_BN ( (None, 28, 28, 576)  2304        expanded_conv_13_depthwise[0][0] 
__________________________________________________________________________________________________
expanded_conv_13_depthwise_relu (None, 28, 28, 576)  0           expanded_conv_13_depthwise_BN[0][
__________________________________________________________________________________________________
expanded_conv_13_project (Conv2 (None, 28, 28, 160)  92160       expanded_conv_13_depthwise_relu[0
__________________________________________________________________________________________________
expanded_conv_13_project_BN (Ba (None, 28, 28, 160)  640         expanded_conv_13_project[0][0]   
__________________________________________________________________________________________________
expanded_conv_14_expand (Conv2D (None, 28, 28, 960)  153600      expanded_conv_13_project_BN[0][0]
__________________________________________________________________________________________________
expanded_conv_14_expand_BN (Bat (None, 28, 28, 960)  3840        expanded_conv_14_expand[0][0]    
__________________________________________________________________________________________________
expanded_conv_14_expand_relu (A (None, 28, 28, 960)  0           expanded_conv_14_expand_BN[0][0] 
__________________________________________________________________________________________________
expanded_conv_14_depthwise (Dep (None, 28, 28, 960)  8640        expanded_conv_14_expand_relu[0][0
__________________________________________________________________________________________________
expanded_conv_14_depthwise_BN ( (None, 28, 28, 960)  3840        expanded_conv_14_depthwise[0][0] 
__________________________________________________________________________________________________
expanded_conv_14_depthwise_relu (None, 28, 28, 960)  0           expanded_conv_14_depthwise_BN[0][
__________________________________________________________________________________________________
expanded_conv_14_project (Conv2 (None, 28, 28, 160)  153600      expanded_conv_14_depthwise_relu[0
__________________________________________________________________________________________________
expanded_conv_14_project_BN (Ba (None, 28, 28, 160)  640         expanded_conv_14_project[0][0]   
__________________________________________________________________________________________________
expanded_conv_14_add (Add)      (None, 28, 28, 160)  0           expanded_conv_13_project_BN[0][0]
                                                                 expanded_conv_14_project_BN[0][0]
__________________________________________________________________________________________________
expanded_conv_15_expand (Conv2D (None, 28, 28, 960)  153600      expanded_conv_14_add[0][0]       
__________________________________________________________________________________________________
expanded_conv_15_expand_BN (Bat (None, 28, 28, 960)  3840        expanded_conv_15_expand[0][0]    
__________________________________________________________________________________________________
expanded_conv_15_expand_relu (A (None, 28, 28, 960)  0           expanded_conv_15_expand_BN[0][0] 
__________________________________________________________________________________________________
expanded_conv_15_depthwise (Dep (None, 28, 28, 960)  8640        expanded_conv_15_expand_relu[0][0
__________________________________________________________________________________________________
expanded_conv_15_depthwise_BN ( (None, 28, 28, 960)  3840        expanded_conv_15_depthwise[0][0] 
__________________________________________________________________________________________________
expanded_conv_15_depthwise_relu (None, 28, 28, 960)  0           expanded_conv_15_depthwise_BN[0][
__________________________________________________________________________________________________
expanded_conv_15_project (Conv2 (None, 28, 28, 160)  153600      expanded_conv_15_depthwise_relu[0
__________________________________________________________________________________________________
expanded_conv_15_project_BN (Ba (None, 28, 28, 160)  640         expanded_conv_15_project[0][0]   
__________________________________________________________________________________________________
expanded_conv_15_add (Add)      (None, 28, 28, 160)  0           expanded_conv_14_add[0][0]       
                                                                 expanded_conv_15_project_BN[0][0]
__________________________________________________________________________________________________
expanded_conv_16_expand (Conv2D (None, 28, 28, 960)  153600      expanded_conv_15_add[0][0]       
__________________________________________________________________________________________________
expanded_conv_16_expand_BN (Bat (None, 28, 28, 960)  3840        expanded_conv_16_expand[0][0]    
__________________________________________________________________________________________________
expanded_conv_16_expand_relu (A (None, 28, 28, 960)  0           expanded_conv_16_expand_BN[0][0] 
__________________________________________________________________________________________________
expanded_conv_16_depthwise (Dep (None, 28, 28, 960)  8640        expanded_conv_16_expand_relu[0][0
__________________________________________________________________________________________________
expanded_conv_16_depthwise_BN ( (None, 28, 28, 960)  3840        expanded_conv_16_depthwise[0][0] 
__________________________________________________________________________________________________
expanded_conv_16_depthwise_relu (None, 28, 28, 960)  0           expanded_conv_16_depthwise_BN[0][
__________________________________________________________________________________________________
expanded_conv_16_project (Conv2 (None, 28, 28, 320)  307200      expanded_conv_16_depthwise_relu[0
__________________________________________________________________________________________________
expanded_conv_16_project_BN (Ba (None, 28, 28, 320)  1280        expanded_conv_16_project[0][0]   
__________________________________________________________________________________________________
global_average_pooling2d (Globa (None, 320)          0           expanded_conv_16_project_BN[0][0]
__________________________________________________________________________________________________
lambda (Lambda)                 (None, 1, 320)       0           global_average_pooling2d[0][0]   
__________________________________________________________________________________________________
lambda_1 (Lambda)               (None, 1, 1, 320)    0           lambda[0][0]                     
__________________________________________________________________________________________________
image_pooling (Conv2D)          (None, 1, 1, 256)    81920       lambda_1[0][0]                   
__________________________________________________________________________________________________
image_pooling_BN (BatchNormaliz (None, 1, 1, 256)    1024        image_pooling[0][0]              
__________________________________________________________________________________________________
aspp0 (Conv2D)                  (None, 28, 28, 256)  81920       expanded_conv_16_project_BN[0][0]
__________________________________________________________________________________________________
activation (Activation)         (None, 1, 1, 256)    0           image_pooling_BN[0][0]           
__________________________________________________________________________________________________
aspp0_BN (BatchNormalization)   (None, 28, 28, 256)  1024        aspp0[0][0]                      
__________________________________________________________________________________________________
lambda_2 (Lambda)               (None, 28, 28, 256)  0           activation[0][0]                 
__________________________________________________________________________________________________
aspp0_activation (Activation)   (None, 28, 28, 256)  0           aspp0_BN[0][0]                   
__________________________________________________________________________________________________
concatenate (Concatenate)       (None, 28, 28, 512)  0           lambda_2[0][0]                   
                                                                 aspp0_activation[0][0]           
__________________________________________________________________________________________________
concat_projection (Conv2D)      (None, 28, 28, 256)  131072      concatenate[0][0]                
__________________________________________________________________________________________________
concat_projection_BN (BatchNorm (None, 28, 28, 256)  1024        concat_projection[0][0]          
__________________________________________________________________________________________________
activation_1 (Activation)       (None, 28, 28, 256)  0           concat_projection_BN[0][0]       
__________________________________________________________________________________________________
dropout (Dropout)               (None, 28, 28, 256)  0           activation_1[0][0]               
__________________________________________________________________________________________________
logits_semantic (Conv2D)        (None, 28, 28, 21)   5397        dropout[0][0]                    
__________________________________________________________________________________________________
lambda_3 (Lambda)               (None, 224, 224, 21) 0           logits_semantic[0][0]            
==================================================================================================
Total params: 2,146,645
Trainable params: 2,113,557
Non-trainable params: 33,088
__________________________________________________________________________________________________
10582
10582 10582
1449
(1449, 224, 224, 3) (1449, 224, 224, 21)
Epoch 1/100
Model: "deeplabv3plus"
__________________________________________________________________________________________________
Layer (type)                    Output Shape         Param #     Connected to                     
==================================================================================================
input_1 (InputLayer)            [(None, 224, 224, 3) 0                                            
__________________________________________________________________________________________________
Conv (Conv2D)                   (None, 112, 112, 32) 864         input_1[0][0]                    
__________________________________________________________________________________________________
Conv_BN (BatchNormalization)    (None, 112, 112, 32) 128         Conv[0][0]                       
__________________________________________________________________________________________________
Conv_Relu6 (Activation)         (None, 112, 112, 32) 0           Conv_BN[0][0]                    
__________________________________________________________________________________________________
expanded_conv_depthwise (Depthw (None, 112, 112, 32) 288         Conv_Relu6[0][0]                 
__________________________________________________________________________________________________
expanded_conv_depthwise_BN (Bat (None, 112, 112, 32) 128         expanded_conv_depthwise[0][0]    
__________________________________________________________________________________________________
expanded_conv_depthwise_relu (A (None, 112, 112, 32) 0           expanded_conv_depthwise_BN[0][0] 
__________________________________________________________________________________________________
expanded_conv_project (Conv2D)  (None, 112, 112, 16) 512         expanded_conv_depthwise_relu[0][0
__________________________________________________________________________________________________
expanded_conv_project_BN (Batch (None, 112, 112, 16) 64          expanded_conv_project[0][0]      
__________________________________________________________________________________________________
expanded_conv_1_expand (Conv2D) (None, 112, 112, 96) 1536        expanded_conv_project_BN[0][0]   
__________________________________________________________________________________________________
expanded_conv_1_expand_BN (Batc (None, 112, 112, 96) 384         expanded_conv_1_expand[0][0]     
__________________________________________________________________________________________________
expanded_conv_1_expand_relu (Ac (None, 112, 112, 96) 0           expanded_conv_1_expand_BN[0][0]  
__________________________________________________________________________________________________
expanded_conv_1_depthwise (Dept (None, 56, 56, 96)   864         expanded_conv_1_expand_relu[0][0]
__________________________________________________________________________________________________
expanded_conv_1_depthwise_BN (B (None, 56, 56, 96)   384         expanded_conv_1_depthwise[0][0]  
__________________________________________________________________________________________________
expanded_conv_1_depthwise_relu  (None, 56, 56, 96)   0           expanded_conv_1_depthwise_BN[0][0
__________________________________________________________________________________________________
expanded_conv_1_project (Conv2D (None, 56, 56, 24)   2304        expanded_conv_1_depthwise_relu[0]
__________________________________________________________________________________________________
expanded_conv_1_project_BN (Bat (None, 56, 56, 24)   96          expanded_conv_1_project[0][0]    
__________________________________________________________________________________________________
expanded_conv_2_expand (Conv2D) (None, 56, 56, 144)  3456        expanded_conv_1_project_BN[0][0] 
__________________________________________________________________________________________________
expanded_conv_2_expand_BN (Batc (None, 56, 56, 144)  576         expanded_conv_2_expand[0][0]     
__________________________________________________________________________________________________
expanded_conv_2_expand_relu (Ac (None, 56, 56, 144)  0           expanded_conv_2_expand_BN[0][0]  
__________________________________________________________________________________________________
expanded_conv_2_depthwise (Dept (None, 56, 56, 144)  1296        expanded_conv_2_expand_relu[0][0]
__________________________________________________________________________________________________
expanded_conv_2_depthwise_BN (B (None, 56, 56, 144)  576         expanded_conv_2_depthwise[0][0]  
__________________________________________________________________________________________________
expanded_conv_2_depthwise_relu  (None, 56, 56, 144)  0           expanded_conv_2_depthwise_BN[0][0
__________________________________________________________________________________________________
expanded_conv_2_project (Conv2D (None, 56, 56, 24)   3456        expanded_conv_2_depthwise_relu[0]
__________________________________________________________________________________________________
expanded_conv_2_project_BN (Bat (None, 56, 56, 24)   96          expanded_conv_2_project[0][0]    
__________________________________________________________________________________________________
expanded_conv_2_add (Add)       (None, 56, 56, 24)   0           expanded_conv_1_project_BN[0][0] 
                                                                 expanded_conv_2_project_BN[0][0] 
__________________________________________________________________________________________________
expanded_conv_3_expand (Conv2D) (None, 56, 56, 144)  3456        expanded_conv_2_add[0][0]        
__________________________________________________________________________________________________
expanded_conv_3_expand_BN (Batc (None, 56, 56, 144)  576         expanded_conv_3_expand[0][0]     
__________________________________________________________________________________________________
expanded_conv_3_expand_relu (Ac (None, 56, 56, 144)  0           expanded_conv_3_expand_BN[0][0]  
__________________________________________________________________________________________________
expanded_conv_3_depthwise (Dept (None, 28, 28, 144)  1296        expanded_conv_3_expand_relu[0][0]
__________________________________________________________________________________________________
expanded_conv_3_depthwise_BN (B (None, 28, 28, 144)  576         expanded_conv_3_depthwise[0][0]  
__________________________________________________________________________________________________
expanded_conv_3_depthwise_relu  (None, 28, 28, 144)  0           expanded_conv_3_depthwise_BN[0][0
__________________________________________________________________________________________________
expanded_conv_3_project (Conv2D (None, 28, 28, 32)   4608        expanded_conv_3_depthwise_relu[0]
__________________________________________________________________________________________________
expanded_conv_3_project_BN (Bat (None, 28, 28, 32)   128         expanded_conv_3_project[0][0]    
__________________________________________________________________________________________________
expanded_conv_4_expand (Conv2D) (None, 28, 28, 192)  6144        expanded_conv_3_project_BN[0][0] 
__________________________________________________________________________________________________
expanded_conv_4_expand_BN (Batc (None, 28, 28, 192)  768         expanded_conv_4_expand[0][0]     
__________________________________________________________________________________________________
expanded_conv_4_expand_relu (Ac (None, 28, 28, 192)  0           expanded_conv_4_expand_BN[0][0]  
__________________________________________________________________________________________________
expanded_conv_4_depthwise (Dept (None, 28, 28, 192)  1728        expanded_conv_4_expand_relu[0][0]
__________________________________________________________________________________________________
expanded_conv_4_depthwise_BN (B (None, 28, 28, 192)  768         expanded_conv_4_depthwise[0][0]  
__________________________________________________________________________________________________
expanded_conv_4_depthwise_relu  (None, 28, 28, 192)  0           expanded_conv_4_depthwise_BN[0][0
__________________________________________________________________________________________________
expanded_conv_4_project (Conv2D (None, 28, 28, 32)   6144        expanded_conv_4_depthwise_relu[0]
__________________________________________________________________________________________________
expanded_conv_4_project_BN (Bat (None, 28, 28, 32)   128         expanded_conv_4_project[0][0]    
__________________________________________________________________________________________________
expanded_conv_4_add (Add)       (None, 28, 28, 32)   0           expanded_conv_3_project_BN[0][0] 
                                                                 expanded_conv_4_project_BN[0][0] 
__________________________________________________________________________________________________
expanded_conv_5_expand (Conv2D) (None, 28, 28, 192)  6144        expanded_conv_4_add[0][0]        
__________________________________________________________________________________________________
expanded_conv_5_expand_BN (Batc (None, 28, 28, 192)  768         expanded_conv_5_expand[0][0]     
__________________________________________________________________________________________________
expanded_conv_5_expand_relu (Ac (None, 28, 28, 192)  0           expanded_conv_5_expand_BN[0][0]  
__________________________________________________________________________________________________
expanded_conv_5_depthwise (Dept (None, 28, 28, 192)  1728        expanded_conv_5_expand_relu[0][0]
__________________________________________________________________________________________________
expanded_conv_5_depthwise_BN (B (None, 28, 28, 192)  768         expanded_conv_5_depthwise[0][0]  
__________________________________________________________________________________________________
expanded_conv_5_depthwise_relu  (None, 28, 28, 192)  0           expanded_conv_5_depthwise_BN[0][0
__________________________________________________________________________________________________
expanded_conv_5_project (Conv2D (None, 28, 28, 32)   6144        expanded_conv_5_depthwise_relu[0]
__________________________________________________________________________________________________
expanded_conv_5_project_BN (Bat (None, 28, 28, 32)   128         expanded_conv_5_project[0][0]    
__________________________________________________________________________________________________
expanded_conv_5_add (Add)       (None, 28, 28, 32)   0           expanded_conv_4_add[0][0]        
                                                                 expanded_conv_5_project_BN[0][0] 
__________________________________________________________________________________________________
expanded_conv_6_expand (Conv2D) (None, 28, 28, 192)  6144        expanded_conv_5_add[0][0]        
__________________________________________________________________________________________________
expanded_conv_6_expand_BN (Batc (None, 28, 28, 192)  768         expanded_conv_6_expand[0][0]     
__________________________________________________________________________________________________
expanded_conv_6_expand_relu (Ac (None, 28, 28, 192)  0           expanded_conv_6_expand_BN[0][0]  
__________________________________________________________________________________________________
expanded_conv_6_depthwise (Dept (None, 28, 28, 192)  1728        expanded_conv_6_expand_relu[0][0]
__________________________________________________________________________________________________
expanded_conv_6_depthwise_BN (B (None, 28, 28, 192)  768         expanded_conv_6_depthwise[0][0]  
__________________________________________________________________________________________________
expanded_conv_6_depthwise_relu  (None, 28, 28, 192)  0           expanded_conv_6_depthwise_BN[0][0
__________________________________________________________________________________________________
expanded_conv_6_project (Conv2D (None, 28, 28, 64)   12288       expanded_conv_6_depthwise_relu[0]
__________________________________________________________________________________________________
expanded_conv_6_project_BN (Bat (None, 28, 28, 64)   256         expanded_conv_6_project[0][0]    
__________________________________________________________________________________________________
expanded_conv_7_expand (Conv2D) (None, 28, 28, 384)  24576       expanded_conv_6_project_BN[0][0] 
__________________________________________________________________________________________________
expanded_conv_7_expand_BN (Batc (None, 28, 28, 384)  1536        expanded_conv_7_expand[0][0]     
__________________________________________________________________________________________________
expanded_conv_7_expand_relu (Ac (None, 28, 28, 384)  0           expanded_conv_7_expand_BN[0][0]  
__________________________________________________________________________________________________
expanded_conv_7_depthwise (Dept (None, 28, 28, 384)  3456        expanded_conv_7_expand_relu[0][0]
__________________________________________________________________________________________________
expanded_conv_7_depthwise_BN (B (None, 28, 28, 384)  1536        expanded_conv_7_depthwise[0][0]  
__________________________________________________________________________________________________
expanded_conv_7_depthwise_relu  (None, 28, 28, 384)  0           expanded_conv_7_depthwise_BN[0][0
__________________________________________________________________________________________________
expanded_conv_7_project (Conv2D (None, 28, 28, 64)   24576       expanded_conv_7_depthwise_relu[0]
__________________________________________________________________________________________________
expanded_conv_7_project_BN (Bat (None, 28, 28, 64)   256         expanded_conv_7_project[0][0]    
__________________________________________________________________________________________________
expanded_conv_7_add (Add)       (None, 28, 28, 64)   0           expanded_conv_6_project_BN[0][0] 
                                                                 expanded_conv_7_project_BN[0][0] 
__________________________________________________________________________________________________
expanded_conv_8_expand (Conv2D) (None, 28, 28, 384)  24576       expanded_conv_7_add[0][0]        
__________________________________________________________________________________________________
expanded_conv_8_expand_BN (Batc (None, 28, 28, 384)  1536        expanded_conv_8_expand[0][0]     
__________________________________________________________________________________________________
expanded_conv_8_expand_relu (Ac (None, 28, 28, 384)  0           expanded_conv_8_expand_BN[0][0]  
__________________________________________________________________________________________________
expanded_conv_8_depthwise (Dept (None, 28, 28, 384)  3456        expanded_conv_8_expand_relu[0][0]
__________________________________________________________________________________________________
expanded_conv_8_depthwise_BN (B (None, 28, 28, 384)  1536        expanded_conv_8_depthwise[0][0]  
__________________________________________________________________________________________________
expanded_conv_8_depthwise_relu  (None, 28, 28, 384)  0           expanded_conv_8_depthwise_BN[0][0
__________________________________________________________________________________________________
expanded_conv_8_project (Conv2D (None, 28, 28, 64)   24576       expanded_conv_8_depthwise_relu[0]
__________________________________________________________________________________________________
expanded_conv_8_project_BN (Bat (None, 28, 28, 64)   256         expanded_conv_8_project[0][0]    
__________________________________________________________________________________________________
expanded_conv_8_add (Add)       (None, 28, 28, 64)   0           expanded_conv_7_add[0][0]        
                                                                 expanded_conv_8_project_BN[0][0] 
__________________________________________________________________________________________________
expanded_conv_9_expand (Conv2D) (None, 28, 28, 384)  24576       expanded_conv_8_add[0][0]        
__________________________________________________________________________________________________
expanded_conv_9_expand_BN (Batc (None, 28, 28, 384)  1536        expanded_conv_9_expand[0][0]     
__________________________________________________________________________________________________
expanded_conv_9_expand_relu (Ac (None, 28, 28, 384)  0           expanded_conv_9_expand_BN[0][0]  
__________________________________________________________________________________________________
expanded_conv_9_depthwise (Dept (None, 28, 28, 384)  3456        expanded_conv_9_expand_relu[0][0]
__________________________________________________________________________________________________
expanded_conv_9_depthwise_BN (B (None, 28, 28, 384)  1536        expanded_conv_9_depthwise[0][0]  
__________________________________________________________________________________________________
expanded_conv_9_depthwise_relu  (None, 28, 28, 384)  0           expanded_conv_9_depthwise_BN[0][0
__________________________________________________________________________________________________
expanded_conv_9_project (Conv2D (None, 28, 28, 64)   24576       expanded_conv_9_depthwise_relu[0]
__________________________________________________________________________________________________
expanded_conv_9_project_BN (Bat (None, 28, 28, 64)   256         expanded_conv_9_project[0][0]    
__________________________________________________________________________________________________
expanded_conv_9_add (Add)       (None, 28, 28, 64)   0           expanded_conv_8_add[0][0]        
                                                                 expanded_conv_9_project_BN[0][0] 
__________________________________________________________________________________________________
expanded_conv_10_expand (Conv2D (None, 28, 28, 384)  24576       expanded_conv_9_add[0][0]        
__________________________________________________________________________________________________
expanded_conv_10_expand_BN (Bat (None, 28, 28, 384)  1536        expanded_conv_10_expand[0][0]    
__________________________________________________________________________________________________
expanded_conv_10_expand_relu (A (None, 28, 28, 384)  0           expanded_conv_10_expand_BN[0][0] 
__________________________________________________________________________________________________
expanded_conv_10_depthwise (Dep (None, 28, 28, 384)  3456        expanded_conv_10_expand_relu[0][0
__________________________________________________________________________________________________
expanded_conv_10_depthwise_BN ( (None, 28, 28, 384)  1536        expanded_conv_10_depthwise[0][0] 
__________________________________________________________________________________________________
expanded_conv_10_depthwise_relu (None, 28, 28, 384)  0           expanded_conv_10_depthwise_BN[0][
__________________________________________________________________________________________________
expanded_conv_10_project (Conv2 (None, 28, 28, 96)   36864       expanded_conv_10_depthwise_relu[0
__________________________________________________________________________________________________
expanded_conv_10_project_BN (Ba (None, 28, 28, 96)   384         expanded_conv_10_project[0][0]   
__________________________________________________________________________________________________
expanded_conv_11_expand (Conv2D (None, 28, 28, 576)  55296       expanded_conv_10_project_BN[0][0]
__________________________________________________________________________________________________
expanded_conv_11_expand_BN (Bat (None, 28, 28, 576)  2304        expanded_conv_11_expand[0][0]    
__________________________________________________________________________________________________
expanded_conv_11_expand_relu (A (None, 28, 28, 576)  0           expanded_conv_11_expand_BN[0][0] 
__________________________________________________________________________________________________
expanded_conv_11_depthwise (Dep (None, 28, 28, 576)  5184        expanded_conv_11_expand_relu[0][0
__________________________________________________________________________________________________
expanded_conv_11_depthwise_BN ( (None, 28, 28, 576)  2304        expanded_conv_11_depthwise[0][0] 
__________________________________________________________________________________________________
expanded_conv_11_depthwise_relu (None, 28, 28, 576)  0           expanded_conv_11_depthwise_BN[0][
__________________________________________________________________________________________________
expanded_conv_11_project (Conv2 (None, 28, 28, 96)   55296       expanded_conv_11_depthwise_relu[0
__________________________________________________________________________________________________
expanded_conv_11_project_BN (Ba (None, 28, 28, 96)   384         expanded_conv_11_project[0][0]   
__________________________________________________________________________________________________
expanded_conv_11_add (Add)      (None, 28, 28, 96)   0           expanded_conv_10_project_BN[0][0]
                                                                 expanded_conv_11_project_BN[0][0]
__________________________________________________________________________________________________
expanded_conv_12_expand (Conv2D (None, 28, 28, 576)  55296       expanded_conv_11_add[0][0]       
__________________________________________________________________________________________________
expanded_conv_12_expand_BN (Bat (None, 28, 28, 576)  2304        expanded_conv_12_expand[0][0]    
__________________________________________________________________________________________________
expanded_conv_12_expand_relu (A (None, 28, 28, 576)  0           expanded_conv_12_expand_BN[0][0] 
__________________________________________________________________________________________________
expanded_conv_12_depthwise (Dep (None, 28, 28, 576)  5184        expanded_conv_12_expand_relu[0][0
__________________________________________________________________________________________________
expanded_conv_12_depthwise_BN ( (None, 28, 28, 576)  2304        expanded_conv_12_depthwise[0][0] 
__________________________________________________________________________________________________
expanded_conv_12_depthwise_relu (None, 28, 28, 576)  0           expanded_conv_12_depthwise_BN[0][
__________________________________________________________________________________________________
expanded_conv_12_project (Conv2 (None, 28, 28, 96)   55296       expanded_conv_12_depthwise_relu[0
__________________________________________________________________________________________________
expanded_conv_12_project_BN (Ba (None, 28, 28, 96)   384         expanded_conv_12_project[0][0]   
__________________________________________________________________________________________________
expanded_conv_12_add (Add)      (None, 28, 28, 96)   0           expanded_conv_11_add[0][0]       
                                                                 expanded_conv_12_project_BN[0][0]
__________________________________________________________________________________________________
expanded_conv_13_expand (Conv2D (None, 28, 28, 576)  55296       expanded_conv_12_add[0][0]       
__________________________________________________________________________________________________
expanded_conv_13_expand_BN (Bat (None, 28, 28, 576)  2304        expanded_conv_13_expand[0][0]    
__________________________________________________________________________________________________
expanded_conv_13_expand_relu (A (None, 28, 28, 576)  0           expanded_conv_13_expand_BN[0][0] 
__________________________________________________________________________________________________
expanded_conv_13_depthwise (Dep (None, 28, 28, 576)  5184        expanded_conv_13_expand_relu[0][0
__________________________________________________________________________________________________
expanded_conv_13_depthwise_BN ( (None, 28, 28, 576)  2304        expanded_conv_13_depthwise[0][0] 
__________________________________________________________________________________________________
expanded_conv_13_depthwise_relu (None, 28, 28, 576)  0           expanded_conv_13_depthwise_BN[0][
__________________________________________________________________________________________________
expanded_conv_13_project (Conv2 (None, 28, 28, 160)  92160       expanded_conv_13_depthwise_relu[0
__________________________________________________________________________________________________
expanded_conv_13_project_BN (Ba (None, 28, 28, 160)  640         expanded_conv_13_project[0][0]   
__________________________________________________________________________________________________
expanded_conv_14_expand (Conv2D (None, 28, 28, 960)  153600      expanded_conv_13_project_BN[0][0]
__________________________________________________________________________________________________
expanded_conv_14_expand_BN (Bat (None, 28, 28, 960)  3840        expanded_conv_14_expand[0][0]    
__________________________________________________________________________________________________
expanded_conv_14_expand_relu (A (None, 28, 28, 960)  0           expanded_conv_14_expand_BN[0][0] 
__________________________________________________________________________________________________
expanded_conv_14_depthwise (Dep (None, 28, 28, 960)  8640        expanded_conv_14_expand_relu[0][0
__________________________________________________________________________________________________
expanded_conv_14_depthwise_BN ( (None, 28, 28, 960)  3840        expanded_conv_14_depthwise[0][0] 
__________________________________________________________________________________________________
expanded_conv_14_depthwise_relu (None, 28, 28, 960)  0           expanded_conv_14_depthwise_BN[0][
__________________________________________________________________________________________________
expanded_conv_14_project (Conv2 (None, 28, 28, 160)  153600      expanded_conv_14_depthwise_relu[0
__________________________________________________________________________________________________
expanded_conv_14_project_BN (Ba (None, 28, 28, 160)  640         expanded_conv_14_project[0][0]   
__________________________________________________________________________________________________
expanded_conv_14_add (Add)      (None, 28, 28, 160)  0           expanded_conv_13_project_BN[0][0]
                                                                 expanded_conv_14_project_BN[0][0]
__________________________________________________________________________________________________
expanded_conv_15_expand (Conv2D (None, 28, 28, 960)  153600      expanded_conv_14_add[0][0]       
__________________________________________________________________________________________________
expanded_conv_15_expand_BN (Bat (None, 28, 28, 960)  3840        expanded_conv_15_expand[0][0]    
__________________________________________________________________________________________________
expanded_conv_15_expand_relu (A (None, 28, 28, 960)  0           expanded_conv_15_expand_BN[0][0] 
__________________________________________________________________________________________________
expanded_conv_15_depthwise (Dep (None, 28, 28, 960)  8640        expanded_conv_15_expand_relu[0][0
__________________________________________________________________________________________________
expanded_conv_15_depthwise_BN ( (None, 28, 28, 960)  3840        expanded_conv_15_depthwise[0][0] 
__________________________________________________________________________________________________
expanded_conv_15_depthwise_relu (None, 28, 28, 960)  0           expanded_conv_15_depthwise_BN[0][
__________________________________________________________________________________________________
expanded_conv_15_project (Conv2 (None, 28, 28, 160)  153600      expanded_conv_15_depthwise_relu[0
__________________________________________________________________________________________________
expanded_conv_15_project_BN (Ba (None, 28, 28, 160)  640         expanded_conv_15_project[0][0]   
__________________________________________________________________________________________________
expanded_conv_15_add (Add)      (None, 28, 28, 160)  0           expanded_conv_14_add[0][0]       
                                                                 expanded_conv_15_project_BN[0][0]
__________________________________________________________________________________________________
expanded_conv_16_expand (Conv2D (None, 28, 28, 960)  153600      expanded_conv_15_add[0][0]       
__________________________________________________________________________________________________
expanded_conv_16_expand_BN (Bat (None, 28, 28, 960)  3840        expanded_conv_16_expand[0][0]    
__________________________________________________________________________________________________
expanded_conv_16_expand_relu (A (None, 28, 28, 960)  0           expanded_conv_16_expand_BN[0][0] 
__________________________________________________________________________________________________
expanded_conv_16_depthwise (Dep (None, 28, 28, 960)  8640        expanded_conv_16_expand_relu[0][0
__________________________________________________________________________________________________
expanded_conv_16_depthwise_BN ( (None, 28, 28, 960)  3840        expanded_conv_16_depthwise[0][0] 
__________________________________________________________________________________________________
expanded_conv_16_depthwise_relu (None, 28, 28, 960)  0           expanded_conv_16_depthwise_BN[0][
__________________________________________________________________________________________________
expanded_conv_16_project (Conv2 (None, 28, 28, 320)  307200      expanded_conv_16_depthwise_relu[0
__________________________________________________________________________________________________
expanded_conv_16_project_BN (Ba (None, 28, 28, 320)  1280        expanded_conv_16_project[0][0]   
__________________________________________________________________________________________________
global_average_pooling2d (Globa (None, 320)          0           expanded_conv_16_project_BN[0][0]
__________________________________________________________________________________________________
lambda (Lambda)                 (None, 1, 320)       0           global_average_pooling2d[0][0]   
__________________________________________________________________________________________________
lambda_1 (Lambda)               (None, 1, 1, 320)    0           lambda[0][0]                     
__________________________________________________________________________________________________
image_pooling (Conv2D)          (None, 1, 1, 256)    81920       lambda_1[0][0]                   
__________________________________________________________________________________________________
image_pooling_BN (BatchNormaliz (None, 1, 1, 256)    1024        image_pooling[0][0]              
__________________________________________________________________________________________________
aspp0 (Conv2D)                  (None, 28, 28, 256)  81920       expanded_conv_16_project_BN[0][0]
__________________________________________________________________________________________________
activation (Activation)         (None, 1, 1, 256)    0           image_pooling_BN[0][0]           
__________________________________________________________________________________________________
aspp0_BN (BatchNormalization)   (None, 28, 28, 256)  1024        aspp0[0][0]                      
__________________________________________________________________________________________________
lambda_2 (Lambda)               (None, 28, 28, 256)  0           activation[0][0]                 
__________________________________________________________________________________________________
aspp0_activation (Activation)   (None, 28, 28, 256)  0           aspp0_BN[0][0]                   
__________________________________________________________________________________________________
concatenate (Concatenate)       (None, 28, 28, 512)  0           lambda_2[0][0]                   
                                                                 aspp0_activation[0][0]           
__________________________________________________________________________________________________
concat_projection (Conv2D)      (None, 28, 28, 256)  131072      concatenate[0][0]                
__________________________________________________________________________________________________
concat_projection_BN (BatchNorm (None, 28, 28, 256)  1024        concat_projection[0][0]          
__________________________________________________________________________________________________
activation_1 (Activation)       (None, 28, 28, 256)  0           concat_projection_BN[0][0]       
__________________________________________________________________________________________________
dropout (Dropout)               (None, 28, 28, 256)  0           activation_1[0][0]               
__________________________________________________________________________________________________
logits_semantic (Conv2D)        (None, 28, 28, 21)   5397        dropout[0][0]                    
__________________________________________________________________________________________________
lambda_3 (Lambda)               (None, 224, 224, 21) 0           logits_semantic[0][0]            
==================================================================================================
Total params: 2,146,645
Trainable params: 2,113,557
Non-trainable params: 33,088
__________________________________________________________________________________________________
10582
10582 10582
1449
(1449, 224, 224, 3) (1449, 224, 224, 21)
Epoch 1/100
__________________________________________________________________________________________________
Layer (type)                    Output Shape         Param #     Connected to                     
==================================================================================================
input_1 (InputLayer)            (None, 224, 224, 3)  0                                            
__________________________________________________________________________________________________
block1_conv1 (Conv2D)           (None, 224, 224, 64) 1792        input_1[0][0]                    
__________________________________________________________________________________________________
block1_conv2 (Conv2D)           (None, 224, 224, 64) 36928       block1_conv1[0][0]               
__________________________________________________________________________________________________
block1_pool (MaxPooling2D)      (None, 112, 112, 64) 0           block1_conv2[0][0]               
__________________________________________________________________________________________________
block2_conv1 (Conv2D)           (None, 112, 112, 128 73856       block1_pool[0][0]                
__________________________________________________________________________________________________
block2_conv2 (Conv2D)           (None, 112, 112, 128 147584      block2_conv1[0][0]               
__________________________________________________________________________________________________
block2_pool (MaxPooling2D)      (None, 56, 56, 128)  0           block2_conv2[0][0]               
__________________________________________________________________________________________________
block3_conv1 (Conv2D)           (None, 56, 56, 256)  295168      block2_pool[0][0]                
__________________________________________________________________________________________________
block3_conv2 (Conv2D)           (None, 56, 56, 256)  590080      block3_conv1[0][0]               
__________________________________________________________________________________________________
block3_conv3 (Conv2D)           (None, 56, 56, 256)  590080      block3_conv2[0][0]               
__________________________________________________________________________________________________
block3_pool (MaxPooling2D)      (None, 28, 28, 256)  0           block3_conv3[0][0]               
__________________________________________________________________________________________________
block4_conv1 (Conv2D)           (None, 28, 28, 512)  1180160     block3_pool[0][0]                
__________________________________________________________________________________________________
block4_conv2 (Conv2D)           (None, 28, 28, 512)  2359808     block4_conv1[0][0]               
__________________________________________________________________________________________________
block4_conv3 (Conv2D)           (None, 28, 28, 512)  2359808     block4_conv2[0][0]               
__________________________________________________________________________________________________
block4_pool (MaxPooling2D)      (None, 14, 14, 512)  0           block4_conv3[0][0]               
__________________________________________________________________________________________________
block5_conv1 (Conv2D)           (None, 14, 14, 512)  2359808     block4_pool[0][0]                
__________________________________________________________________________________________________
block5_conv2 (Conv2D)           (None, 14, 14, 512)  2359808     block5_conv1[0][0]               
__________________________________________________________________________________________________
block5_conv3 (Conv2D)           (None, 14, 14, 512)  2359808     block5_conv2[0][0]               
__________________________________________________________________________________________________
block5_pool (MaxPooling2D)      (None, 7, 7, 512)    0           block5_conv3[0][0]               
__________________________________________________________________________________________________
conv6 (Conv2D)                  (None, 7, 7, 4096)   102764544   block5_pool[0][0]                
__________________________________________________________________________________________________
pool4_11 (Conv2D)               (None, 14, 14, 21)   10773       block4_pool[0][0]                
__________________________________________________________________________________________________
conv7 (Conv2D)                  (None, 7, 7, 4096)   16781312    conv6[0][0]                      
__________________________________________________________________________________________________
conv2d_transpose_2 (Conv2DTrans (None, 28, 28, 21)   1764        pool4_11[0][0]                   
__________________________________________________________________________________________________
pool3_11 (Conv2D)               (None, 28, 28, 21)   5397        block3_pool[0][0]                
__________________________________________________________________________________________________
conv2d_transpose_1 (Conv2DTrans (None, 28, 28, 21)   1376256     conv7[0][0]                      
__________________________________________________________________________________________________
add (Add)                       (None, 28, 28, 21)   0           conv2d_transpose_2[0][0]         
                                                                 pool3_11[0][0]                   
                                                                 conv2d_transpose_1[0][0]         
__________________________________________________________________________________________________
conv2d_transpose_3 (Conv2DTrans (None, 224, 224, 21) 28224       add[0][0]                        
__________________________________________________________________________________________________
activation_1 (Activation)       (None, 224, 224, 21) 0           conv2d_transpose_3[0][0]         
==================================================================================================
Total params: 135,682,958
Trainable params: 135,682,958
Non-trainable params: 0
__________________________________________________________________________________________________
10582
10582 10582
1449
(1449, 224, 224, 3) (1449, 224, 224, 21)
Epoch 1/100
____________________________________________________________________________________________________
Layer (type)                     Output Shape          Param #     Connected to                     
====================================================================================================
input_1 (InputLayer)             (None, 224, 224, 3)   0                                            
____________________________________________________________________________________________________
block1_conv1 (Conv2D)            (None, 224, 224, 64)  1792        input_1[0][0]                    
____________________________________________________________________________________________________
block1_conv2 (Conv2D)            (None, 224, 224, 64)  36928       block1_conv1[0][0]               
____________________________________________________________________________________________________
block1_pool (MaxPooling2D)       (None, 112, 112, 64)  0           block1_conv2[0][0]               
____________________________________________________________________________________________________
block2_conv1 (Conv2D)            (None, 112, 112, 128) 73856       block1_pool[0][0]                
____________________________________________________________________________________________________
block2_conv2 (Conv2D)            (None, 112, 112, 128) 147584      block2_conv1[0][0]               
____________________________________________________________________________________________________
block2_pool (MaxPooling2D)       (None, 56, 56, 128)   0           block2_conv2[0][0]               
____________________________________________________________________________________________________
block3_conv1 (Conv2D)            (None, 56, 56, 256)   295168      block2_pool[0][0]                
____________________________________________________________________________________________________
block3_conv2 (Conv2D)            (None, 56, 56, 256)   590080      block3_conv1[0][0]               
____________________________________________________________________________________________________
block3_conv3 (Conv2D)            (None, 56, 56, 256)   590080      block3_conv2[0][0]               
____________________________________________________________________________________________________
block3_pool (MaxPooling2D)       (None, 28, 28, 256)   0           block3_conv3[0][0]               
____________________________________________________________________________________________________
block4_conv1 (Conv2D)            (None, 28, 28, 512)   1180160     block3_pool[0][0]                
____________________________________________________________________________________________________
block4_conv2 (Conv2D)            (None, 28, 28, 512)   2359808     block4_conv1[0][0]               
____________________________________________________________________________________________________
block4_conv3 (Conv2D)            (None, 28, 28, 512)   2359808     block4_conv2[0][0]               
____________________________________________________________________________________________________
block4_pool (MaxPooling2D)       (None, 14, 14, 512)   0           block4_conv3[0][0]               
____________________________________________________________________________________________________
block5_conv1 (Conv2D)            (None, 14, 14, 512)   2359808     block4_pool[0][0]                
____________________________________________________________________________________________________
block5_conv2 (Conv2D)            (None, 14, 14, 512)   2359808     block5_conv1[0][0]               
____________________________________________________________________________________________________
block5_conv3 (Conv2D)            (None, 14, 14, 512)   2359808     block5_conv2[0][0]               
____________________________________________________________________________________________________
block5_pool (MaxPooling2D)       (None, 7, 7, 512)     0           block5_conv3[0][0]               
____________________________________________________________________________________________________
conv6 (Conv2D)                   (None, 7, 7, 4096)    102764544   block5_pool[0][0]                
____________________________________________________________________________________________________
pool4_11 (Conv2D)                (None, 14, 14, 21)    10773       block4_pool[0][0]                
____________________________________________________________________________________________________
conv7 (Conv2D)                   (None, 7, 7, 4096)    16781312    conv6[0][0]                      
____________________________________________________________________________________________________
conv2d_transpose_2 (Conv2DTransp (None, 28, 28, 21)    1764        pool4_11[0][0]                   
____________________________________________________________________________________________________
pool3_11 (Conv2D)                (None, 28, 28, 21)    5397        block3_pool[0][0]                
____________________________________________________________________________________________________
conv2d_transpose_1 (Conv2DTransp (None, 28, 28, 21)    1376256     conv7[0][0]                      
____________________________________________________________________________________________________
add (Add)                        (None, 28, 28, 21)    0           conv2d_transpose_2[0][0]         
                                                                   pool3_11[0][0]                   
                                                                   conv2d_transpose_1[0][0]         
____________________________________________________________________________________________________
conv2d_transpose_3 (Conv2DTransp (None, 224, 224, 21)  28224       add[0][0]                        
____________________________________________________________________________________________________
activation_1 (Activation)        (None, 224, 224, 21)  0           conv2d_transpose_3[0][0]         
====================================================================================================
Total params: 135,682,958
Trainable params: 135,682,958
Non-trainable params: 0
____________________________________________________________________________________________________
10582
10582 10582
1449
(1449, 224, 224, 3) (1449, 224, 224, 21)
Epoch 1/100
Model: "deeplabv3plus"
__________________________________________________________________________________________________
Layer (type)                    Output Shape         Param #     Connected to                     
==================================================================================================
input_1 (InputLayer)            [(None, 224, 224, 3) 0                                            
…
__________________________________________________________________________________________________
expanded_conv_10_expand_relu (A (None, 64, 64, 384)  0           expanded_conv_10_expand_BN[0][0] 
__________________________________________________________________________________________________
expanded_conv_10_depthwise (Dep (None, 64, 64, 384)  3456        expanded_conv_10_expand_relu[0][0
__________________________________________________________________________________________________
expanded_conv_10_depthwise_BN ( (None, 64, 64, 384)  1536        expanded_conv_10_depthwise[0][0] 
__________________________________________________________________________________________________
expanded_conv_10_depthwise_relu (None, 64, 64, 384)  0           expanded_conv_10_depthwise_BN[0][
__________________________________________________________________________________________________
expanded_conv_10_project (Conv2 (None, 64, 64, 96)   36864       expanded_conv_10_depthwise_relu[0
__________________________________________________________________________________________________
expanded_conv_10_project_BN (Ba (None, 64, 64, 96)   384         expanded_conv_10_project[0][0]   
__________________________________________________________________________________________________
expanded_conv_11_expand (Conv2D (None, 64, 64, 576)  55296       expanded_conv_10_project_BN[0][0]
__________________________________________________________________________________________________
expanded_conv_11_expand_BN (Bat (None, 64, 64, 576)  2304        expanded_conv_11_expand[0][0]    
__________________________________________________________________________________________________
expanded_conv_11_expand_relu (A (None, 64, 64, 576)  0           expanded_conv_11_expand_BN[0][0] 
__________________________________________________________________________________________________
expanded_conv_11_depthwise (Dep (None, 64, 64, 576)  5184        expanded_conv_11_expand_relu[0][0
__________________________________________________________________________________________________
expanded_conv_11_depthwise_BN ( (None, 64, 64, 576)  2304        expanded_conv_11_depthwise[0][0] 
__________________________________________________________________________________________________
expanded_conv_11_depthwise_relu (None, 64, 64, 576)  0           expanded_conv_11_depthwise_BN[0][
__________________________________________________________________________________________________
expanded_conv_11_project (Conv2 (None, 64, 64, 96)   55296       expanded_conv_11_depthwise_relu[0
__________________________________________________________________________________________________
expanded_conv_11_project_BN (Ba (None, 64, 64, 96)   384         expanded_conv_11_project[0][0]   
__________________________________________________________________________________________________
expanded_conv_11_add (Add)      (None, 64, 64, 96)   0           expanded_conv_10_project_BN[0][0]
                                                                 expanded_conv_11_project_BN[0][0]
__________________________________________________________________________________________________
expanded_conv_12_expand (Conv2D (None, 64, 64, 576)  55296       expanded_conv_11_add[0][0]       
__________________________________________________________________________________________________
expanded_conv_12_expand_BN (Bat (None, 64, 64, 576)  2304        expanded_conv_12_expand[0][0]    
__________________________________________________________________________________________________
expanded_conv_12_expand_relu (A (None, 64, 64, 576)  0           expanded_conv_12_expand_BN[0][0] 
__________________________________________________________________________________________________
expanded_conv_12_depthwise (Dep (None, 64, 64, 576)  5184        expanded_conv_12_expand_relu[0][0
__________________________________________________________________________________________________
expanded_conv_12_depthwise_BN ( (None, 64, 64, 576)  2304        expanded_conv_12_depthwise[0][0] 
__________________________________________________________________________________________________
expanded_conv_12_depthwise_relu (None, 64, 64, 576)  0           expanded_conv_12_depthwise_BN[0][
__________________________________________________________________________________________________
expanded_conv_12_project (Conv2 (None, 64, 64, 96)   55296       expanded_conv_12_depthwise_relu[0
__________________________________________________________________________________________________
expanded_conv_12_project_BN (Ba (None, 64, 64, 96)   384         expanded_conv_12_project[0][0]   
__________________________________________________________________________________________________
expanded_conv_12_add (Add)      (None, 64, 64, 96)   0           expanded_conv_11_add[0][0]       
                                                                 expanded_conv_12_project_BN[0][0]
__________________________________________________________________________________________________
expanded_conv_13_expand (Conv2D (None, 64, 64, 576)  55296       expanded_conv_12_add[0][0]       
__________________________________________________________________________________________________
expanded_conv_13_expand_BN (Bat (None, 64, 64, 576)  2304        expanded_conv_13_expand[0][0]    
__________________________________________________________________________________________________
expanded_conv_13_expand_relu (A (None, 64, 64, 576)  0           expanded_conv_13_expand_BN[0][0] 
__________________________________________________________________________________________________
expanded_conv_13_depthwise (Dep (None, 64, 64, 576)  5184        expanded_conv_13_expand_relu[0][0
__________________________________________________________________________________________________
expanded_conv_13_depthwise_BN ( (None, 64, 64, 576)  2304        expanded_conv_13_depthwise[0][0] 
__________________________________________________________________________________________________
expanded_conv_13_depthwise_relu (None, 64, 64, 576)  0           expanded_conv_13_depthwise_BN[0][
__________________________________________________________________________________________________
expanded_conv_13_project (Conv2 (None, 64, 64, 160)  92160       expanded_conv_13_depthwise_relu[0
__________________________________________________________________________________________________
expanded_conv_13_project_BN (Ba (None, 64, 64, 160)  640         expanded_conv_13_project[0][0]   
__________________________________________________________________________________________________
expanded_conv_14_expand (Conv2D (None, 64, 64, 960)  153600      expanded_conv_13_project_BN[0][0]
__________________________________________________________________________________________________
expanded_conv_14_expand_BN (Bat (None, 64, 64, 960)  3840        expanded_conv_14_expand[0][0]    
__________________________________________________________________________________________________
expanded_conv_14_expand_relu (A (None, 64, 64, 960)  0           expanded_conv_14_expand_BN[0][0] 
__________________________________________________________________________________________________
expanded_conv_14_depthwise (Dep (None, 64, 64, 960)  8640        expanded_conv_14_expand_relu[0][0
__________________________________________________________________________________________________
expanded_conv_14_depthwise_BN ( (None, 64, 64, 960)  3840        expanded_conv_14_depthwise[0][0] 
__________________________________________________________________________________________________
expanded_conv_14_depthwise_relu (None, 64, 64, 960)  0           expanded_conv_14_depthwise_BN[0][
__________________________________________________________________________________________________
expanded_conv_14_project (Conv2 (None, 64, 64, 160)  153600      expanded_conv_14_depthwise_relu[0
__________________________________________________________________________________________________
expanded_conv_14_project_BN (Ba (None, 64, 64, 160)  640         expanded_conv_14_project[0][0]   
__________________________________________________________________________________________________
expanded_conv_14_add (Add)      (None, 64, 64, 160)  0           expanded_conv_13_project_BN[0][0]
                                                                 expanded_conv_14_project_BN[0][0]
__________________________________________________________________________________________________
expanded_conv_15_expand (Conv2D (None, 64, 64, 960)  153600      expanded_conv_14_add[0][0]       
__________________________________________________________________________________________________
expanded_conv_15_expand_BN (Bat (None, 64, 64, 960)  3840        expanded_conv_15_expand[0][0]    
__________________________________________________________________________________________________
expanded_conv_15_expand_relu (A (None, 64, 64, 960)  0           expanded_conv_15_expand_BN[0][0] 
__________________________________________________________________________________________________
expanded_conv_15_depthwise (Dep (None, 64, 64, 960)  8640        expanded_conv_15_expand_relu[0][0
__________________________________________________________________________________________________
expanded_conv_15_depthwise_BN ( (None, 64, 64, 960)  3840        expanded_conv_15_depthwise[0][0] 
__________________________________________________________________________________________________
expanded_conv_15_depthwise_relu (None, 64, 64, 960)  0           expanded_conv_15_depthwise_BN[0][
__________________________________________________________________________________________________
expanded_conv_15_project (Conv2 (None, 64, 64, 160)  153600      expanded_conv_15_depthwise_relu[0
__________________________________________________________________________________________________
expanded_conv_15_project_BN (Ba (None, 64, 64, 160)  640         expanded_conv_15_project[0][0]   
__________________________________________________________________________________________________
expanded_conv_15_add (Add)      (None, 64, 64, 160)  0           expanded_conv_14_add[0][0]       
                                                                 expanded_conv_15_project_BN[0][0]
__________________________________________________________________________________________________
expanded_conv_16_expand (Conv2D (None, 64, 64, 960)  153600      expanded_conv_15_add[0][0]       
__________________________________________________________________________________________________
expanded_conv_16_expand_BN (Bat (None, 64, 64, 960)  3840        expanded_conv_16_expand[0][0]    
__________________________________________________________________________________________________
expanded_conv_16_expand_relu (A (None, 64, 64, 960)  0           expanded_conv_16_expand_BN[0][0] 
__________________________________________________________________________________________________
expanded_conv_16_depthwise (Dep (None, 64, 64, 960)  8640        expanded_conv_16_expand_relu[0][0
__________________________________________________________________________________________________
expanded_conv_16_depthwise_BN ( (None, 64, 64, 960)  3840        expanded_conv_16_depthwise[0][0] 
__________________________________________________________________________________________________
expanded_conv_16_depthwise_relu (None, 64, 64, 960)  0           expanded_conv_16_depthwise_BN[0][
__________________________________________________________________________________________________
expanded_conv_16_project (Conv2 (None, 64, 64, 320)  307200      expanded_conv_16_depthwise_relu[0
__________________________________________________________________________________________________
expanded_conv_16_project_BN (Ba (None, 64, 64, 320)  1280        expanded_conv_16_project[0][0]   
__________________________________________________________________________________________________
average_pooling2d_1 (AveragePoo (None, 1, 1, 320)    0           expanded_conv_16_project_BN[0][0]
__________________________________________________________________________________________________
image_pooling (Conv2D)          (None, 1, 1, 256)    81920       average_pooling2d_1[0][0]        
__________________________________________________________________________________________________
image_pooling_BN (BatchNormaliz (None, 1, 1, 256)    1024        image_pooling[0][0]              
__________________________________________________________________________________________________
aspp0 (Conv2D)                  (None, 64, 64, 256)  81920       expanded_conv_16_project_BN[0][0]
__________________________________________________________________________________________________
activation_1 (Activation)       (None, 1, 1, 256)    0           image_pooling_BN[0][0]           
__________________________________________________________________________________________________
aspp0_BN (BatchNormalization)   (None, 64, 64, 256)  1024        aspp0[0][0]                      
__________________________________________________________________________________________________
bilinear_upsampling_1 (Bilinear (None, 64, 64, 256)  0           activation_1[0][0]               
__________________________________________________________________________________________________
aspp0_activation (Activation)   (None, 64, 64, 256)  0           aspp0_BN[0][0]                   
__________________________________________________________________________________________________
concatenate_1 (Concatenate)     (None, 64, 64, 512)  0           bilinear_upsampling_1[0][0]      
                                                                 aspp0_activation[0][0]           
__________________________________________________________________________________________________
concat_projection (Conv2D)      (None, 64, 64, 256)  131072      concatenate_1[0][0]              
__________________________________________________________________________________________________
concat_projection_BN (BatchNorm (None, 64, 64, 256)  1024        concat_projection[0][0]          
__________________________________________________________________________________________________
activation_2 (Activation)       (None, 64, 64, 256)  0           concat_projection_BN[0][0]       
__________________________________________________________________________________________________
dropout_1 (Dropout)             (None, 64, 64, 256)  0           activation_2[0][0]               
__________________________________________________________________________________________________
logits_semantic (Conv2D)        (None, 64, 64, 21)   5397        dropout_1[0][0]                  
__________________________________________________________________________________________________
bilinear_upsampling_2 (Bilinear (None, 512, 512, 21) 0           logits_semantic[0][0]            
==================================================================================================
Total params: 2,146,645
Trainable params: 2,113,557
Non-trainable params: 33,088
__________________________________________________________________________________________________
10582
10582 10582
1449
(720, 512, 512, 3) (720, 512, 512, 21)
Epoch 1/100
 - 2166s - loss: 1.7224 - acc: 0.8736 - val_loss: 1.3923 - val_acc: 0.9159
…
  [1. 0. 0. ... 0. 0. 0.]
  ...
  [1. 0. 0. ... 0. 0. 0.]
  [1. 0. 0. ... 0. 0. 0.]
  [1. 0. 0. ... 0. 0. 0.]]

 [[1. 0. 0. ... 0. 0. 0.]
  [1. 0. 0. ... 0. 0. 0.]
  [1. 0. 0. ... 0. 0. 0.]
  ...
  [1. 0. 0. ... 0. 0. 0.]
  [1. 0. 0. ... 0. 0. 0.]
  [1. 0. 0. ... 0. 0. 0.]]]
Epoch 1/100
__________________________________________________________________________________________________
Layer (type)                    Output Shape         Param #     Connected to                     
==================================================================================================
input_1 (InputLayer)            (None, 224, 224, 3)  0                                            
__________________________________________________________________________________________________
Conv (Conv2D)                   (None, 112, 112, 32) 864         input_1[0][0]                    
__________________________________________________________________________________________________
Conv_BN (BatchNormalization)    (None, 112, 112, 32) 128         Conv[0][0]                       
__________________________________________________________________________________________________
Conv_Relu6 (Activation)         (None, 112, 112, 32) 0           Conv_BN[0][0]                    
__________________________________________________________________________________________________
expanded_conv_depthwise (Depthw (None, 112, 112, 32) 288         Conv_Relu6[0][0]                 
__________________________________________________________________________________________________
expanded_conv_depthwise_BN (Bat (None, 112, 112, 32) 128         expanded_conv_depthwise[0][0]    
__________________________________________________________________________________________________
expanded_conv_depthwise_relu (A (None, 112, 112, 32) 0           expanded_conv_depthwise_BN[0][0] 
__________________________________________________________________________________________________
expanded_conv_project (Conv2D)  (None, 112, 112, 16) 512         expanded_conv_depthwise_relu[0][0
__________________________________________________________________________________________________
expanded_conv_project_BN (Batch (None, 112, 112, 16) 64          expanded_conv_project[0][0]      
__________________________________________________________________________________________________
expanded_conv_1_expand (Conv2D) (None, 112, 112, 96) 1536        expanded_conv_project_BN[0][0]   
__________________________________________________________________________________________________
expanded_conv_1_expand_BN (Batc (None, 112, 112, 96) 384         expanded_conv_1_expand[0][0]     
__________________________________________________________________________________________________
expanded_conv_1_expand_relu (Ac (None, 112, 112, 96) 0           expanded_conv_1_expand_BN[0][0]  
__________________________________________________________________________________________________
expanded_conv_1_depthwise (Dept (None, 56, 56, 96)   864         expanded_conv_1_expand_relu[0][0]
__________________________________________________________________________________________________
expanded_conv_1_depthwise_BN (B (None, 56, 56, 96)   384         expanded_conv_1_depthwise[0][0]  
__________________________________________________________________________________________________
expanded_conv_1_depthwise_relu  (None, 56, 56, 96)   0           expanded_conv_1_depthwise_BN[0][0
__________________________________________________________________________________________________
expanded_conv_1_project (Conv2D (None, 56, 56, 24)   2304        expanded_conv_1_depthwise_relu[0]
__________________________________________________________________________________________________
expanded_conv_1_project_BN (Bat (None, 56, 56, 24)   96          expanded_conv_1_project[0][0]    
__________________________________________________________________________________________________
expanded_conv_2_expand (Conv2D) (None, 56, 56, 144)  3456        expanded_conv_1_project_BN[0][0] 
__________________________________________________________________________________________________
expanded_conv_2_expand_BN (Batc (None, 56, 56, 144)  576         expanded_conv_2_expand[0][0]     
__________________________________________________________________________________________________
expanded_conv_2_expand_relu (Ac (None, 56, 56, 144)  0           expanded_conv_2_expand_BN[0][0]  
__________________________________________________________________________________________________
expanded_conv_2_depthwise (Dept (None, 56, 56, 144)  1296        expanded_conv_2_expand_relu[0][0]
__________________________________________________________________________________________________
expanded_conv_2_depthwise_BN (B (None, 56, 56, 144)  576         expanded_conv_2_depthwise[0][0]  
__________________________________________________________________________________________________
expanded_conv_2_depthwise_relu  (None, 56, 56, 144)  0           expanded_conv_2_depthwise_BN[0][0
__________________________________________________________________________________________________
expanded_conv_2_project (Conv2D (None, 56, 56, 24)   3456        expanded_conv_2_depthwise_relu[0]
__________________________________________________________________________________________________
expanded_conv_2_project_BN (Bat (None, 56, 56, 24)   96          expanded_conv_2_project[0][0]    
__________________________________________________________________________________________________
expanded_conv_2_add (Add)       (None, 56, 56, 24)   0           expanded_conv_1_project_BN[0][0] 
                                                                 expanded_conv_2_project_BN[0][0] 
__________________________________________________________________________________________________
expanded_conv_3_expand (Conv2D) (None, 56, 56, 144)  3456        expanded_conv_2_add[0][0]        
__________________________________________________________________________________________________
expanded_conv_3_expand_BN (Batc (None, 56, 56, 144)  576         expanded_conv_3_expand[0][0]     
__________________________________________________________________________________________________
expanded_conv_3_expand_relu (Ac (None, 56, 56, 144)  0           expanded_conv_3_expand_BN[0][0]  
__________________________________________________________________________________________________
expanded_conv_3_depthwise (Dept (None, 28, 28, 144)  1296        expanded_conv_3_expand_relu[0][0]
__________________________________________________________________________________________________
expanded_conv_3_depthwise_BN (B (None, 28, 28, 144)  576         expanded_conv_3_depthwise[0][0]  
__________________________________________________________________________________________________
expanded_conv_3_depthwise_relu  (None, 28, 28, 144)  0           expanded_conv_3_depthwise_BN[0][0
__________________________________________________________________________________________________
expanded_conv_3_project (Conv2D (None, 28, 28, 32)   4608        expanded_conv_3_depthwise_relu[0]
__________________________________________________________________________________________________
expanded_conv_3_project_BN (Bat (None, 28, 28, 32)   128         expanded_conv_3_project[0][0]    
__________________________________________________________________________________________________
expanded_conv_4_expand (Conv2D) (None, 28, 28, 192)  6144        expanded_conv_3_project_BN[0][0] 
__________________________________________________________________________________________________
expanded_conv_4_expand_BN (Batc (None, 28, 28, 192)  768         expanded_conv_4_expand[0][0]     
__________________________________________________________________________________________________
expanded_conv_4_expand_relu (Ac (None, 28, 28, 192)  0           expanded_conv_4_expand_BN[0][0]  
__________________________________________________________________________________________________
expanded_conv_4_depthwise (Dept (None, 28, 28, 192)  1728        expanded_conv_4_expand_relu[0][0]
__________________________________________________________________________________________________
expanded_conv_4_depthwise_BN (B (None, 28, 28, 192)  768         expanded_conv_4_depthwise[0][0]  
__________________________________________________________________________________________________
expanded_conv_4_depthwise_relu  (None, 28, 28, 192)  0           expanded_conv_4_depthwise_BN[0][0
__________________________________________________________________________________________________
expanded_conv_4_project (Conv2D (None, 28, 28, 32)   6144        expanded_conv_4_depthwise_relu[0]
__________________________________________________________________________________________________
expanded_conv_4_project_BN (Bat (None, 28, 28, 32)   128         expanded_conv_4_project[0][0]    
__________________________________________________________________________________________________
expanded_conv_4_add (Add)       (None, 28, 28, 32)   0           expanded_conv_3_project_BN[0][0] 
                                                                 expanded_conv_4_project_BN[0][0] 
__________________________________________________________________________________________________
expanded_conv_5_expand (Conv2D) (None, 28, 28, 192)  6144        expanded_conv_4_add[0][0]        
__________________________________________________________________________________________________
expanded_conv_5_expand_BN (Batc (None, 28, 28, 192)  768         expanded_conv_5_expand[0][0]     
__________________________________________________________________________________________________
expanded_conv_5_expand_relu (Ac (None, 28, 28, 192)  0           expanded_conv_5_expand_BN[0][0]  
__________________________________________________________________________________________________
expanded_conv_5_depthwise (Dept (None, 28, 28, 192)  1728        expanded_conv_5_expand_relu[0][0]
__________________________________________________________________________________________________
expanded_conv_5_depthwise_BN (B (None, 28, 28, 192)  768         expanded_conv_5_depthwise[0][0]  
__________________________________________________________________________________________________
expanded_conv_5_depthwise_relu  (None, 28, 28, 192)  0           expanded_conv_5_depthwise_BN[0][0
__________________________________________________________________________________________________
expanded_conv_5_project (Conv2D (None, 28, 28, 32)   6144        expanded_conv_5_depthwise_relu[0]
__________________________________________________________________________________________________
expanded_conv_5_project_BN (Bat (None, 28, 28, 32)   128         expanded_conv_5_project[0][0]    
__________________________________________________________________________________________________
expanded_conv_5_add (Add)       (None, 28, 28, 32)   0           expanded_conv_4_add[0][0]        
                                                                 expanded_conv_5_project_BN[0][0] 
__________________________________________________________________________________________________
expanded_conv_6_expand (Conv2D) (None, 28, 28, 192)  6144        expanded_conv_5_add[0][0]        
__________________________________________________________________________________________________
expanded_conv_6_expand_BN (Batc (None, 28, 28, 192)  768         expanded_conv_6_expand[0][0]     
__________________________________________________________________________________________________
expanded_conv_6_expand_relu (Ac (None, 28, 28, 192)  0           expanded_conv_6_expand_BN[0][0]  
__________________________________________________________________________________________________
expanded_conv_6_depthwise (Dept (None, 28, 28, 192)  1728        expanded_conv_6_expand_relu[0][0]
__________________________________________________________________________________________________
expanded_conv_6_depthwise_BN (B (None, 28, 28, 192)  768         expanded_conv_6_depthwise[0][0]  
__________________________________________________________________________________________________
expanded_conv_6_depthwise_relu  (None, 28, 28, 192)  0           expanded_conv_6_depthwise_BN[0][0
__________________________________________________________________________________________________
expanded_conv_6_project (Conv2D (None, 28, 28, 64)   12288       expanded_conv_6_depthwise_relu[0]
__________________________________________________________________________________________________
expanded_conv_6_project_BN (Bat (None, 28, 28, 64)   256         expanded_conv_6_project[0][0]    
__________________________________________________________________________________________________
expanded_conv_7_expand (Conv2D) (None, 28, 28, 384)  24576       expanded_conv_6_project_BN[0][0] 
__________________________________________________________________________________________________
expanded_conv_7_expand_BN (Batc (None, 28, 28, 384)  1536        expanded_conv_7_expand[0][0]     
__________________________________________________________________________________________________
expanded_conv_7_expand_relu (Ac (None, 28, 28, 384)  0           expanded_conv_7_expand_BN[0][0]  
__________________________________________________________________________________________________
expanded_conv_7_depthwise (Dept (None, 28, 28, 384)  3456        expanded_conv_7_expand_relu[0][0]
__________________________________________________________________________________________________
expanded_conv_7_depthwise_BN (B (None, 28, 28, 384)  1536        expanded_conv_7_depthwise[0][0]  
__________________________________________________________________________________________________
expanded_conv_7_depthwise_relu  (None, 28, 28, 384)  0           expanded_conv_7_depthwise_BN[0][0
__________________________________________________________________________________________________
expanded_conv_7_project (Conv2D (None, 28, 28, 64)   24576       expanded_conv_7_depthwise_relu[0]
__________________________________________________________________________________________________
expanded_conv_7_project_BN (Bat (None, 28, 28, 64)   256         expanded_conv_7_project[0][0]    
__________________________________________________________________________________________________
expanded_conv_7_add (Add)       (None, 28, 28, 64)   0           expanded_conv_6_project_BN[0][0] 
                                                                 expanded_conv_7_project_BN[0][0] 
__________________________________________________________________________________________________
expanded_conv_8_expand (Conv2D) (None, 28, 28, 384)  24576       expanded_conv_7_add[0][0]        
__________________________________________________________________________________________________
expanded_conv_8_expand_BN (Batc (None, 28, 28, 384)  1536        expanded_conv_8_expand[0][0]     
__________________________________________________________________________________________________
expanded_conv_8_expand_relu (Ac (None, 28, 28, 384)  0           expanded_conv_8_expand_BN[0][0]  
__________________________________________________________________________________________________
expanded_conv_8_depthwise (Dept (None, 28, 28, 384)  3456        expanded_conv_8_expand_relu[0][0]
__________________________________________________________________________________________________
expanded_conv_8_depthwise_BN (B (None, 28, 28, 384)  1536        expanded_conv_8_depthwise[0][0]  
__________________________________________________________________________________________________
expanded_conv_8_depthwise_relu  (None, 28, 28, 384)  0           expanded_conv_8_depthwise_BN[0][0
__________________________________________________________________________________________________
expanded_conv_8_project (Conv2D (None, 28, 28, 64)   24576       expanded_conv_8_depthwise_relu[0]
__________________________________________________________________________________________________
expanded_conv_8_project_BN (Bat (None, 28, 28, 64)   256         expanded_conv_8_project[0][0]    
__________________________________________________________________________________________________
expanded_conv_8_add (Add)       (None, 28, 28, 64)   0           expanded_conv_7_add[0][0]        
                                                                 expanded_conv_8_project_BN[0][0] 
__________________________________________________________________________________________________
expanded_conv_9_expand (Conv2D) (None, 28, 28, 384)  24576       expanded_conv_8_add[0][0]        
__________________________________________________________________________________________________
expanded_conv_9_expand_BN (Batc (None, 28, 28, 384)  1536        expanded_conv_9_expand[0][0]     
__________________________________________________________________________________________________
expanded_conv_9_expand_relu (Ac (None, 28, 28, 384)  0           expanded_conv_9_expand_BN[0][0]  
__________________________________________________________________________________________________
expanded_conv_9_depthwise (Dept (None, 28, 28, 384)  3456        expanded_conv_9_expand_relu[0][0]
__________________________________________________________________________________________________
expanded_conv_9_depthwise_BN (B (None, 28, 28, 384)  1536        expanded_conv_9_depthwise[0][0]  
__________________________________________________________________________________________________
expanded_conv_9_depthwise_relu  (None, 28, 28, 384)  0           expanded_conv_9_depthwise_BN[0][0
__________________________________________________________________________________________________
expanded_conv_9_project (Conv2D (None, 28, 28, 64)   24576       expanded_conv_9_depthwise_relu[0]
__________________________________________________________________________________________________
expanded_conv_9_project_BN (Bat (None, 28, 28, 64)   256         expanded_conv_9_project[0][0]    
__________________________________________________________________________________________________
expanded_conv_9_add (Add)       (None, 28, 28, 64)   0           expanded_conv_8_add[0][0]        
                                                                 expanded_conv_9_project_BN[0][0] 
__________________________________________________________________________________________________
expanded_conv_10_expand (Conv2D (None, 28, 28, 384)  24576       expanded_conv_9_add[0][0]        
__________________________________________________________________________________________________
expanded_conv_10_expand_BN (Bat (None, 28, 28, 384)  1536        expanded_conv_10_expand[0][0]    
__________________________________________________________________________________________________
expanded_conv_10_expand_relu (A (None, 28, 28, 384)  0           expanded_conv_10_expand_BN[0][0] 
__________________________________________________________________________________________________
expanded_conv_10_depthwise (Dep (None, 28, 28, 384)  3456        expanded_conv_10_expand_relu[0][0
__________________________________________________________________________________________________
expanded_conv_10_depthwise_BN ( (None, 28, 28, 384)  1536        expanded_conv_10_depthwise[0][0] 
__________________________________________________________________________________________________
expanded_conv_10_depthwise_relu (None, 28, 28, 384)  0           expanded_conv_10_depthwise_BN[0][
__________________________________________________________________________________________________
expanded_conv_10_project (Conv2 (None, 28, 28, 96)   36864       expanded_conv_10_depthwise_relu[0
__________________________________________________________________________________________________
expanded_conv_10_project_BN (Ba (None, 28, 28, 96)   384         expanded_conv_10_project[0][0]   
__________________________________________________________________________________________________
expanded_conv_11_expand (Conv2D (None, 28, 28, 576)  55296       expanded_conv_10_project_BN[0][0]
__________________________________________________________________________________________________
expanded_conv_11_expand_BN (Bat (None, 28, 28, 576)  2304        expanded_conv_11_expand[0][0]    
__________________________________________________________________________________________________
expanded_conv_11_expand_relu (A (None, 28, 28, 576)  0           expanded_conv_11_expand_BN[0][0] 
__________________________________________________________________________________________________
expanded_conv_11_depthwise (Dep (None, 28, 28, 576)  5184        expanded_conv_11_expand_relu[0][0
__________________________________________________________________________________________________
expanded_conv_11_depthwise_BN ( (None, 28, 28, 576)  2304        expanded_conv_11_depthwise[0][0] 
__________________________________________________________________________________________________
expanded_conv_11_depthwise_relu (None, 28, 28, 576)  0           expanded_conv_11_depthwise_BN[0][
__________________________________________________________________________________________________
expanded_conv_11_project (Conv2 (None, 28, 28, 96)   55296       expanded_conv_11_depthwise_relu[0
__________________________________________________________________________________________________
expanded_conv_11_project_BN (Ba (None, 28, 28, 96)   384         expanded_conv_11_project[0][0]   
__________________________________________________________________________________________________
expanded_conv_11_add (Add)      (None, 28, 28, 96)   0           expanded_conv_10_project_BN[0][0]
                                                                 expanded_conv_11_project_BN[0][0]
__________________________________________________________________________________________________
expanded_conv_12_expand (Conv2D (None, 28, 28, 576)  55296       expanded_conv_11_add[0][0]       
__________________________________________________________________________________________________
expanded_conv_12_expand_BN (Bat (None, 28, 28, 576)  2304        expanded_conv_12_expand[0][0]    
__________________________________________________________________________________________________
expanded_conv_12_expand_relu (A (None, 28, 28, 576)  0           expanded_conv_12_expand_BN[0][0] 
__________________________________________________________________________________________________
expanded_conv_12_depthwise (Dep (None, 28, 28, 576)  5184        expanded_conv_12_expand_relu[0][0
__________________________________________________________________________________________________
expanded_conv_12_depthwise_BN ( (None, 28, 28, 576)  2304        expanded_conv_12_depthwise[0][0] 
__________________________________________________________________________________________________
expanded_conv_12_depthwise_relu (None, 28, 28, 576)  0           expanded_conv_12_depthwise_BN[0][
__________________________________________________________________________________________________
expanded_conv_12_project (Conv2 (None, 28, 28, 96)   55296       expanded_conv_12_depthwise_relu[0
__________________________________________________________________________________________________
expanded_conv_12_project_BN (Ba (None, 28, 28, 96)   384         expanded_conv_12_project[0][0]   
__________________________________________________________________________________________________
expanded_conv_12_add (Add)      (None, 28, 28, 96)   0           expanded_conv_11_add[0][0]       
                                                                 expanded_conv_12_project_BN[0][0]
__________________________________________________________________________________________________
expanded_conv_13_expand (Conv2D (None, 28, 28, 576)  55296       expanded_conv_12_add[0][0]       
__________________________________________________________________________________________________
expanded_conv_13_expand_BN (Bat (None, 28, 28, 576)  2304        expanded_conv_13_expand[0][0]    
__________________________________________________________________________________________________
expanded_conv_13_expand_relu (A (None, 28, 28, 576)  0           expanded_conv_13_expand_BN[0][0] 
__________________________________________________________________________________________________
expanded_conv_13_depthwise (Dep (None, 28, 28, 576)  5184        expanded_conv_13_expand_relu[0][0
__________________________________________________________________________________________________
expanded_conv_13_depthwise_BN ( (None, 28, 28, 576)  2304        expanded_conv_13_depthwise[0][0] 
__________________________________________________________________________________________________
expanded_conv_13_depthwise_relu (None, 28, 28, 576)  0           expanded_conv_13_depthwise_BN[0][
__________________________________________________________________________________________________
expanded_conv_13_project (Conv2 (None, 28, 28, 160)  92160       expanded_conv_13_depthwise_relu[0
__________________________________________________________________________________________________
expanded_conv_13_project_BN (Ba (None, 28, 28, 160)  640         expanded_conv_13_project[0][0]   
__________________________________________________________________________________________________
expanded_conv_14_expand (Conv2D (None, 28, 28, 960)  153600      expanded_conv_13_project_BN[0][0]
__________________________________________________________________________________________________
expanded_conv_14_expand_BN (Bat (None, 28, 28, 960)  3840        expanded_conv_14_expand[0][0]    
__________________________________________________________________________________________________
expanded_conv_14_expand_relu (A (None, 28, 28, 960)  0           expanded_conv_14_expand_BN[0][0] 
__________________________________________________________________________________________________
expanded_conv_14_depthwise (Dep (None, 28, 28, 960)  8640        expanded_conv_14_expand_relu[0][0
__________________________________________________________________________________________________
expanded_conv_14_depthwise_BN ( (None, 28, 28, 960)  3840        expanded_conv_14_depthwise[0][0] 
__________________________________________________________________________________________________
expanded_conv_14_depthwise_relu (None, 28, 28, 960)  0           expanded_conv_14_depthwise_BN[0][
__________________________________________________________________________________________________
expanded_conv_14_project (Conv2 (None, 28, 28, 160)  153600      expanded_conv_14_depthwise_relu[0
__________________________________________________________________________________________________
expanded_conv_14_project_BN (Ba (None, 28, 28, 160)  640         expanded_conv_14_project[0][0]   
__________________________________________________________________________________________________
expanded_conv_14_add (Add)      (None, 28, 28, 160)  0           expanded_conv_13_project_BN[0][0]
                                                                 expanded_conv_14_project_BN[0][0]
__________________________________________________________________________________________________
expanded_conv_15_expand (Conv2D (None, 28, 28, 960)  153600      expanded_conv_14_add[0][0]       
__________________________________________________________________________________________________
expanded_conv_15_expand_BN (Bat (None, 28, 28, 960)  3840        expanded_conv_15_expand[0][0]    
__________________________________________________________________________________________________
expanded_conv_15_expand_relu (A (None, 28, 28, 960)  0           expanded_conv_15_expand_BN[0][0] 
__________________________________________________________________________________________________
expanded_conv_15_depthwise (Dep (None, 28, 28, 960)  8640        expanded_conv_15_expand_relu[0][0
__________________________________________________________________________________________________
expanded_conv_15_depthwise_BN ( (None, 28, 28, 960)  3840        expanded_conv_15_depthwise[0][0] 
__________________________________________________________________________________________________
expanded_conv_15_depthwise_relu (None, 28, 28, 960)  0           expanded_conv_15_depthwise_BN[0][
__________________________________________________________________________________________________
expanded_conv_15_project (Conv2 (None, 28, 28, 160)  153600      expanded_conv_15_depthwise_relu[0
__________________________________________________________________________________________________
expanded_conv_15_project_BN (Ba (None, 28, 28, 160)  640         expanded_conv_15_project[0][0]   
__________________________________________________________________________________________________
expanded_conv_15_add (Add)      (None, 28, 28, 160)  0           expanded_conv_14_add[0][0]       
                                                                 expanded_conv_15_project_BN[0][0]
__________________________________________________________________________________________________
expanded_conv_16_expand (Conv2D (None, 28, 28, 960)  153600      expanded_conv_15_add[0][0]       
__________________________________________________________________________________________________
expanded_conv_16_expand_BN (Bat (None, 28, 28, 960)  3840        expanded_conv_16_expand[0][0]    
__________________________________________________________________________________________________
expanded_conv_16_expand_relu (A (None, 28, 28, 960)  0           expanded_conv_16_expand_BN[0][0] 
__________________________________________________________________________________________________
expanded_conv_16_depthwise (Dep (None, 28, 28, 960)  8640        expanded_conv_16_expand_relu[0][0
__________________________________________________________________________________________________
expanded_conv_16_depthwise_BN ( (None, 28, 28, 960)  3840        expanded_conv_16_depthwise[0][0] 
__________________________________________________________________________________________________
expanded_conv_16_depthwise_relu (None, 28, 28, 960)  0           expanded_conv_16_depthwise_BN[0][
__________________________________________________________________________________________________
expanded_conv_16_project (Conv2 (None, 28, 28, 320)  307200      expanded_conv_16_depthwise_relu[0
__________________________________________________________________________________________________
expanded_conv_16_project_BN (Ba (None, 28, 28, 320)  1280        expanded_conv_16_project[0][0]   
__________________________________________________________________________________________________
global_average_pooling2d_1 (Glo (None, 320)          0           expanded_conv_16_project_BN[0][0]
__________________________________________________________________________________________________
lambda_1 (Lambda)               (None, 1, 320)       0           global_average_pooling2d_1[0][0] 
__________________________________________________________________________________________________
lambda_2 (Lambda)               (None, 1, 1, 320)    0           lambda_1[0][0]                   
__________________________________________________________________________________________________
image_pooling (Conv2D)          (None, 1, 1, 256)    81920       lambda_2[0][0]                   
__________________________________________________________________________________________________
image_pooling_BN (BatchNormaliz (None, 1, 1, 256)    1024        image_pooling[0][0]              
__________________________________________________________________________________________________
aspp0 (Conv2D)                  (None, 28, 28, 256)  81920       expanded_conv_16_project_BN[0][0]
__________________________________________________________________________________________________
activation_1 (Activation)       (None, 1, 1, 256)    0           image_pooling_BN[0][0]           
__________________________________________________________________________________________________
aspp0_BN (BatchNormalization)   (None, 28, 28, 256)  1024        aspp0[0][0]                      
__________________________________________________________________________________________________
lambda_3 (Lambda)               (None, 28, 28, 256)  0           activation_1[0][0]               
__________________________________________________________________________________________________
aspp0_activation (Activation)   (None, 28, 28, 256)  0           aspp0_BN[0][0]                   
__________________________________________________________________________________________________
concatenate_1 (Concatenate)     (None, 28, 28, 512)  0           lambda_3[0][0]                   
                                                                 aspp0_activation[0][0]           
__________________________________________________________________________________________________
concat_projection (Conv2D)      (None, 28, 28, 256)  131072      concatenate_1[0][0]              
__________________________________________________________________________________________________
concat_projection_BN (BatchNorm (None, 28, 28, 256)  1024        concat_projection[0][0]          
__________________________________________________________________________________________________
activation_2 (Activation)       (None, 28, 28, 256)  0           concat_projection_BN[0][0]       
__________________________________________________________________________________________________
dropout_1 (Dropout)             (None, 28, 28, 256)  0           activation_2[0][0]               
__________________________________________________________________________________________________
logits_semantic (Conv2D)        (None, 28, 28, 21)   5397        dropout_1[0][0]                  
__________________________________________________________________________________________________
lambda_4 (Lambda)               (None, 224, 224, 21) 0           logits_semantic[0][0]            
__________________________________________________________________________________________________
activation_3 (Activation)       (None, 224, 224, 21) 0           lambda_4[0][0]                   
==================================================================================================
Total params: 2,146,645
Trainable params: 2,113,557
Non-trainable params: 33,088
__________________________________________________________________________________________________
10582
10582 10582
1449
(1449, 224, 224, 3) (1449, 224, 224, 21)
Epoch 1/100
 - 348s - loss: 0.6220 - acc: 0.8298 - val_loss: 0.4084 - val_acc: 0.8567
…
