_________________________________________________________________
Layer (type)                 Output Shape              Param #   
=================================================================
input_1 (InputLayer)         (None, 224, 224, 12)      0         
_________________________________________________________________
conv2d_1 (Conv2D)            (None, 222, 222, 64)      6976      
_________________________________________________________________
leaky_re_lu_1 (LeakyReLU)    (None, 222, 222, 64)      0         
_________________________________________________________________
conv2d_2 (Conv2D)            (None, 110, 110, 64)      36928     
_________________________________________________________________
leaky_re_lu_2 (LeakyReLU)    (None, 110, 110, 64)      0         
_________________________________________________________________
batch_normalization_1 (Batch (None, 110, 110, 64)      256       
_________________________________________________________________
conv2d_3 (Conv2D)            (None, 108, 108, 128)     73856     
_________________________________________________________________
leaky_re_lu_3 (LeakyReLU)    (None, 108, 108, 128)     0         
_________________________________________________________________
batch_normalization_2 (Batch (None, 108, 108, 128)     512       
_________________________________________________________________
conv2d_4 (Conv2D)            (None, 53, 53, 128)       147584    
_________________________________________________________________
leaky_re_lu_4 (LeakyReLU)    (None, 53, 53, 128)       0         
_________________________________________________________________
batch_normalization_3 (Batch (None, 53, 53, 128)       512       
_________________________________________________________________
conv2d_5 (Conv2D)            (None, 51, 51, 256)       295168    
_________________________________________________________________
leaky_re_lu_5 (LeakyReLU)    (None, 51, 51, 256)       0         
_________________________________________________________________
batch_normalization_4 (Batch (None, 51, 51, 256)       1024      
_________________________________________________________________
conv2d_6 (Conv2D)            (None, 25, 25, 256)       590080    
_________________________________________________________________
leaky_re_lu_6 (LeakyReLU)    (None, 25, 25, 256)       0         
_________________________________________________________________
batch_normalization_5 (Batch (None, 25, 25, 256)       1024      
_________________________________________________________________
conv2d_7 (Conv2D)            (None, 23, 23, 512)       1180160   
_________________________________________________________________
leaky_re_lu_7 (LeakyReLU)    (None, 23, 23, 512)       0         
_________________________________________________________________
batch_normalization_6 (Batch (None, 23, 23, 512)       2048      
_________________________________________________________________
conv2d_8 (Conv2D)            (None, 11, 11, 512)       2359808   
_________________________________________________________________
leaky_re_lu_8 (LeakyReLU)    (None, 11, 11, 512)       0         
_________________________________________________________________
batch_normalization_7 (Batch (None, 11, 11, 512)       2048      
_________________________________________________________________
dense_1 (Dense)              (None, 11, 11, 1024)      525312    
_________________________________________________________________
leaky_re_lu_9 (LeakyReLU)    (None, 11, 11, 1024)      0         
_________________________________________________________________
dense_4 (Dense)              (None, 11, 11, 1)         1025      
=================================================================
Total params: 5,224,321
Trainable params: 5,220,609
Non-trainable params: 3,712
_________________________________________________________________
0 [D loss: 2.235836, acc.: 19.94%] [G loss: 5.045913]
class 00: #TP=446613, #FP= 32215, #FN= 9360, IoU=0.915
class 01: #TP=1044444, #FP= 47766, #FN=259502, IoU=0.773
class 02: #TP=   186, #FP=  1892, #FN=36234, IoU=0.005
…
class 05: #TP=755270, #FP=103762, #FN=71275, IoU=0.812
class 06: #TP=  6006, #FP= 24139, #FN=47386, IoU=0.077
class 07: #TP=104387, #FP= 60181, #FN=52016, IoU=0.482
class 08: #TP= 76980, #FP= 80140, #FN=17080, IoU=0.442
class 09: #TP= 14242, #FP= 51130, #FN=22623, IoU=0.162
class 10: #TP= 41655, #FP= 21688, #FN=69317, IoU=0.314
class 11: #TP= 31701, #FP=124170, #FN=38047, IoU=0.163
_________________
Mean IoU: 0.465
_________________________________________________________________
Layer (type)                 Output Shape              Param #   
=================================================================
input_1 (InputLayer)         (None, 224, 224, 12)      0         
_________________________________________________________________
conv2d_1 (Conv2D)            (None, 222, 222, 64)      6976      
_________________________________________________________________
leaky_re_lu_1 (LeakyReLU)    (None, 222, 222, 64)      0         
_________________________________________________________________
conv2d_2 (Conv2D)            (None, 110, 110, 64)      36928     
_________________________________________________________________
leaky_re_lu_2 (LeakyReLU)    (None, 110, 110, 64)      0         
_________________________________________________________________
batch_normalization_1 (Batch (None, 110, 110, 64)      256       
_________________________________________________________________
conv2d_3 (Conv2D)            (None, 108, 108, 128)     73856     
_________________________________________________________________
leaky_re_lu_3 (LeakyReLU)    (None, 108, 108, 128)     0         
_________________________________________________________________
batch_normalization_2 (Batch (None, 108, 108, 128)     512       
_________________________________________________________________
conv2d_4 (Conv2D)            (None, 53, 53, 128)       147584    
_________________________________________________________________
leaky_re_lu_4 (LeakyReLU)    (None, 53, 53, 128)       0         
_________________________________________________________________
batch_normalization_3 (Batch (None, 53, 53, 128)       512       
_________________________________________________________________
conv2d_5 (Conv2D)            (None, 51, 51, 256)       295168    
_________________________________________________________________
leaky_re_lu_5 (LeakyReLU)    (None, 51, 51, 256)       0         
_________________________________________________________________
batch_normalization_4 (Batch (None, 51, 51, 256)       1024      
_________________________________________________________________
conv2d_6 (Conv2D)            (None, 25, 25, 256)       590080    
_________________________________________________________________
leaky_re_lu_6 (LeakyReLU)    (None, 25, 25, 256)       0         
_________________________________________________________________
batch_normalization_5 (Batch (None, 25, 25, 256)       1024      
_________________________________________________________________
conv2d_7 (Conv2D)            (None, 23, 23, 512)       1180160   
_________________________________________________________________
leaky_re_lu_7 (LeakyReLU)    (None, 23, 23, 512)       0         
_________________________________________________________________
batch_normalization_6 (Batch (None, 23, 23, 512)       2048      
_________________________________________________________________
conv2d_8 (Conv2D)            (None, 11, 11, 512)       2359808   
_________________________________________________________________
leaky_re_lu_8 (LeakyReLU)    (None, 11, 11, 512)       0         
_________________________________________________________________
batch_normalization_7 (Batch (None, 11, 11, 512)       2048      
_________________________________________________________________
dense_1 (Dense)              (None, 11, 11, 1024)      525312    
_________________________________________________________________
leaky_re_lu_9 (LeakyReLU)    (None, 11, 11, 1024)      0         
_________________________________________________________________
dense_4 (Dense)              (None, 11, 11, 1)         1025      
=================================================================
Total params: 5,224,321
Trainable params: 5,220,609
Non-trainable params: 3,712
_________________________________________________________________
_________________________________________________________________
Layer (type)                 Output Shape              Param #   
=================================================================
input_1 (InputLayer)         (None, 224, 224, 12)      0         
_________________________________________________________________
conv2d_1 (Conv2D)            (None, 222, 222, 64)      6976      
_________________________________________________________________
leaky_re_lu_1 (LeakyReLU)    (None, 222, 222, 64)      0         
_________________________________________________________________
conv2d_2 (Conv2D)            (None, 110, 110, 64)      36928     
_________________________________________________________________
leaky_re_lu_2 (LeakyReLU)    (None, 110, 110, 64)      0         
_________________________________________________________________
batch_normalization_1 (Batch (None, 110, 110, 64)      256       
_________________________________________________________________
conv2d_3 (Conv2D)            (None, 108, 108, 128)     73856     
_________________________________________________________________
leaky_re_lu_3 (LeakyReLU)    (None, 108, 108, 128)     0         
_________________________________________________________________
batch_normalization_2 (Batch (None, 108, 108, 128)     512       
_________________________________________________________________
conv2d_4 (Conv2D)            (None, 53, 53, 128)       147584    
_________________________________________________________________
leaky_re_lu_4 (LeakyReLU)    (None, 53, 53, 128)       0         
_________________________________________________________________
batch_normalization_3 (Batch (None, 53, 53, 128)       512       
_________________________________________________________________
conv2d_5 (Conv2D)            (None, 51, 51, 256)       295168    
_________________________________________________________________
leaky_re_lu_5 (LeakyReLU)    (None, 51, 51, 256)       0         
_________________________________________________________________
batch_normalization_4 (Batch (None, 51, 51, 256)       1024      
_________________________________________________________________
conv2d_6 (Conv2D)            (None, 25, 25, 256)       590080    
_________________________________________________________________
leaky_re_lu_6 (LeakyReLU)    (None, 25, 25, 256)       0         
_________________________________________________________________
batch_normalization_5 (Batch (None, 25, 25, 256)       1024      
_________________________________________________________________
conv2d_7 (Conv2D)            (None, 23, 23, 512)       1180160   
_________________________________________________________________
leaky_re_lu_7 (LeakyReLU)    (None, 23, 23, 512)       0         
_________________________________________________________________
batch_normalization_6 (Batch (None, 23, 23, 512)       2048      
_________________________________________________________________
conv2d_8 (Conv2D)            (None, 11, 11, 512)       2359808   
_________________________________________________________________
leaky_re_lu_8 (LeakyReLU)    (None, 11, 11, 512)       0         
_________________________________________________________________
batch_normalization_7 (Batch (None, 11, 11, 512)       2048      
_________________________________________________________________
dense_1 (Dense)              (None, 11, 11, 1024)      525312    
_________________________________________________________________
leaky_re_lu_9 (LeakyReLU)    (None, 11, 11, 1024)      0         
_________________________________________________________________
dense_4 (Dense)              (None, 11, 11, 1)         1025      
=================================================================
Total params: 5,224,321
Trainable params: 5,220,609
Non-trainable params: 3,712
_________________________________________________________________
_________________________________________________________________
Layer (type)                 Output Shape              Param #   
=================================================================
input_1 (InputLayer)         (None, 224, 224, 12)      0         
_________________________________________________________________
conv2d_1 (Conv2D)            (None, 222, 222, 64)      6976      
_________________________________________________________________
leaky_re_lu_1 (LeakyReLU)    (None, 222, 222, 64)      0         
_________________________________________________________________
conv2d_2 (Conv2D)            (None, 110, 110, 64)      36928     
_________________________________________________________________
leaky_re_lu_2 (LeakyReLU)    (None, 110, 110, 64)      0         
_________________________________________________________________
batch_normalization_1 (Batch (None, 110, 110, 64)      256       
_________________________________________________________________
conv2d_3 (Conv2D)            (None, 108, 108, 128)     73856     
_________________________________________________________________
leaky_re_lu_3 (LeakyReLU)    (None, 108, 108, 128)     0         
_________________________________________________________________
batch_normalization_2 (Batch (None, 108, 108, 128)     512       
_________________________________________________________________
conv2d_4 (Conv2D)            (None, 53, 53, 128)       147584    
_________________________________________________________________
leaky_re_lu_4 (LeakyReLU)    (None, 53, 53, 128)       0         
_________________________________________________________________
batch_normalization_3 (Batch (None, 53, 53, 128)       512       
_________________________________________________________________
conv2d_5 (Conv2D)            (None, 51, 51, 256)       295168    
_________________________________________________________________
leaky_re_lu_5 (LeakyReLU)    (None, 51, 51, 256)       0         
_________________________________________________________________
batch_normalization_4 (Batch (None, 51, 51, 256)       1024      
_________________________________________________________________
conv2d_6 (Conv2D)            (None, 25, 25, 256)       590080    
_________________________________________________________________
leaky_re_lu_6 (LeakyReLU)    (None, 25, 25, 256)       0         
_________________________________________________________________
batch_normalization_5 (Batch (None, 25, 25, 256)       1024      
_________________________________________________________________
conv2d_7 (Conv2D)            (None, 23, 23, 512)       1180160   
_________________________________________________________________
leaky_re_lu_7 (LeakyReLU)    (None, 23, 23, 512)       0         
_________________________________________________________________
batch_normalization_6 (Batch (None, 23, 23, 512)       2048      
_________________________________________________________________
conv2d_8 (Conv2D)            (None, 11, 11, 512)       2359808   
_________________________________________________________________
leaky_re_lu_8 (LeakyReLU)    (None, 11, 11, 512)       0         
_________________________________________________________________
batch_normalization_7 (Batch (None, 11, 11, 512)       2048      
_________________________________________________________________
dense_1 (Dense)              (None, 11, 11, 1024)      525312    
_________________________________________________________________
leaky_re_lu_9 (LeakyReLU)    (None, 11, 11, 1024)      0         
_________________________________________________________________
dense_4 (Dense)              (None, 11, 11, 1)         1025      
=================================================================
Total params: 5,224,321
Trainable params: 5,220,609
Non-trainable params: 3,712
_________________________________________________________________
0
8
_________________________________________________________________
Layer (type)                 Output Shape              Param #   
=================================================================
input_1 (InputLayer)         (None, 224, 224, 12)      0         
_________________________________________________________________
conv2d_1 (Conv2D)            (None, 222, 222, 64)      6976      
_________________________________________________________________
leaky_re_lu_1 (LeakyReLU)    (None, 222, 222, 64)      0         
_________________________________________________________________
conv2d_2 (Conv2D)            (None, 110, 110, 64)      36928     
_________________________________________________________________
leaky_re_lu_2 (LeakyReLU)    (None, 110, 110, 64)      0         
_________________________________________________________________
batch_normalization_1 (Batch (None, 110, 110, 64)      256       
_________________________________________________________________
conv2d_3 (Conv2D)            (None, 108, 108, 128)     73856     
_________________________________________________________________
leaky_re_lu_3 (LeakyReLU)    (None, 108, 108, 128)     0         
_________________________________________________________________
batch_normalization_2 (Batch (None, 108, 108, 128)     512       
_________________________________________________________________
conv2d_4 (Conv2D)            (None, 53, 53, 128)       147584    
_________________________________________________________________
leaky_re_lu_4 (LeakyReLU)    (None, 53, 53, 128)       0         
_________________________________________________________________
batch_normalization_3 (Batch (None, 53, 53, 128)       512       
_________________________________________________________________
conv2d_5 (Conv2D)            (None, 51, 51, 256)       295168    
_________________________________________________________________
leaky_re_lu_5 (LeakyReLU)    (None, 51, 51, 256)       0         
_________________________________________________________________
batch_normalization_4 (Batch (None, 51, 51, 256)       1024      
_________________________________________________________________
conv2d_6 (Conv2D)            (None, 25, 25, 256)       590080    
_________________________________________________________________
leaky_re_lu_6 (LeakyReLU)    (None, 25, 25, 256)       0         
_________________________________________________________________
batch_normalization_5 (Batch (None, 25, 25, 256)       1024      
_________________________________________________________________
conv2d_7 (Conv2D)            (None, 23, 23, 512)       1180160   
_________________________________________________________________
leaky_re_lu_7 (LeakyReLU)    (None, 23, 23, 512)       0         
_________________________________________________________________
batch_normalization_6 (Batch (None, 23, 23, 512)       2048      
_________________________________________________________________
conv2d_8 (Conv2D)            (None, 11, 11, 512)       2359808   
_________________________________________________________________
leaky_re_lu_8 (LeakyReLU)    (None, 11, 11, 512)       0         
_________________________________________________________________
batch_normalization_7 (Batch (None, 11, 11, 512)       2048      
_________________________________________________________________
dense_1 (Dense)              (None, 11, 11, 1024)      525312    
_________________________________________________________________
leaky_re_lu_9 (LeakyReLU)    (None, 11, 11, 1024)      0         
_________________________________________________________________
dense_4 (Dense)              (None, 11, 11, 1)         1025      
=================================================================
Total params: 5,224,321
Trainable params: 5,220,609
Non-trainable params: 3,712
_________________________________________________________________
[154 316 361  63 225 292 345 347  79  29 238 246 364 185 145  19  27 350
  99 144 275 118 220  78  42   6 344  67 239 149 295  49  41 136 242   0
 215 245  46 104  33 314 234 133  51 165 260  62 281 268 346  35 319 335
…
 125 190  64 322 241 127 175  22 177 184  32  59 249  84 290   9 139 110
 287 202 126  20 117 217 106   8  60 210  31 303 191 231  15 289 261 306
 236 181 244 307 363  39 207  24 123  16 197 342 359 170 288 304 142  61
  87 186  40 107 323 256 188 209 254 213  10  57 198 109 299 309 265 262
 161 211 272 293 279  69  55 193 264 137  98 354  81 263  74 257 163 183
 108 122  50 337 250  70  54]
_________________________________________________________________
Layer (type)                 Output Shape              Param #   
=================================================================
input_1 (InputLayer)         (None, 224, 224, 12)      0         
_________________________________________________________________
conv2d_1 (Conv2D)            (None, 222, 222, 64)      6976      
_________________________________________________________________
leaky_re_lu_1 (LeakyReLU)    (None, 222, 222, 64)      0         
_________________________________________________________________
conv2d_2 (Conv2D)            (None, 110, 110, 64)      36928     
_________________________________________________________________
leaky_re_lu_2 (LeakyReLU)    (None, 110, 110, 64)      0         
_________________________________________________________________
batch_normalization_1 (Batch (None, 110, 110, 64)      256       
_________________________________________________________________
conv2d_3 (Conv2D)            (None, 108, 108, 128)     73856     
_________________________________________________________________
leaky_re_lu_3 (LeakyReLU)    (None, 108, 108, 128)     0         
_________________________________________________________________
batch_normalization_2 (Batch (None, 108, 108, 128)     512       
_________________________________________________________________
conv2d_4 (Conv2D)            (None, 53, 53, 128)       147584    
_________________________________________________________________
leaky_re_lu_4 (LeakyReLU)    (None, 53, 53, 128)       0         
_________________________________________________________________
batch_normalization_3 (Batch (None, 53, 53, 128)       512       
_________________________________________________________________
conv2d_5 (Conv2D)            (None, 51, 51, 256)       295168    
_________________________________________________________________
leaky_re_lu_5 (LeakyReLU)    (None, 51, 51, 256)       0         
_________________________________________________________________
batch_normalization_4 (Batch (None, 51, 51, 256)       1024      
_________________________________________________________________
conv2d_6 (Conv2D)            (None, 25, 25, 256)       590080    
_________________________________________________________________
leaky_re_lu_6 (LeakyReLU)    (None, 25, 25, 256)       0         
_________________________________________________________________
batch_normalization_5 (Batch (None, 25, 25, 256)       1024      
_________________________________________________________________
conv2d_7 (Conv2D)            (None, 23, 23, 512)       1180160   
_________________________________________________________________
leaky_re_lu_7 (LeakyReLU)    (None, 23, 23, 512)       0         
_________________________________________________________________
batch_normalization_6 (Batch (None, 23, 23, 512)       2048      
_________________________________________________________________
conv2d_8 (Conv2D)            (None, 11, 11, 512)       2359808   
_________________________________________________________________
leaky_re_lu_8 (LeakyReLU)    (None, 11, 11, 512)       0         
_________________________________________________________________
batch_normalization_7 (Batch (None, 11, 11, 512)       2048      
_________________________________________________________________
dense_1 (Dense)              (None, 11, 11, 1024)      525312    
_________________________________________________________________
leaky_re_lu_9 (LeakyReLU)    (None, 11, 11, 1024)      0         
_________________________________________________________________
dense_4 (Dense)              (None, 11, 11, 1)         1025      
=================================================================
Total params: 5,224,321
Trainable params: 5,220,609
Non-trainable params: 3,712
_________________________________________________________________
_________________________________________________________________
Layer (type)                 Output Shape              Param #   
=================================================================
input_1 (InputLayer)         (None, 224, 224, 12)      0         
_________________________________________________________________
conv2d_1 (Conv2D)            (None, 222, 222, 64)      6976      
_________________________________________________________________
leaky_re_lu_1 (LeakyReLU)    (None, 222, 222, 64)      0         
_________________________________________________________________
conv2d_2 (Conv2D)            (None, 110, 110, 64)      36928     
_________________________________________________________________
leaky_re_lu_2 (LeakyReLU)    (None, 110, 110, 64)      0         
_________________________________________________________________
batch_normalization_1 (Batch (None, 110, 110, 64)      256       
_________________________________________________________________
conv2d_3 (Conv2D)            (None, 108, 108, 128)     73856     
_________________________________________________________________
leaky_re_lu_3 (LeakyReLU)    (None, 108, 108, 128)     0         
_________________________________________________________________
batch_normalization_2 (Batch (None, 108, 108, 128)     512       
_________________________________________________________________
conv2d_4 (Conv2D)            (None, 53, 53, 128)       147584    
_________________________________________________________________
leaky_re_lu_4 (LeakyReLU)    (None, 53, 53, 128)       0         
_________________________________________________________________
batch_normalization_3 (Batch (None, 53, 53, 128)       512       
_________________________________________________________________
conv2d_5 (Conv2D)            (None, 51, 51, 256)       295168    
_________________________________________________________________
leaky_re_lu_5 (LeakyReLU)    (None, 51, 51, 256)       0         
_________________________________________________________________
batch_normalization_4 (Batch (None, 51, 51, 256)       1024      
_________________________________________________________________
conv2d_6 (Conv2D)            (None, 25, 25, 256)       590080    
_________________________________________________________________
leaky_re_lu_6 (LeakyReLU)    (None, 25, 25, 256)       0         
_________________________________________________________________
batch_normalization_5 (Batch (None, 25, 25, 256)       1024      
_________________________________________________________________
conv2d_7 (Conv2D)            (None, 23, 23, 512)       1180160   
_________________________________________________________________
leaky_re_lu_7 (LeakyReLU)    (None, 23, 23, 512)       0         
_________________________________________________________________
batch_normalization_6 (Batch (None, 23, 23, 512)       2048      
_________________________________________________________________
conv2d_8 (Conv2D)            (None, 11, 11, 512)       2359808   
_________________________________________________________________
leaky_re_lu_8 (LeakyReLU)    (None, 11, 11, 512)       0         
_________________________________________________________________
batch_normalization_7 (Batch (None, 11, 11, 512)       2048      
_________________________________________________________________
dense_1 (Dense)              (None, 11, 11, 1024)      525312    
_________________________________________________________________
leaky_re_lu_9 (LeakyReLU)    (None, 11, 11, 1024)      0         
_________________________________________________________________
dense_4 (Dense)              (None, 11, 11, 1)         1025      
=================================================================
Total params: 5,224,321
Trainable params: 5,220,609
Non-trainable params: 3,712
_________________________________________________________________
_________________________________________________________________
Layer (type)                 Output Shape              Param #   
=================================================================
input_1 (InputLayer)         (None, 224, 224, 12)      0         
_________________________________________________________________
conv2d_1 (Conv2D)            (None, 222, 222, 64)      6976      
_________________________________________________________________
leaky_re_lu_1 (LeakyReLU)    (None, 222, 222, 64)      0         
_________________________________________________________________
conv2d_2 (Conv2D)            (None, 110, 110, 64)      36928     
_________________________________________________________________
leaky_re_lu_2 (LeakyReLU)    (None, 110, 110, 64)      0         
_________________________________________________________________
batch_normalization_1 (Batch (None, 110, 110, 64)      256       
_________________________________________________________________
conv2d_3 (Conv2D)            (None, 108, 108, 128)     73856     
_________________________________________________________________
leaky_re_lu_3 (LeakyReLU)    (None, 108, 108, 128)     0         
_________________________________________________________________
batch_normalization_2 (Batch (None, 108, 108, 128)     512       
_________________________________________________________________
conv2d_4 (Conv2D)            (None, 53, 53, 128)       147584    
_________________________________________________________________
leaky_re_lu_4 (LeakyReLU)    (None, 53, 53, 128)       0         
_________________________________________________________________
batch_normalization_3 (Batch (None, 53, 53, 128)       512       
_________________________________________________________________
conv2d_5 (Conv2D)            (None, 51, 51, 256)       295168    
_________________________________________________________________
leaky_re_lu_5 (LeakyReLU)    (None, 51, 51, 256)       0         
_________________________________________________________________
batch_normalization_4 (Batch (None, 51, 51, 256)       1024      
_________________________________________________________________
conv2d_6 (Conv2D)            (None, 25, 25, 256)       590080    
_________________________________________________________________
leaky_re_lu_6 (LeakyReLU)    (None, 25, 25, 256)       0         
_________________________________________________________________
batch_normalization_5 (Batch (None, 25, 25, 256)       1024      
_________________________________________________________________
conv2d_7 (Conv2D)            (None, 23, 23, 512)       1180160   
_________________________________________________________________
leaky_re_lu_7 (LeakyReLU)    (None, 23, 23, 512)       0         
_________________________________________________________________
batch_normalization_6 (Batch (None, 23, 23, 512)       2048      
_________________________________________________________________
conv2d_8 (Conv2D)            (None, 11, 11, 512)       2359808   
_________________________________________________________________
leaky_re_lu_8 (LeakyReLU)    (None, 11, 11, 512)       0         
_________________________________________________________________
batch_normalization_7 (Batch (None, 11, 11, 512)       2048      
_________________________________________________________________
dense_1 (Dense)              (None, 11, 11, 1024)      525312    
_________________________________________________________________
leaky_re_lu_9 (LeakyReLU)    (None, 11, 11, 1024)      0         
_________________________________________________________________
dense_4 (Dense)              (None, 11, 11, 1)         1025      
=================================================================
Total params: 5,224,321
Trainable params: 5,220,609
Non-trainable params: 3,712
_________________________________________________________________
class 00: #TP=445636, #FP= 26666, #FN=10337, IoU=0.923
class 01: #TP=1130971, #FP= 72585, #FN=172975, IoU=0.822
class 02: #TP=   235, #FP=  3218, #FN=36185, IoU=0.006
class 03: #TP=1434154, #FP= 40860, #FN=40865, IoU=0.946
…
class 10: #TP= 32438, #FP= 19018, #FN=78534, IoU=0.250
class 11: #TP=  7024, #FP= 34498, #FN=62724, IoU=0.067
_________________
Mean IoU: 0.438
80 [D loss: 0.119643, acc.: 81.87%] [G loss: 1.173839]
80 [D loss: 0.082076, acc.: 93.70%] [G loss: 1.808420]
80 [D loss: 0.108771, acc.: 91.99%] [G loss: 0.940530]
80 [D loss: 0.097585, acc.: 89.93%] [G loss: 0.540594]
80 [D loss: 0.104901, acc.: 91.79%] [G loss: 0.917725]
_________________________________________________________________
Layer (type)                 Output Shape              Param #   
=================================================================
input_1 (InputLayer)         (None, 224, 224, 12)      0         
_________________________________________________________________
conv2d_1 (Conv2D)            (None, 222, 222, 64)      6976      
_________________________________________________________________
leaky_re_lu_1 (LeakyReLU)    (None, 222, 222, 64)      0         
_________________________________________________________________
conv2d_2 (Conv2D)            (None, 110, 110, 64)      36928     
_________________________________________________________________
leaky_re_lu_2 (LeakyReLU)    (None, 110, 110, 64)      0         
_________________________________________________________________
batch_normalization_1 (Batch (None, 110, 110, 64)      256       
_________________________________________________________________
conv2d_3 (Conv2D)            (None, 108, 108, 128)     73856     
_________________________________________________________________
leaky_re_lu_3 (LeakyReLU)    (None, 108, 108, 128)     0         
_________________________________________________________________
batch_normalization_2 (Batch (None, 108, 108, 128)     512       
_________________________________________________________________
conv2d_4 (Conv2D)            (None, 53, 53, 128)       147584    
_________________________________________________________________
leaky_re_lu_4 (LeakyReLU)    (None, 53, 53, 128)       0         
_________________________________________________________________
batch_normalization_3 (Batch (None, 53, 53, 128)       512       
_________________________________________________________________
conv2d_5 (Conv2D)            (None, 51, 51, 256)       295168    
_________________________________________________________________
leaky_re_lu_5 (LeakyReLU)    (None, 51, 51, 256)       0         
_________________________________________________________________
batch_normalization_4 (Batch (None, 51, 51, 256)       1024      
_________________________________________________________________
conv2d_6 (Conv2D)            (None, 25, 25, 256)       590080    
_________________________________________________________________
leaky_re_lu_6 (LeakyReLU)    (None, 25, 25, 256)       0         
_________________________________________________________________
batch_normalization_5 (Batch (None, 25, 25, 256)       1024      
_________________________________________________________________
conv2d_7 (Conv2D)            (None, 23, 23, 512)       1180160   
_________________________________________________________________
leaky_re_lu_7 (LeakyReLU)    (None, 23, 23, 512)       0         
_________________________________________________________________
batch_normalization_6 (Batch (None, 23, 23, 512)       2048      
_________________________________________________________________
conv2d_8 (Conv2D)            (None, 11, 11, 512)       2359808   
_________________________________________________________________
leaky_re_lu_8 (LeakyReLU)    (None, 11, 11, 512)       0         
_________________________________________________________________
batch_normalization_7 (Batch (None, 11, 11, 512)       2048      
_________________________________________________________________
dense_1 (Dense)              (None, 11, 11, 1024)      525312    
_________________________________________________________________
leaky_re_lu_9 (LeakyReLU)    (None, 11, 11, 1024)      0         
_________________________________________________________________
flatten_1 (Flatten)          (None, 123904)            0         
_________________________________________________________________
dense_4 (Dense)              (None, 1)                 123905    
=================================================================
Total params: 5,347,201
Trainable params: 5,343,489
Non-trainable params: 3,712
_________________________________________________________________
_________________________________________________________________
Layer (type)                 Output Shape              Param #   
=================================================================
input_1 (InputLayer)         (None, 224, 224, 12)      0         
_________________________________________________________________
conv2d_1 (Conv2D)            (None, 222, 222, 64)      6976      
_________________________________________________________________
leaky_re_lu_1 (LeakyReLU)    (None, 222, 222, 64)      0         
_________________________________________________________________
conv2d_2 (Conv2D)            (None, 110, 110, 64)      36928     
_________________________________________________________________
leaky_re_lu_2 (LeakyReLU)    (None, 110, 110, 64)      0         
_________________________________________________________________
batch_normalization_1 (Batch (None, 110, 110, 64)      256       
_________________________________________________________________
conv2d_3 (Conv2D)            (None, 108, 108, 128)     73856     
_________________________________________________________________
leaky_re_lu_3 (LeakyReLU)    (None, 108, 108, 128)     0         
_________________________________________________________________
batch_normalization_2 (Batch (None, 108, 108, 128)     512       
_________________________________________________________________
conv2d_4 (Conv2D)            (None, 53, 53, 128)       147584    
_________________________________________________________________
leaky_re_lu_4 (LeakyReLU)    (None, 53, 53, 128)       0         
_________________________________________________________________
batch_normalization_3 (Batch (None, 53, 53, 128)       512       
_________________________________________________________________
conv2d_5 (Conv2D)            (None, 51, 51, 256)       295168    
_________________________________________________________________
leaky_re_lu_5 (LeakyReLU)    (None, 51, 51, 256)       0         
_________________________________________________________________
batch_normalization_4 (Batch (None, 51, 51, 256)       1024      
_________________________________________________________________
conv2d_6 (Conv2D)            (None, 25, 25, 256)       590080    
_________________________________________________________________
leaky_re_lu_6 (LeakyReLU)    (None, 25, 25, 256)       0         
_________________________________________________________________
batch_normalization_5 (Batch (None, 25, 25, 256)       1024      
_________________________________________________________________
conv2d_7 (Conv2D)            (None, 23, 23, 512)       1180160   
_________________________________________________________________
leaky_re_lu_7 (LeakyReLU)    (None, 23, 23, 512)       0         
_________________________________________________________________
batch_normalization_6 (Batch (None, 23, 23, 512)       2048      
_________________________________________________________________
conv2d_8 (Conv2D)            (None, 11, 11, 512)       2359808   
_________________________________________________________________
leaky_re_lu_8 (LeakyReLU)    (None, 11, 11, 512)       0         
_________________________________________________________________
batch_normalization_7 (Batch (None, 11, 11, 512)       2048      
_________________________________________________________________
dense_1 (Dense)              (None, 11, 11, 1024)      525312    
_________________________________________________________________
leaky_re_lu_9 (LeakyReLU)    (None, 11, 11, 1024)      0         
_________________________________________________________________
flatten_1 (Flatten)          (None, 123904)            0         
_________________________________________________________________
dense_4 (Dense)              (None, 1)                 123905    
=================================================================
Total params: 5,347,201
Trainable params: 5,343,489
Non-trainable params: 3,712
_________________________________________________________________
class 00: #TP=445636, #FP= 26666, #FN=10337, IoU=0.923
class 01: #TP=1130971, #FP= 72585, #FN=172975, IoU=0.822
class 02: #TP=   235, #FP=  3218, #FN=36185, IoU=0.006
class 03: #TP=1434154, #FP= 40860, #FN=40865, IoU=0.946
…
class 08: #TP= 31902, #FP=358752, #FN=62158, IoU=0.070
class 09: #TP=  2884, #FP=222050, #FN=33981, IoU=0.011
class 10: #TP=  4772, #FP= 90896, #FN=106200, IoU=0.024
class 11: #TP= 10187, #FP=402027, #FN=59561, IoU=0.022
_________________
Mean IoU: 0.146
2 [D loss: 0.000122, acc.: 100.00%] [G loss: 0.045679, acc.: 100.00%]
2 [D loss: 0.000108, acc.: 100.00%] [G loss: 0.045435, acc.: 100.00%]
_________________________________________________________________
Layer (type)                 Output Shape              Param #   
=================================================================
input_1 (InputLayer)         (None, 224, 224, 12)      0         
_________________________________________________________________
conv2d_1 (Conv2D)            (None, 222, 222, 64)      6976      
_________________________________________________________________
leaky_re_lu_1 (LeakyReLU)    (None, 222, 222, 64)      0         
_________________________________________________________________
conv2d_2 (Conv2D)            (None, 110, 110, 64)      36928     
_________________________________________________________________
leaky_re_lu_2 (LeakyReLU)    (None, 110, 110, 64)      0         
_________________________________________________________________
batch_normalization_1 (Batch (None, 110, 110, 64)      256       
_________________________________________________________________
conv2d_3 (Conv2D)            (None, 108, 108, 128)     73856     
_________________________________________________________________
leaky_re_lu_3 (LeakyReLU)    (None, 108, 108, 128)     0         
_________________________________________________________________
batch_normalization_2 (Batch (None, 108, 108, 128)     512       
_________________________________________________________________
conv2d_4 (Conv2D)            (None, 53, 53, 128)       147584    
_________________________________________________________________
leaky_re_lu_4 (LeakyReLU)    (None, 53, 53, 128)       0         
_________________________________________________________________
batch_normalization_3 (Batch (None, 53, 53, 128)       512       
_________________________________________________________________
conv2d_5 (Conv2D)            (None, 51, 51, 256)       295168    
_________________________________________________________________
leaky_re_lu_5 (LeakyReLU)    (None, 51, 51, 256)       0         
_________________________________________________________________
batch_normalization_4 (Batch (None, 51, 51, 256)       1024      
_________________________________________________________________
conv2d_6 (Conv2D)            (None, 25, 25, 256)       590080    
_________________________________________________________________
leaky_re_lu_6 (LeakyReLU)    (None, 25, 25, 256)       0         
_________________________________________________________________
batch_normalization_5 (Batch (None, 25, 25, 256)       1024      
_________________________________________________________________
conv2d_7 (Conv2D)            (None, 23, 23, 512)       1180160   
_________________________________________________________________
leaky_re_lu_7 (LeakyReLU)    (None, 23, 23, 512)       0         
_________________________________________________________________
batch_normalization_6 (Batch (None, 23, 23, 512)       2048      
_________________________________________________________________
conv2d_8 (Conv2D)            (None, 11, 11, 512)       2359808   
_________________________________________________________________
leaky_re_lu_8 (LeakyReLU)    (None, 11, 11, 512)       0         
_________________________________________________________________
batch_normalization_7 (Batch (None, 11, 11, 512)       2048      
_________________________________________________________________
dense_1 (Dense)              (None, 11, 11, 1024)      525312    
_________________________________________________________________
leaky_re_lu_9 (LeakyReLU)    (None, 11, 11, 1024)      0         
_________________________________________________________________
flatten_1 (Flatten)          (None, 123904)            0         
_________________________________________________________________
dense_4 (Dense)              (None, 1)                 123905    
=================================================================
Total params: 5,347,201
Trainable params: 5,343,489
Non-trainable params: 3,712
_________________________________________________________________
class 00: #TP=445636, #FP= 26666, #FN=10337, IoU=0.923
class 01: #TP=1130971, #FP= 72585, #FN=172975, IoU=0.822
class 02: #TP=   235, #FP=  3218, #FN=36185, IoU=0.006
class 03: #TP=1434154, #FP= 40860, #FN=40865, IoU=0.946
…
4 [D loss: 0.049519, acc.: 100.00%] [G loss: 0.046442, acc.: 100.00%]
4 [D loss: 0.030762, acc.: 100.00%] [G loss: 0.058767, acc.: 100.00%]
4 [D loss: 0.023380, acc.: 100.00%] [G loss: 0.047239, acc.: 100.00%]
4 [D loss: 0.016231, acc.: 100.00%] [G loss: 0.061087, acc.: 100.00%]
4 [D loss: 0.020135, acc.: 100.00%] [G loss: 0.046091, acc.: 100.00%]
4 [D loss: 0.011768, acc.: 100.00%] [G loss: 0.046694, acc.: 100.00%]
_________________________________________________________________
Layer (type)                 Output Shape              Param #   
=================================================================
input_1 (InputLayer)         (None, 224, 224, 12)      0         
_________________________________________________________________
conv2d_1 (Conv2D)            (None, 222, 222, 64)      6976      
_________________________________________________________________
leaky_re_lu_1 (LeakyReLU)    (None, 222, 222, 64)      0         
_________________________________________________________________
conv2d_2 (Conv2D)            (None, 110, 110, 64)      36928     
_________________________________________________________________
leaky_re_lu_2 (LeakyReLU)    (None, 110, 110, 64)      0         
_________________________________________________________________
batch_normalization_1 (Batch (None, 110, 110, 64)      256       
_________________________________________________________________
conv2d_3 (Conv2D)            (None, 108, 108, 128)     73856     
_________________________________________________________________
leaky_re_lu_3 (LeakyReLU)    (None, 108, 108, 128)     0         
_________________________________________________________________
batch_normalization_2 (Batch (None, 108, 108, 128)     512       
_________________________________________________________________
conv2d_4 (Conv2D)            (None, 53, 53, 128)       147584    
_________________________________________________________________
leaky_re_lu_4 (LeakyReLU)    (None, 53, 53, 128)       0         
_________________________________________________________________
batch_normalization_3 (Batch (None, 53, 53, 128)       512       
_________________________________________________________________
conv2d_5 (Conv2D)            (None, 51, 51, 256)       295168    
_________________________________________________________________
leaky_re_lu_5 (LeakyReLU)    (None, 51, 51, 256)       0         
_________________________________________________________________
batch_normalization_4 (Batch (None, 51, 51, 256)       1024      
_________________________________________________________________
conv2d_6 (Conv2D)            (None, 25, 25, 256)       590080    
_________________________________________________________________
leaky_re_lu_6 (LeakyReLU)    (None, 25, 25, 256)       0         
_________________________________________________________________
batch_normalization_5 (Batch (None, 25, 25, 256)       1024      
_________________________________________________________________
conv2d_7 (Conv2D)            (None, 23, 23, 512)       1180160   
_________________________________________________________________
leaky_re_lu_7 (LeakyReLU)    (None, 23, 23, 512)       0         
_________________________________________________________________
batch_normalization_6 (Batch (None, 23, 23, 512)       2048      
_________________________________________________________________
conv2d_8 (Conv2D)            (None, 11, 11, 512)       2359808   
_________________________________________________________________
leaky_re_lu_8 (LeakyReLU)    (None, 11, 11, 512)       0         
_________________________________________________________________
batch_normalization_7 (Batch (None, 11, 11, 512)       2048      
_________________________________________________________________
dense_1 (Dense)              (None, 11, 11, 1024)      525312    
_________________________________________________________________
leaky_re_lu_9 (LeakyReLU)    (None, 11, 11, 1024)      0         
_________________________________________________________________
flatten_1 (Flatten)          (None, 123904)            0         
_________________________________________________________________
dense_4 (Dense)              (None, 256)               31719680  
_________________________________________________________________
dense_5 (Dense)              (None, 1)                 257       
=================================================================
Total params: 36,943,233
Trainable params: 36,939,521
Non-trainable params: 3,712
_________________________________________________________________
class 00: #TP=445636, #FP= 26666, #FN=10337, IoU=0.923
class 01: #TP=1130971, #FP= 72585, #FN=172975, IoU=0.822
class 02: #TP=   235, #FP=  3218, #FN=36185, IoU=0.006
class 03: #TP=1434154, #FP= 40860, #FN=40865, IoU=0.946
…
class 06: #TP=  8676, #FP=  9107, #FN=44716, IoU=0.139
class 07: #TP=127030, #FP= 76606, #FN=29373, IoU=0.545
class 08: #TP= 79306, #FP= 51650, #FN=14754, IoU=0.544
class 09: #TP= 18677, #FP= 38762, #FN=18188, IoU=0.247
class 10: #TP= 61724, #FP= 18497, #FN=49248, IoU=0.477
class 11: #TP= 28033, #FP= 79448, #FN=41715, IoU=0.188
_________________
Mean IoU: 0.544
check point!
_________________________________________________________________
Layer (type)                 Output Shape              Param #   
=================================================================
input_1 (InputLayer)         (None, 224, 224, 12)      0         
_________________________________________________________________
conv2d_1 (Conv2D)            (None, 222, 222, 64)      6976      
_________________________________________________________________
leaky_re_lu_1 (LeakyReLU)    (None, 222, 222, 64)      0         
_________________________________________________________________
conv2d_2 (Conv2D)            (None, 110, 110, 64)      36928     
_________________________________________________________________
leaky_re_lu_2 (LeakyReLU)    (None, 110, 110, 64)      0         
_________________________________________________________________
batch_normalization_1 (Batch (None, 110, 110, 64)      256       
_________________________________________________________________
conv2d_3 (Conv2D)            (None, 108, 108, 128)     73856     
_________________________________________________________________
leaky_re_lu_3 (LeakyReLU)    (None, 108, 108, 128)     0         
_________________________________________________________________
batch_normalization_2 (Batch (None, 108, 108, 128)     512       
_________________________________________________________________
conv2d_4 (Conv2D)            (None, 53, 53, 128)       147584    
_________________________________________________________________
leaky_re_lu_4 (LeakyReLU)    (None, 53, 53, 128)       0         
_________________________________________________________________
batch_normalization_3 (Batch (None, 53, 53, 128)       512       
_________________________________________________________________
conv2d_5 (Conv2D)            (None, 51, 51, 256)       295168    
_________________________________________________________________
leaky_re_lu_5 (LeakyReLU)    (None, 51, 51, 256)       0         
_________________________________________________________________
batch_normalization_4 (Batch (None, 51, 51, 256)       1024      
_________________________________________________________________
conv2d_6 (Conv2D)            (None, 25, 25, 256)       590080    
_________________________________________________________________
leaky_re_lu_6 (LeakyReLU)    (None, 25, 25, 256)       0         
_________________________________________________________________
batch_normalization_5 (Batch (None, 25, 25, 256)       1024      
_________________________________________________________________
conv2d_7 (Conv2D)            (None, 23, 23, 512)       1180160   
_________________________________________________________________
leaky_re_lu_7 (LeakyReLU)    (None, 23, 23, 512)       0         
_________________________________________________________________
batch_normalization_6 (Batch (None, 23, 23, 512)       2048      
_________________________________________________________________
conv2d_8 (Conv2D)            (None, 11, 11, 512)       2359808   
_________________________________________________________________
leaky_re_lu_8 (LeakyReLU)    (None, 11, 11, 512)       0         
_________________________________________________________________
batch_normalization_7 (Batch (None, 11, 11, 512)       2048      
_________________________________________________________________
dense_1 (Dense)              (None, 11, 11, 1024)      525312    
_________________________________________________________________
leaky_re_lu_9 (LeakyReLU)    (None, 11, 11, 1024)      0         
_________________________________________________________________
flatten_1 (Flatten)          (None, 123904)            0         
_________________________________________________________________
dense_4 (Dense)              (None, 256)               31719680  
_________________________________________________________________
leaky_re_lu_12 (LeakyReLU)   (None, 256)               0         
_________________________________________________________________
dense_5 (Dense)              (None, 1)                 257       
=================================================================
Total params: 36,943,233
Trainable params: 36,939,521
Non-trainable params: 3,712
_________________________________________________________________
class 00: #TP=445636, #FP= 26666, #FN=10337, IoU=0.923
class 01: #TP=1130971, #FP= 72585, #FN=172975, IoU=0.822
class 02: #TP=   235, #FP=  3218, #FN=36185, IoU=0.006
class 03: #TP=1434154, #FP= 40860, #FN=40865, IoU=0.946
…
class 08: #TP= 51509, #FP=117573, #FN=42551, IoU=0.243
class 09: #TP=  8730, #FP= 89457, #FN=28135, IoU=0.069
class 10: #TP=  6892, #FP= 44388, #FN=104080, IoU=0.044
class 11: #TP= 13429, #FP=142957, #FN=56319, IoU=0.063
_________________
Mean IoU: 0.309
4 [D loss: 0.060359, acc.: 100.00%] [G loss: 0.101329, acc.: 100.00%]
4 [D loss: 0.057587, acc.: 100.00%] [G loss: 0.115949, acc.: 100.00%]
_________________________________________________________________
Layer (type)                 Output Shape              Param #   
=================================================================
input_1 (InputLayer)         (None, 224, 224, 12)      0         
_________________________________________________________________
conv2d_1 (Conv2D)            (None, 222, 222, 64)      6976      
_________________________________________________________________
leaky_re_lu_1 (LeakyReLU)    (None, 222, 222, 64)      0         
_________________________________________________________________
conv2d_2 (Conv2D)            (None, 110, 110, 64)      36928     
_________________________________________________________________
leaky_re_lu_2 (LeakyReLU)    (None, 110, 110, 64)      0         
_________________________________________________________________
batch_normalization_1 (Batch (None, 110, 110, 64)      256       
_________________________________________________________________
conv2d_3 (Conv2D)            (None, 108, 108, 128)     73856     
_________________________________________________________________
leaky_re_lu_3 (LeakyReLU)    (None, 108, 108, 128)     0         
_________________________________________________________________
batch_normalization_2 (Batch (None, 108, 108, 128)     512       
_________________________________________________________________
conv2d_4 (Conv2D)            (None, 53, 53, 128)       147584    
_________________________________________________________________
leaky_re_lu_4 (LeakyReLU)    (None, 53, 53, 128)       0         
_________________________________________________________________
batch_normalization_3 (Batch (None, 53, 53, 128)       512       
_________________________________________________________________
conv2d_5 (Conv2D)            (None, 51, 51, 256)       295168    
_________________________________________________________________
leaky_re_lu_5 (LeakyReLU)    (None, 51, 51, 256)       0         
_________________________________________________________________
batch_normalization_4 (Batch (None, 51, 51, 256)       1024      
_________________________________________________________________
conv2d_6 (Conv2D)            (None, 25, 25, 256)       590080    
_________________________________________________________________
leaky_re_lu_6 (LeakyReLU)    (None, 25, 25, 256)       0         
_________________________________________________________________
batch_normalization_5 (Batch (None, 25, 25, 256)       1024      
_________________________________________________________________
conv2d_7 (Conv2D)            (None, 23, 23, 512)       1180160   
_________________________________________________________________
leaky_re_lu_7 (LeakyReLU)    (None, 23, 23, 512)       0         
_________________________________________________________________
batch_normalization_6 (Batch (None, 23, 23, 512)       2048      
_________________________________________________________________
conv2d_8 (Conv2D)            (None, 11, 11, 512)       2359808   
_________________________________________________________________
leaky_re_lu_8 (LeakyReLU)    (None, 11, 11, 512)       0         
_________________________________________________________________
batch_normalization_7 (Batch (None, 11, 11, 512)       2048      
_________________________________________________________________
dense_1 (Dense)              (None, 11, 11, 1024)      525312    
_________________________________________________________________
leaky_re_lu_9 (LeakyReLU)    (None, 11, 11, 1024)      0         
_________________________________________________________________
flatten_1 (Flatten)          (None, 123904)            0         
_________________________________________________________________
dense_4 (Dense)              (None, 256)               31719680  
_________________________________________________________________
leaky_re_lu_12 (LeakyReLU)   (None, 256)               0         
_________________________________________________________________
dense_5 (Dense)              (None, 1)                 257       
=================================================================
Total params: 36,943,233
Trainable params: 36,939,521
Non-trainable params: 3,712
_________________________________________________________________
_________________________________________________________________
Layer (type)                 Output Shape              Param #   
=================================================================
input_1 (InputLayer)         (None, 224, 224, 12)      0         
_________________________________________________________________
conv2d_1 (Conv2D)            (None, 222, 222, 64)      6976      
_________________________________________________________________
leaky_re_lu_1 (LeakyReLU)    (None, 222, 222, 64)      0         
_________________________________________________________________
conv2d_2 (Conv2D)            (None, 110, 110, 64)      36928     
_________________________________________________________________
leaky_re_lu_2 (LeakyReLU)    (None, 110, 110, 64)      0         
_________________________________________________________________
batch_normalization_1 (Batch (None, 110, 110, 64)      256       
_________________________________________________________________
conv2d_3 (Conv2D)            (None, 108, 108, 128)     73856     
_________________________________________________________________
leaky_re_lu_3 (LeakyReLU)    (None, 108, 108, 128)     0         
_________________________________________________________________
batch_normalization_2 (Batch (None, 108, 108, 128)     512       
_________________________________________________________________
conv2d_4 (Conv2D)            (None, 53, 53, 128)       147584    
_________________________________________________________________
leaky_re_lu_4 (LeakyReLU)    (None, 53, 53, 128)       0         
_________________________________________________________________
batch_normalization_3 (Batch (None, 53, 53, 128)       512       
_________________________________________________________________
conv2d_5 (Conv2D)            (None, 51, 51, 256)       295168    
_________________________________________________________________
leaky_re_lu_5 (LeakyReLU)    (None, 51, 51, 256)       0         
_________________________________________________________________
batch_normalization_4 (Batch (None, 51, 51, 256)       1024      
_________________________________________________________________
conv2d_6 (Conv2D)            (None, 25, 25, 256)       590080    
_________________________________________________________________
leaky_re_lu_6 (LeakyReLU)    (None, 25, 25, 256)       0         
_________________________________________________________________
batch_normalization_5 (Batch (None, 25, 25, 256)       1024      
_________________________________________________________________
conv2d_7 (Conv2D)            (None, 23, 23, 512)       1180160   
_________________________________________________________________
leaky_re_lu_7 (LeakyReLU)    (None, 23, 23, 512)       0         
_________________________________________________________________
batch_normalization_6 (Batch (None, 23, 23, 512)       2048      
_________________________________________________________________
conv2d_8 (Conv2D)            (None, 11, 11, 512)       2359808   
_________________________________________________________________
leaky_re_lu_8 (LeakyReLU)    (None, 11, 11, 512)       0         
_________________________________________________________________
batch_normalization_7 (Batch (None, 11, 11, 512)       2048      
_________________________________________________________________
dense_1 (Dense)              (None, 11, 11, 1024)      525312    
_________________________________________________________________
leaky_re_lu_9 (LeakyReLU)    (None, 11, 11, 1024)      0         
_________________________________________________________________
flatten_1 (Flatten)          (None, 123904)            0         
_________________________________________________________________
dense_4 (Dense)              (None, 256)               31719680  
_________________________________________________________________
leaky_re_lu_12 (LeakyReLU)   (None, 256)               0         
_________________________________________________________________
dense_5 (Dense)              (None, 1)                 257       
=================================================================
Total params: 36,943,233
Trainable params: 36,939,521
Non-trainable params: 3,712
_________________________________________________________________
class 00: #TP=445636, #FP= 26666, #FN=10337, IoU=0.923
class 01: #TP=1130971, #FP= 72585, #FN=172975, IoU=0.822
class 02: #TP=   235, #FP=  3218, #FN=36185, IoU=0.006
class 03: #TP=1434154, #FP= 40860, #FN=40865, IoU=0.946
…
