…
/home/throne/data/VOCdevkit/VOC2012/JPEGImages/2008_001784.jpg
(1805, 224, 224, 3) (1805, 224, 224, 21)
Epoch 1/100
Epoch 00000: val_acc improved from -inf to 0.70198, saving model to weights.best.hdf5
299s - loss: nan - acc: 0.4864 - val_loss: nan - val_acc: 0.7020
Epoch 2/100
____________________________________________________________________________________________________
Layer (type)                     Output Shape          Param #     Connected to                     
====================================================================================================
input_1 (InputLayer)             (None, 224, 224, 3)   0                                            
____________________________________________________________________________________________________
block1_conv1 (Conv2D)            (None, 224, 224, 64)  1792        input_1[0][0]                    
____________________________________________________________________________________________________
block1_conv2 (Conv2D)            (None, 224, 224, 64)  36928       block1_conv1[0][0]               
____________________________________________________________________________________________________
block1_pool (MaxPooling2D)       (None, 112, 112, 64)  0           block1_conv2[0][0]               
____________________________________________________________________________________________________
block2_conv1 (Conv2D)            (None, 112, 112, 128) 73856       block1_pool[0][0]                
____________________________________________________________________________________________________
block2_conv2 (Conv2D)            (None, 112, 112, 128) 147584      block2_conv1[0][0]               
____________________________________________________________________________________________________
block2_pool (MaxPooling2D)       (None, 56, 56, 128)   0           block2_conv2[0][0]               
____________________________________________________________________________________________________
block3_conv1 (Conv2D)            (None, 56, 56, 256)   295168      block2_pool[0][0]                
____________________________________________________________________________________________________
block3_conv2 (Conv2D)            (None, 56, 56, 256)   590080      block3_conv1[0][0]               
____________________________________________________________________________________________________
block3_conv3 (Conv2D)            (None, 56, 56, 256)   590080      block3_conv2[0][0]               
____________________________________________________________________________________________________
block3_pool (MaxPooling2D)       (None, 28, 28, 256)   0           block3_conv3[0][0]               
____________________________________________________________________________________________________
block4_conv1 (Conv2D)            (None, 28, 28, 512)   1180160     block3_pool[0][0]                
____________________________________________________________________________________________________
block4_conv2 (Conv2D)            (None, 28, 28, 512)   2359808     block4_conv1[0][0]               
____________________________________________________________________________________________________
block4_conv3 (Conv2D)            (None, 28, 28, 512)   2359808     block4_conv2[0][0]               
____________________________________________________________________________________________________
block4_pool (MaxPooling2D)       (None, 14, 14, 512)   0           block4_conv3[0][0]               
____________________________________________________________________________________________________
block5_conv1 (Conv2D)            (None, 14, 14, 512)   2359808     block4_pool[0][0]                
____________________________________________________________________________________________________
block5_conv2 (Conv2D)            (None, 14, 14, 512)   2359808     block5_conv1[0][0]               
____________________________________________________________________________________________________
block5_conv3 (Conv2D)            (None, 14, 14, 512)   2359808     block5_conv2[0][0]               
____________________________________________________________________________________________________
block5_pool (MaxPooling2D)       (None, 7, 7, 512)     0           block5_conv3[0][0]               
____________________________________________________________________________________________________
conv6 (Conv2D)                   (None, 7, 7, 4096)    102764544   block5_pool[0][0]                
____________________________________________________________________________________________________
pool4_11 (Conv2D)                (None, 14, 14, 21)    10773       block4_pool[0][0]                
____________________________________________________________________________________________________
conv7 (Conv2D)                   (None, 7, 7, 4096)    16781312    conv6[0][0]                      
____________________________________________________________________________________________________
conv2d_transpose_2 (Conv2DTransp (None, 28, 28, 21)    1764        pool4_11[0][0]                   
____________________________________________________________________________________________________
pool3_11 (Conv2D)                (None, 28, 28, 21)    5397        block3_pool[0][0]                
____________________________________________________________________________________________________
conv2d_transpose_1 (Conv2DTransp (None, 28, 28, 21)    1376256     conv7[0][0]                      
____________________________________________________________________________________________________
add (Add)                        (None, 28, 28, 21)    0           conv2d_transpose_2[0][0]         
                                                                   pool3_11[0][0]                   
                                                                   conv2d_transpose_1[0][0]         
____________________________________________________________________________________________________
conv2d_transpose_3 (Conv2DTransp (None, 224, 224, 21)  28224       add[0][0]                        
____________________________________________________________________________________________________
activation_1 (Activation)        (None, 224, 224, 21)  0           conv2d_transpose_3[0][0]         
====================================================================================================
Total params: 135,682,958
Trainable params: 135,682,958
Non-trainable params: 0
____________________________________________________________________________________________________
[4907 7991 1611 ... 1265 3563 4358]
(10226,) (10226,)
(1805,) (1805,)
/home/throne/data/VOCdevkit/VOC2012/JPEGImages/2008_008765.jpg
…
293s - loss: 0.1815 - acc: 0.9448 - val_loss: 0.7800 - val_acc: 0.8434
Epoch 99/100
Epoch 00098: val_acc did not improve
295s - loss: 0.1811 - acc: 0.9450 - val_loss: 0.7558 - val_acc: 0.8456
Epoch 100/100
Epoch 00099: val_acc did not improve
294s - loss: 0.1807 - acc: 0.9451 - val_loss: 0.7219 - val_acc: 0.8484
____________________________________________________________________________________________________
Layer (type)                     Output Shape          Param #     Connected to                     
====================================================================================================
input_1 (InputLayer)             (None, 224, 224, 3)   0                                            
____________________________________________________________________________________________________
block1_conv1 (Conv2D)            (None, 224, 224, 64)  1792        input_1[0][0]                    
____________________________________________________________________________________________________
block1_conv2 (Conv2D)            (None, 224, 224, 64)  36928       block1_conv1[0][0]               
____________________________________________________________________________________________________
block1_pool (MaxPooling2D)       (None, 112, 112, 64)  0           block1_conv2[0][0]               
____________________________________________________________________________________________________
block2_conv1 (Conv2D)            (None, 112, 112, 128) 73856       block1_pool[0][0]                
____________________________________________________________________________________________________
block2_conv2 (Conv2D)            (None, 112, 112, 128) 147584      block2_conv1[0][0]               
____________________________________________________________________________________________________
block2_pool (MaxPooling2D)       (None, 56, 56, 128)   0           block2_conv2[0][0]               
____________________________________________________________________________________________________
block3_conv1 (Conv2D)            (None, 56, 56, 256)   295168      block2_pool[0][0]                
____________________________________________________________________________________________________
block3_conv2 (Conv2D)            (None, 56, 56, 256)   590080      block3_conv1[0][0]               
____________________________________________________________________________________________________
block3_conv3 (Conv2D)            (None, 56, 56, 256)   590080      block3_conv2[0][0]               
____________________________________________________________________________________________________
block3_pool (MaxPooling2D)       (None, 28, 28, 256)   0           block3_conv3[0][0]               
____________________________________________________________________________________________________
block4_conv1 (Conv2D)            (None, 28, 28, 512)   1180160     block3_pool[0][0]                
____________________________________________________________________________________________________
block4_conv2 (Conv2D)            (None, 28, 28, 512)   2359808     block4_conv1[0][0]               
____________________________________________________________________________________________________
block4_conv3 (Conv2D)            (None, 28, 28, 512)   2359808     block4_conv2[0][0]               
____________________________________________________________________________________________________
block4_pool (MaxPooling2D)       (None, 14, 14, 512)   0           block4_conv3[0][0]               
____________________________________________________________________________________________________
block5_conv1 (Conv2D)            (None, 14, 14, 512)   2359808     block4_pool[0][0]                
____________________________________________________________________________________________________
block5_conv2 (Conv2D)            (None, 14, 14, 512)   2359808     block5_conv1[0][0]               
____________________________________________________________________________________________________
block5_conv3 (Conv2D)            (None, 14, 14, 512)   2359808     block5_conv2[0][0]               
____________________________________________________________________________________________________
block5_pool (MaxPooling2D)       (None, 7, 7, 512)     0           block5_conv3[0][0]               
____________________________________________________________________________________________________
conv6 (Conv2D)                   (None, 7, 7, 4096)    102764544   block5_pool[0][0]                
____________________________________________________________________________________________________
pool4_11 (Conv2D)                (None, 14, 14, 21)    10773       block4_pool[0][0]                
____________________________________________________________________________________________________
conv7 (Conv2D)                   (None, 7, 7, 4096)    16781312    conv6[0][0]                      
____________________________________________________________________________________________________
conv2d_transpose_2 (Conv2DTransp (None, 28, 28, 21)    1764        pool4_11[0][0]                   
____________________________________________________________________________________________________
pool3_11 (Conv2D)                (None, 28, 28, 21)    5397        block3_pool[0][0]                
____________________________________________________________________________________________________
conv2d_transpose_1 (Conv2DTransp (None, 28, 28, 21)    1376256     conv7[0][0]                      
____________________________________________________________________________________________________
add (Add)                        (None, 28, 28, 21)    0           conv2d_transpose_2[0][0]         
                                                                   pool3_11[0][0]                   
                                                                   conv2d_transpose_1[0][0]         
____________________________________________________________________________________________________
conv2d_transpose_3 (Conv2DTransp (None, 224, 224, 21)  28224       add[0][0]                        
____________________________________________________________________________________________________
activation_1 (Activation)        (None, 224, 224, 21)  0           conv2d_transpose_3[0][0]         
====================================================================================================
Total params: 135,682,958
Trainable params: 135,682,958
Non-trainable params: 0
____________________________________________________________________________________________________
(10226,) (10226,)
(1805,) (1805,)
(1805, 224, 224, 3) (1805, 224, 224, 21)
Epoch 1/100
____________________________________________________________________________________________________
Layer (type)                     Output Shape          Param #     Connected to                     
====================================================================================================
input_1 (InputLayer)             (None, 224, 224, 3)   0                                            
____________________________________________________________________________________________________
block1_conv1 (Conv2D)            (None, 224, 224, 64)  1792        input_1[0][0]                    
____________________________________________________________________________________________________
block1_conv2 (Conv2D)            (None, 224, 224, 64)  36928       block1_conv1[0][0]               
____________________________________________________________________________________________________
block1_pool (MaxPooling2D)       (None, 112, 112, 64)  0           block1_conv2[0][0]               
____________________________________________________________________________________________________
block2_conv1 (Conv2D)            (None, 112, 112, 128) 73856       block1_pool[0][0]                
____________________________________________________________________________________________________
block2_conv2 (Conv2D)            (None, 112, 112, 128) 147584      block2_conv1[0][0]               
____________________________________________________________________________________________________
block2_pool (MaxPooling2D)       (None, 56, 56, 128)   0           block2_conv2[0][0]               
____________________________________________________________________________________________________
block3_conv1 (Conv2D)            (None, 56, 56, 256)   295168      block2_pool[0][0]                
____________________________________________________________________________________________________
block3_conv2 (Conv2D)            (None, 56, 56, 256)   590080      block3_conv1[0][0]               
____________________________________________________________________________________________________
block3_conv3 (Conv2D)            (None, 56, 56, 256)   590080      block3_conv2[0][0]               
____________________________________________________________________________________________________
block3_pool (MaxPooling2D)       (None, 28, 28, 256)   0           block3_conv3[0][0]               
____________________________________________________________________________________________________
block4_conv1 (Conv2D)            (None, 28, 28, 512)   1180160     block3_pool[0][0]                
____________________________________________________________________________________________________
block4_conv2 (Conv2D)            (None, 28, 28, 512)   2359808     block4_conv1[0][0]               
____________________________________________________________________________________________________
block4_conv3 (Conv2D)            (None, 28, 28, 512)   2359808     block4_conv2[0][0]               
____________________________________________________________________________________________________
block4_pool (MaxPooling2D)       (None, 14, 14, 512)   0           block4_conv3[0][0]               
____________________________________________________________________________________________________
block5_conv1 (Conv2D)            (None, 14, 14, 512)   2359808     block4_pool[0][0]                
____________________________________________________________________________________________________
block5_conv2 (Conv2D)            (None, 14, 14, 512)   2359808     block5_conv1[0][0]               
____________________________________________________________________________________________________
block5_conv3 (Conv2D)            (None, 14, 14, 512)   2359808     block5_conv2[0][0]               
____________________________________________________________________________________________________
block5_pool (MaxPooling2D)       (None, 7, 7, 512)     0           block5_conv3[0][0]               
____________________________________________________________________________________________________
conv6 (Conv2D)                   (None, 7, 7, 4096)    102764544   block5_pool[0][0]                
____________________________________________________________________________________________________
pool4_11 (Conv2D)                (None, 14, 14, 21)    10773       block4_pool[0][0]                
____________________________________________________________________________________________________
conv7 (Conv2D)                   (None, 7, 7, 4096)    16781312    conv6[0][0]                      
____________________________________________________________________________________________________
conv2d_transpose_2 (Conv2DTransp (None, 28, 28, 21)    1764        pool4_11[0][0]                   
____________________________________________________________________________________________________
pool3_11 (Conv2D)                (None, 28, 28, 21)    5397        block3_pool[0][0]                
____________________________________________________________________________________________________
conv2d_transpose_1 (Conv2DTransp (None, 28, 28, 21)    1376256     conv7[0][0]                      
____________________________________________________________________________________________________
add (Add)                        (None, 28, 28, 21)    0           conv2d_transpose_2[0][0]         
                                                                   pool3_11[0][0]                   
                                                                   conv2d_transpose_1[0][0]         
____________________________________________________________________________________________________
conv2d_transpose_3 (Conv2DTransp (None, 224, 224, 21)  28224       add[0][0]                        
____________________________________________________________________________________________________
activation_1 (Activation)        (None, 224, 224, 21)  0           conv2d_transpose_3[0][0]         
====================================================================================================
Total params: 135,682,958
Trainable params: 135,682,958
Non-trainable params: 0
____________________________________________________________________________________________________
10582
____________________________________________________________________________________________________
Layer (type)                     Output Shape          Param #     Connected to                     
====================================================================================================
input_1 (InputLayer)             (None, 224, 224, 3)   0                                            
____________________________________________________________________________________________________
block1_conv1 (Conv2D)            (None, 224, 224, 64)  1792        input_1[0][0]                    
____________________________________________________________________________________________________
block1_conv2 (Conv2D)            (None, 224, 224, 64)  36928       block1_conv1[0][0]               
____________________________________________________________________________________________________
block1_pool (MaxPooling2D)       (None, 112, 112, 64)  0           block1_conv2[0][0]               
____________________________________________________________________________________________________
block2_conv1 (Conv2D)            (None, 112, 112, 128) 73856       block1_pool[0][0]                
____________________________________________________________________________________________________
block2_conv2 (Conv2D)            (None, 112, 112, 128) 147584      block2_conv1[0][0]               
____________________________________________________________________________________________________
block2_pool (MaxPooling2D)       (None, 56, 56, 128)   0           block2_conv2[0][0]               
____________________________________________________________________________________________________
block3_conv1 (Conv2D)            (None, 56, 56, 256)   295168      block2_pool[0][0]                
____________________________________________________________________________________________________
block3_conv2 (Conv2D)            (None, 56, 56, 256)   590080      block3_conv1[0][0]               
____________________________________________________________________________________________________
block3_conv3 (Conv2D)            (None, 56, 56, 256)   590080      block3_conv2[0][0]               
____________________________________________________________________________________________________
block3_pool (MaxPooling2D)       (None, 28, 28, 256)   0           block3_conv3[0][0]               
____________________________________________________________________________________________________
block4_conv1 (Conv2D)            (None, 28, 28, 512)   1180160     block3_pool[0][0]                
____________________________________________________________________________________________________
block4_conv2 (Conv2D)            (None, 28, 28, 512)   2359808     block4_conv1[0][0]               
____________________________________________________________________________________________________
block4_conv3 (Conv2D)            (None, 28, 28, 512)   2359808     block4_conv2[0][0]               
____________________________________________________________________________________________________
block4_pool (MaxPooling2D)       (None, 14, 14, 512)   0           block4_conv3[0][0]               
____________________________________________________________________________________________________
block5_conv1 (Conv2D)            (None, 14, 14, 512)   2359808     block4_pool[0][0]                
____________________________________________________________________________________________________
block5_conv2 (Conv2D)            (None, 14, 14, 512)   2359808     block5_conv1[0][0]               
____________________________________________________________________________________________________
block5_conv3 (Conv2D)            (None, 14, 14, 512)   2359808     block5_conv2[0][0]               
____________________________________________________________________________________________________
block5_pool (MaxPooling2D)       (None, 7, 7, 512)     0           block5_conv3[0][0]               
____________________________________________________________________________________________________
conv6 (Conv2D)                   (None, 7, 7, 4096)    102764544   block5_pool[0][0]                
____________________________________________________________________________________________________
pool4_11 (Conv2D)                (None, 14, 14, 21)    10773       block4_pool[0][0]                
____________________________________________________________________________________________________
conv7 (Conv2D)                   (None, 7, 7, 4096)    16781312    conv6[0][0]                      
____________________________________________________________________________________________________
conv2d_transpose_2 (Conv2DTransp (None, 28, 28, 21)    1764        pool4_11[0][0]                   
____________________________________________________________________________________________________
pool3_11 (Conv2D)                (None, 28, 28, 21)    5397        block3_pool[0][0]                
____________________________________________________________________________________________________
conv2d_transpose_1 (Conv2DTransp (None, 28, 28, 21)    1376256     conv7[0][0]                      
____________________________________________________________________________________________________
add (Add)                        (None, 28, 28, 21)    0           conv2d_transpose_2[0][0]         
                                                                   pool3_11[0][0]                   
                                                                   conv2d_transpose_1[0][0]         
____________________________________________________________________________________________________
conv2d_transpose_3 (Conv2DTransp (None, 224, 224, 21)  28224       add[0][0]                        
____________________________________________________________________________________________________
activation_1 (Activation)        (None, 224, 224, 21)  0           conv2d_transpose_3[0][0]         
====================================================================================================
Total params: 135,682,958
Trainable params: 135,682,958
Non-trainable params: 0
____________________________________________________________________________________________________
10582
____________________________________________________________________________________________________
Layer (type)                     Output Shape          Param #     Connected to                     
====================================================================================================
input_1 (InputLayer)             (None, 224, 224, 3)   0                                            
____________________________________________________________________________________________________
block1_conv1 (Conv2D)            (None, 224, 224, 64)  1792        input_1[0][0]                    
____________________________________________________________________________________________________
block1_conv2 (Conv2D)            (None, 224, 224, 64)  36928       block1_conv1[0][0]               
____________________________________________________________________________________________________
block1_pool (MaxPooling2D)       (None, 112, 112, 64)  0           block1_conv2[0][0]               
____________________________________________________________________________________________________
block2_conv1 (Conv2D)            (None, 112, 112, 128) 73856       block1_pool[0][0]                
____________________________________________________________________________________________________
block2_conv2 (Conv2D)            (None, 112, 112, 128) 147584      block2_conv1[0][0]               
____________________________________________________________________________________________________
block2_pool (MaxPooling2D)       (None, 56, 56, 128)   0           block2_conv2[0][0]               
____________________________________________________________________________________________________
block3_conv1 (Conv2D)            (None, 56, 56, 256)   295168      block2_pool[0][0]                
____________________________________________________________________________________________________
block3_conv2 (Conv2D)            (None, 56, 56, 256)   590080      block3_conv1[0][0]               
____________________________________________________________________________________________________
block3_conv3 (Conv2D)            (None, 56, 56, 256)   590080      block3_conv2[0][0]               
____________________________________________________________________________________________________
block3_pool (MaxPooling2D)       (None, 28, 28, 256)   0           block3_conv3[0][0]               
____________________________________________________________________________________________________
block4_conv1 (Conv2D)            (None, 28, 28, 512)   1180160     block3_pool[0][0]                
____________________________________________________________________________________________________
block4_conv2 (Conv2D)            (None, 28, 28, 512)   2359808     block4_conv1[0][0]               
____________________________________________________________________________________________________
block4_conv3 (Conv2D)            (None, 28, 28, 512)   2359808     block4_conv2[0][0]               
____________________________________________________________________________________________________
block4_pool (MaxPooling2D)       (None, 14, 14, 512)   0           block4_conv3[0][0]               
____________________________________________________________________________________________________
block5_conv1 (Conv2D)            (None, 14, 14, 512)   2359808     block4_pool[0][0]                
____________________________________________________________________________________________________
block5_conv2 (Conv2D)            (None, 14, 14, 512)   2359808     block5_conv1[0][0]               
____________________________________________________________________________________________________
block5_conv3 (Conv2D)            (None, 14, 14, 512)   2359808     block5_conv2[0][0]               
____________________________________________________________________________________________________
block5_pool (MaxPooling2D)       (None, 7, 7, 512)     0           block5_conv3[0][0]               
____________________________________________________________________________________________________
conv6 (Conv2D)                   (None, 7, 7, 4096)    102764544   block5_pool[0][0]                
____________________________________________________________________________________________________
pool4_11 (Conv2D)                (None, 14, 14, 21)    10773       block4_pool[0][0]                
____________________________________________________________________________________________________
conv7 (Conv2D)                   (None, 7, 7, 4096)    16781312    conv6[0][0]                      
____________________________________________________________________________________________________
conv2d_transpose_2 (Conv2DTransp (None, 28, 28, 21)    1764        pool4_11[0][0]                   
____________________________________________________________________________________________________
pool3_11 (Conv2D)                (None, 28, 28, 21)    5397        block3_pool[0][0]                
____________________________________________________________________________________________________
conv2d_transpose_1 (Conv2DTransp (None, 28, 28, 21)    1376256     conv7[0][0]                      
____________________________________________________________________________________________________
add (Add)                        (None, 28, 28, 21)    0           conv2d_transpose_2[0][0]         
                                                                   pool3_11[0][0]                   
                                                                   conv2d_transpose_1[0][0]         
____________________________________________________________________________________________________
conv2d_transpose_3 (Conv2DTransp (None, 224, 224, 21)  28224       add[0][0]                        
____________________________________________________________________________________________________
activation_1 (Activation)        (None, 224, 224, 21)  0           conv2d_transpose_3[0][0]         
====================================================================================================
Total params: 135,682,958
Trainable params: 135,682,958
Non-trainable params: 0
____________________________________________________________________________________________________
10582
10582 10582
1449
(1449, 224, 224, 3) (1449, 224, 224, 21)
Epoch 1/100
