_________________________________________________________________
Layer (type)                 Output Shape              Param #   
=================================================================
input_1 (InputLayer)         (None, 448, 448, 12)      0         
_________________________________________________________________
conv2d_1 (Conv2D)            (None, 446, 446, 64)      6976      
_________________________________________________________________
leaky_re_lu_1 (LeakyReLU)    (None, 446, 446, 64)      0         
_________________________________________________________________
conv2d_2 (Conv2D)            (None, 222, 222, 64)      36928     
_________________________________________________________________
leaky_re_lu_2 (LeakyReLU)    (None, 222, 222, 64)      0         
_________________________________________________________________
batch_normalization_1 (Batch (None, 222, 222, 64)      256       
_________________________________________________________________
conv2d_3 (Conv2D)            (None, 220, 220, 128)     73856     
_________________________________________________________________
leaky_re_lu_3 (LeakyReLU)    (None, 220, 220, 128)     0         
_________________________________________________________________
batch_normalization_2 (Batch (None, 220, 220, 128)     512       
_________________________________________________________________
conv2d_4 (Conv2D)            (None, 109, 109, 128)     147584    
_________________________________________________________________
leaky_re_lu_4 (LeakyReLU)    (None, 109, 109, 128)     0         
_________________________________________________________________
batch_normalization_3 (Batch (None, 109, 109, 128)     512       
_________________________________________________________________
conv2d_5 (Conv2D)            (None, 107, 107, 256)     295168    
_________________________________________________________________
leaky_re_lu_5 (LeakyReLU)    (None, 107, 107, 256)     0         
_________________________________________________________________
batch_normalization_4 (Batch (None, 107, 107, 256)     1024      
_________________________________________________________________
conv2d_6 (Conv2D)            (None, 53, 53, 256)       590080    
_________________________________________________________________
leaky_re_lu_6 (LeakyReLU)    (None, 53, 53, 256)       0         
_________________________________________________________________
batch_normalization_5 (Batch (None, 53, 53, 256)       1024      
_________________________________________________________________
conv2d_7 (Conv2D)            (None, 51, 51, 512)       1180160   
_________________________________________________________________
leaky_re_lu_7 (LeakyReLU)    (None, 51, 51, 512)       0         
_________________________________________________________________
batch_normalization_6 (Batch (None, 51, 51, 512)       2048      
_________________________________________________________________
conv2d_8 (Conv2D)            (None, 25, 25, 512)       2359808   
_________________________________________________________________
leaky_re_lu_8 (LeakyReLU)    (None, 25, 25, 512)       0         
_________________________________________________________________
batch_normalization_7 (Batch (None, 25, 25, 512)       2048      
_________________________________________________________________
dense_1 (Dense)              (None, 25, 25, 1024)      525312    
_________________________________________________________________
leaky_re_lu_9 (LeakyReLU)    (None, 25, 25, 1024)      0         
_________________________________________________________________
flatten_1 (Flatten)          (None, 640000)            0         
_________________________________________________________________
dense_4 (Dense)              (None, 256)               163840256 
_________________________________________________________________
leaky_re_lu_12 (LeakyReLU)   (None, 256)               0         
_________________________________________________________________
dense_5 (Dense)              (None, 1)                 257       
=================================================================
Total params: 169,063,809
Trainable params: 169,060,097
Non-trainable params: 3,712
_________________________________________________________________
class 00: #TP=1796367, #FP=113311, #FN=27513, IoU=0.927
class 01: #TP=4699396, #FP=274764, #FN=516532, IoU=0.856
class 02: #TP= 10103, #FP= 37408, #FN=133988, IoU=0.056
class 03: #TP=5751609, #FP=117810, #FN=151051, IoU=0.955
…
